task2morph/02_flip_box/results/tmp/params.npy (npy, 1880 bytes, 1 tensors)

array f8 [219]
0	0x3fefb95ac7cba2f6	0.991376295304774
1	0xbfefea0a8ea9d319	-0.9973194872278298
2	0xbfefffc02a640328	-0.9999695613806567
3	0xbfc0c20a99e583a5	-0.13092167391280643
4	0x3fefeed00003089e	0.997901916525979
5	0x3fefffb6fba29ca2	0.9999651827573823
6	0xbfefffae8bd55338	-0.9999611598128473
7	0x3fefb611c231baec	0.990975264821683
8	0x3fefffa1165c4a5f	0.9999547421196658
9	0xbfefffbf5cbe9aea	-0.9999691783349054
10	0xbfeff98c9e4b4d23	-0.9992125598604712
11	0x3feff1d2797cca46	0.9982693074037534
12	0x3fefffbd3f71f789	0.9999681700862634
13	0xbfefffbdb0603266	-0.999968380435871
14	0x3fefbf269ae0af55	0.9920838379816624
15	0x3fefffa218ec51de	0.9999552237300653
16	0xbfefffc02cd8060a	-0.99996956595004
17	0xbfeff9450e12698c	-0.9991784357874152
18	0x3feff1ca16229fe1	0.9982653076485769
19	0x3fefffbc874fa70d	0.9999678271098859
20	0xbfefffbdbd545ff8	-0.9999684045642416
21	0x3fefc868b7130b6f	0.9932139945670836
22	0x3fefffa253e1c849	0.9999553335494592
23	0xbfefffc0ec890544	-0.9999699230030861
24	0xbfeff989e228b33a	-0.9992112557571098
25	0x3feff1835e2ff475	0.9982315864177865
26	0x3fefffbbddf66aba	0.9999675116735809
27	0xbfefffbe88f10e81	-0.9999687838212169
28	0x3fefd303bde56e6c	0.9945086201582405
29	0x3fefffa2abff526c	0.9999554976771612
30	0xbfefffc19bc8a823	-0.9999702494290016
31	0xbfefffc668192661	-0.9999725373429095
32	0x3feff16b55440fb9	0.9982201257084774
33	0x3fefffbb501221b9	0.9999672473796216
34	0xbfefffbf99d50cdb	-0.999969292119569
35	0x3fefe26c05742bb4	0.9963893991965649
36	0x3fefffa2d2209ee6	0.999955568699957
37	0xbfefffc22baacf47	-0.9999705174327368
38	0xbfefffc653e8488d	-0.9999724997344558
39	0x3feff26c545eafff	0.9983426711892206
40	0x3fefffbb2daf7f3e	0.9999671833320247
41	0xbfefffc08c9e1b06	-0.9999697443425652
42	0x3feff471355b5507	0.9985891382335986
43	0x3fefff9e1a569142	0.9999533190171308
44	0xbfeff89f6cdeff72	-0.9990994573963532
45	0xbfefffc6ee61ed65	-0.9999727874668848
46	0x3feff6350cb19921	0.9988045928883232
47	0x3fefffbed903dc52	0.9999689329696457
48	0xbfefffc37c49189a	-0.9999711444331922
49	0x3fefef907c67be93	0.9979937009611198
50	0x3fefffa7dfade296	0.9999579781279688
51	0xbfeff8ae5c038964	-0.9991065785546138
52	0xbfefffc4dbc1677d	-0.9999717990969966
53	0x3ff0000000000000	1.0
54	0x3feff82cbb79f035	0.9990447675368218
55	0xbfefffb3a24f0c5a	-0.9999635858624842
56	0x3fefffedcd5bb1fe	0.9999913226034207
57	0x3fefffb5b13758a9	0.9999645673040237
58	0x3feac3a0f5eb388f	0.8363804629423316
59	0xbff0000000000000	-1.0
60	0x3feff6f445a956f1	0.9988957748962247
61	0x3fefffbe45414e67	0.9999686577452395
62	0xbfefffb7242c08d6	-0.9999652582630698
63	0xbff0000000000000	-1.0
64	0x3ff0000000000000	1.0
65	0x3feff960ef79a378	0.9991917302369151
66	0xbfefffc7bed6495e	-0.9999731757437009
67	0x3ff0000000000000	1.0
68	0x3feff982541cacc8	0.9992076533138965
69	0xbfefffc87f86ec00	-0.9999735346567604
70	0xbff0000000000000	-1.0
71	0x3ff0000000000000	1.0
72	0x3feff913a31c8957	0.9991548715372954
73	0xbfefffc7af03d954	-0.9999731462728882
74	0x3ff0000000000000	1.0
75	0xbfeff8efbb7b2c69	-0.9991377507916585
76	0xbfefffd1dc9ac333	-0.9999779995615427
77	0xbff0000000000000	-1.0
78	0xbfeff589173376ae	-0.9987225964684592
79	0xbfdae990fb313b53	-0.42050575762271086
80	0x3feff8cda35d6ca9	0.9991214934083433
81	0x3ff0000000000000	1.0
82	0xbfeff86ac8aa2380	-0.9990743560057211
83	0xbff0000000000000	-1.0
84	0xbfeff9764c5f464f	-0.9992019168514136
85	0xbfefff9ce81e4138	-0.9999527486379867
86	0xbfe9b312e08ca7ea	-0.8031095872622676
87	0x3fefffc2c64caf13	0.9999708054578796
88	0x3feffffa9a2437fd	0.9999974260879295
89	0xbfeff88adde71015	-0.9990896543536133
90	0xbff0000000000000	-1.0
91	0x3feff5df4f2ce2da	0.9987637087243357
92	0xbfeff9262affc904	-0.9991637077166904
93	0x3fe5291966f4d342	0.6612669955125983
94	0x3feff9789ac8c704	0.9992030165796852
95	0x3fefffc683226ed1	0.9999725877018709
96	0xbfefffba4e777734	-0.9999667675544743
97	0xbfeffff1e4d34026	-0.9999932736627712
98	0x3feff79be3507f56	0.9989757003531661
99	0xbfeff7d1ae96deda	-0.9990013513515479
100	0x3fdeb73e73e4500b	0.479934323478347
101	0x3feff915929f0635	0.9991557944960677
102	0x3feff97b1fba67cd	0.9992042178812369
103	0xbfeff904e2bff991	-0.9991478375157375
104	0xbfefffc0b3282371	-0.9999698161274023
105	0x3feff6ac71736828	0.9988615241848082
106	0xbfefffc39a650f4e	-0.9999712005160093
107	0x3f41774a5f43db72	0.0005330193658029515
108	0x3feff972189d1f72	0.9991999130952378
109	0x3feff8ac51947063	0.999105605445504
110	0xbfeff8271c2234c1	-0.999042086552116
111	0xbfeff90ead8bb18b	-0.9991525067867298
112	0xbff0000000000000	-1.0
113	0xbfeffffa9c5fb9fc	-0.999997430246196
114	0xbfdad7cfe363cac3	-0.4194221230128898
115	0x3feff9954c014de9	0.9992166981195939
116	0x3feff897aec718e9	0.9990957654597682
117	0xbfeff8c2deb2f52e	-0.9991163587180034
118	0xbfeff8d00f7d3d53	-0.9991226484798211
119	0x3feff5ef9cb6fac7	0.9987714825473056
120	0xbff0000000000000	-1.0
121	0xbfe48ac5844b53f0	-0.6419398864624082
122	0x3feff993a19bc927	0.9992159038941154
123	0x3feff9623914ed7d	0.9991923441770464
124	0xbfeff8a276feca4a	-0.9991009067655992
125	0xbfeff95091096700	-0.9991839249371139
126	0x3feff448b09ac53d	0.9985698174770402
127	0xbfeff97f2aeb3645	-0.9992061460740805
128	0xbfd310b22f7745b1	-0.29789404521315094
129	0x3feffffaa757fcaa	0.9999974506789802
130	0x3fefffc6b961afc9	0.9999726887449408
131	0xbfeff8a5a5e8b030	-0.9991024246605829
132	0xbfeff8ba36b906ac	-0.9991122311405056
133	0xbff0000000000000	-1.0
134	0xbfa8c02fb157c629	-0.04834126510457921
135	0x3fa70a68955b148a	0.045001285774142266
136	0x3f8fd4241191d5d2	0.015541345392402404
137	0x3feff99e41cc54c1	0.999220970642135
138	0xbfeff89dd4c15169	-0.9990986972211832
139	0xbfeff8e03efc88d0	-0.9991303663448665
140	0xbff0000000000000	-1.0
141	0xbfb4d00262590943	-0.08129897023267056
142	0x3fa0b2ff86fb2ce3	0.03261564753264581
143	0x3f8c85847222c8e0	0.013926539166594087
144	0xbfeff9502c353770	-0.9991837371287442
145	0x3ff0000000000000	1.0
146	0x3fefffc34936f08e	0.9999710493061842
147	0xbff0000000000000	-1.0
148	0xbfeff971c937b95d	-0.999199765208498
149	0xbfb8f83a41c28825	-0.09753765206781446
150	0x3fd6721614158707	0.35071327172600814
151	0xbfeff988a65ce2c8	-0.999210667540944
152	0x3ff0000000000000	1.0
153	0x3fefffc3cc32c088	0.99997129328223
154	0xbff0000000000000	-1.0
155	0xbfe3fd805dd64257	-0.6246949990036893
156	0xbfa2ec64170b8d44	-0.03695977002441933
157	0x3fbc3db2625974e8	0.11031641865834596
158	0xbff0000000000000	-1.0
159	0x3ff0000000000000	1.0
160	0x3fefffc455d5a99c	0.9999715496499451
161	0xbff0000000000000	-1.0
162	0xbfc6a733da4963e2	-0.17697761686829866
163	0xbf882a10bb5ac005	-0.01179898330460106
164	0x3f9f649fb61e48b9	0.03065728711187241
165	0xbfeff9703bdaab54	-0.9991990250613108
166	0x3feff99b82a2a347	0.9992196608992366
167	0x3feff97a9eb167b2	0.999203977534526
168	0xbff0000000000000	-1.0
169	0xbfc37037fb353c4a	-0.15186214223874323
170	0xbf7b308cf28d043c	-0.006638098312408632
171	0x3f9b3ae9ee52107a	0.02659192578404699
172	0xbfed8a563873791d	-0.9231368162689112
173	0x3ff0000000000000	1.0
174	0x3feff8c9d44fac38	0.9991196772292659
175	0xbff0000000000000	-1.0
176	0xbfc2288f77e59ddd	-0.1418628058847692
177	0xbf802d6a0d6c1da5	-0.007899120840660976
178	0x3f9993801e2237a9	0.024976732100689656
179	0xbfe958aaaff75974	-0.7920735775794996
180	0x3ff0000000000000	1.0
181	0x3feff8628b891c01	0.9990704274467818
182	0xbff0000000000000	-1.0
183	0x3fd3003cc9a89c02	0.29688949292398104
184	0x3f987ad674f04405	0.023906088721620495
185	0xbfab46ebbe1603bd	-0.05327545829187084
186	0xbfe748414dd8c9df	-0.7275702019163041
187	0x3feff98c11549211	0.9992122972949479
188	0x3fd7b8fe7c07a10e	0.3706661425808456
189	0xbff0000000000000	-1.0
190	0x3fbf38003f7e4cff	0.12194825697070043
191	0x3f7bb31053b7f5c8	0.006762565400547378
192	0xbf97232f40d13f3b	-0.022595156031740542
193	0xbfeff9765b69b82f	-0.9992019448670869
194	0x3feff9884435314b	0.9992104847129125
195	0x3feff95d33caf50a	0.9991899501398234
196	0xbfeffff18b5500de	-0.9999931069687837
197	0x3faab230cb9e1166	0.05214073644222843
198	0x3f66368b2cf85473	0.0027115553164188066
199	0xbf83ff2a9bc01989	-0.009764035108685192
200	0xbfec705e07fd6ce2	-0.888716712575299
201	0x3feff97d86bb0035	0.9992053634123353
202	0x3feff931fed758d1	0.9991693475119751
203	0xbfb773be22a7494b	-0.09160984369308271
204	0xbf61a0a0e513c8c4	-0.0021517889477929725
205	0xbf32c3d9af2cd9ea	-0.00028633179242679044
206	0x3f39a171e26197d3	0.0003910925901265936
207	0xbfb940938f5dd5c3	-0.09864160776290647
208	0x3fb1db19f95d95b7	0.06974947298075206
209	0x3fca61c5b3ee7346	0.20610877309527548
210	0x3fe044f3a0ef47e5	0.5084169524436645
211	0x3fe023685f38c8c1	0.5043222293664017
212	0x4008000000000000	3.0
213	0x4007fc7090a62c2f	2.99826157576674
214	0x4007ffff23f27595	2.9999983604781826
215	0x4007fcca9afdda12	2.998433314201301
216	0x4007ff126afd27eb	2.999546848154741
217	0x4007ff2eb4505344	2.9996008002293895
218	0x4007ff757b567536	2.9997357974777072
