Task2Mroph/01_finger_reach/model/reach_model_parameter_reference_1.pkl (torch, 16485 bytes, 6 tensors)

hidden1.weight f8 [32, 12]
0	0xbfaefaf2119ab417	-0.06050831284424179
1	0xbfca0fff2b0fefbe	-0.20361318209313412
2	0xbfb77adcb305c768	-0.0917184769694167
3	0xbfbe35f90c68da5d	-0.11801106026619253
4	0xbfc565f121fa86e9	-0.16717352065193516
5	0x3fbd780383fe895f	0.11511251423374834
6	0xbfcf65679ebc9850	-0.24528212786498438
7	0x3fd3094ba1e5eb2f	0.29744234857905644
8	0x3fa1fa2f2fd8935b	0.03511187991197203
9	0x3fcd2694d6206784	0.22773991065406218
10	0x3fcc6f8d89521522	0.2221543236266053
11	0xbfc73b4715bb1a9f	-0.1814965110881603
12	0xbfc09bcbe92e5fff	-0.12975453267858936
13	0x3fb1a6fb67463434	0.06895419379562001
14	0xbfc020f7439445a5	-0.12600603866353058
15	0x3fc7a518be86d9b4	0.18472585013451026
16	0xbfc11dbba514bb36	-0.1337198787745934
17	0x3fb40750df32adbb	0.07823663186234502
18	0x3fd2d4e752b70a56	0.2942446048511206
19	0xbfcbd8bbe1740ea1	-0.21755169399704236
20	0x3fc6eab5ae040d31	0.17903777119509237
21	0xbfaacaa5445dd433	-0.0523273130374168
22	0x3fd0a538427f7463	0.2600842141526469
23	0xbfbff0a290e5fafb	-0.12476554906423225
24	0x3fd1e13ded3c12ec	0.279372674631573
25	0x3fade853bb9cf1e8	0.05841313996504366
26	0xbfc6bcc750717f11	-0.17763606479547225
27	0xbfd32124b34bb273	-0.29889791020722284
28	0xbf7776132d929aab	-0.005727839388021276
29	0x3fb34df35051fbb6	0.07540817938750774
30	0xbfa53e216901778f	-0.04148964316185221
31	0x3fcf3dca82966d08	0.24407321335170473
32	0xbfd1d1c2289af4c6	-0.27842763867722586
33	0x3fcda129656bf68d	0.23148076488717031
34	0x3fd6e756396d2f67	0.3578696785741528
35	0xbfa951301a97fc5c	-0.04944753956441936
36	0x3fba20bc61ba9ca2	0.1020620096775127
37	0xbfad1b83bb62b204	-0.05685054457112318
38	0xbfc9f5d8b4f56359	-0.202815140112558
39	0xbfadbfda92353b4b	-0.05810435328259319
40	0xbfc96c5864d8f5cb	-0.19861893581575737
41	0xbfc95c43d9876081	-0.19812820550464852
42	0x3fc219409bf78cb7	0.141395641475446
43	0xbfa94f0fecde3827	-0.049431321777874175
44	0x3fc21d8f3777d3b0	0.14152708252336543
45	0x3fbbe9f8a8b2c4eb	0.10903886908160458
46	0xbfb21bbc048c2279	-0.07073569403667958
47	0x3fcf5e3c1966197a	0.24506331672837317
48	0xbfa1bb368a9d051f	-0.03463144723947153
49	0x3fa364640410d0c9	0.03787529515867189
50	0xbfcae085ee02c8c3	-0.2099769031679611
51	0x3fcd6f869166b4b6	0.2299659929243824
52	0x3fa3465887c8591f	0.037646071028733845
53	0xbfb7eeb26e2eba96	-0.09348597707751546
54	0xbfbf2d992f988258	-0.12178952610020966
55	0x3fb014658ef0f9bb	0.06281122913148966
56	0x3fd13cf28e7a676a	0.2693449393642512
57	0xbfb8454148a2ab62	-0.09480674765897626
58	0x3fb241d0dc8bef3a	0.07131677040518705
59	0x3fc4c865f2754afd	0.16236566866663074
60	0xbfcb787ea64b7ff6	-0.21461470718259051
61	0xbf8ecccd595bb460	-0.015039066590782635
62	0x3fd28239d19c0692	0.28919835538554495
63	0x3fa040d1a5501972	0.03174452918033212
64	0x3fc280c464731ff6	0.14455466179629156
65	0x3fd13faef470f6ac	0.2695119273301809
66	0x3fa0c24b6b2be2b4	0.032732350189637854
67	0xbfc37ec52312e446	-0.15230621540630035
68	0xbfbb2581397b46db	-0.10604102757795479
69	0x3fc23976b4d19f6b	0.14237865284962523
70	0x3fce83c49d044488	0.23839624087171196
71	0xbfb2990ff302c96f	-0.07264804537661516
72	0x3f7a1f557ba96ebe	0.006377538603000664
73	0x3fb2a93696006dff	0.0728944889273677
74	0x3fc2477a35c075b3	0.1428063166103307
75	0x3f9e0c14fc343cc9	0.029342964070619346
76	0xbfccd587775655e2	-0.22526639296545087
77	0xbfb2e72709cb4d09	-0.07383960713496064
78	0xbfbd6783cdf75857	-0.11486076143714406
79	0xbfcf54d19a8ad501	-0.24477596326838838
80	0x3fb8fa1062485416	0.09756567382312684
81	0x3fb9a6cb768050b1	0.10020133631798235
82	0x3fb31e4c4c099702	0.07468106132872879
83	0xbfd539d6746fb600	-0.3316551339219984
84	0x3fbbb9bbd15d4b88	0.10830282079159137
85	0x3fce00dc74005094	0.23440128006098304
86	0x3fb5c3665711e576	0.0850128138134972
87	0xbfc641126d2015e1	-0.17386083916078035
88	0x3fc3f7d709e7b027	0.1560009764065182
89	0x3fba9a872e6ab2c5	0.10392041094992084
90	0xbfcc51e828d44b65	-0.22124959939591374
91	0xbfce9a5c6a314664	-0.23908572373561576
92	0xbfcec5f752a96a72	-0.24041644607753515
93	0xbfd0ea645e54ed61	-0.26430615627369575
94	0xbfb6aaf27e3a6315	-0.08854594785442445
95	0x3fc72af1e297fb89	0.18099807323593733
96	0xbfcb1fe941dc5b99	-0.21191135135515252
97	0x3fc242a61c7b083b	0.14265896216062565
98	0xbfc8c213857c4698	-0.19342273729175896
99	0xbfc3e0446742b9c1	-0.1552815918161752
100	0x3fc5352355d56c04	0.16568414393518094
101	0x3fc344e3a6ad3a2a	0.15053983343610017
102	0x3fcc8b1ebc2dbf5e	0.2229956072655978
103	0xbfb1f68c2986ae33	-0.07016826642819111
104	0xbf6126436f348de8	-0.002093440730861696
105	0xbfbb796df84eaff8	-0.1073216181964084
106	0x3fcea22347f3fc88	0.23932305348714444
107	0x3fd39e795572f2df	0.3065474829161711
108	0x3fce77597e1cf81b	0.23801726014966182
109	0xbfd3b013bb35b5d0	-0.30762189180572097
110	0x3fc6c4caee1f54cf	0.1778806364733669
111	0xbfd21e18740617a7	-0.2830868847889811
112	0x3f8fc8ca974f7e7a	0.015519697897558905
113	0xbfd4830683116595	-0.3204971580467711
114	0x3fc8f02b8c3905aa	0.19482941004575355
115	0x3fba964d0194aa9d	0.1038559082850647
116	0x3fc15e48f9559a09	0.13568985151796678
117	0x3fac8f70f82f21ed	0.055781870170509375
118	0xbfc6d4e213c3bec5	-0.17837167706556137
119	0xbfcef91bdeccbe95	-0.24197719935317666
120	0x3fcdc538a135ca37	0.23258121368015036
121	0xbfab9900c18d95ea	-0.05390169489582404
122	0x3fad7e99f7972e31	0.05760651728959621
123	0x3fbce1b595fa444f	0.1128190508991491
124	0x3fbd7f1a09b65b77	0.11522066819303044
125	0xbfc3f66b5cb39c97	-0.1559576227802821
126	0x3fc29e3a1a89c2ef	0.14545370384032405
127	0xbfbb6ecb4bc1a056	-0.10715933417816478
128	0x3fd3c454a3ad1f13	0.3088580702210361
129	0xbfd3db8f2e6234ca	-0.31027583627367206
130	0xbfc60b2c94a778b9	-0.17221600779061477
131	0x3fcf67f762a26054	0.24536030117156093
132	0xbfa99d304e836ed1	-0.050027379593044714
133	0x3fc02dfd26451664	0.12640346878667963
134	0x3faf298a9cd90dae	0.06086381115576543
135	0x3fc6182f5244389a	0.1726130630199279
136	0x3fd215c3c540aa10	0.2825784136099694
137	0xbfc1207baded64c1	-0.13380380623383384
138	0x3fb784c464ce54dd	0.09186961613734775
139	0x3fb46d662145d547	0.07979429542850368
140	0xbfc0e082152e1e88	-0.13185144457041909
141	0x3fbb0c1ad68fae53	0.10565345514594897
142	0xbfc8cd85a60ec6c3	-0.19377203567778709
143	0xbfbdddb55d22f948	-0.11666425250857515
144	0xbfca2f910cb943f0	-0.20457661744379108
145	0x3f80ffba93a27b06	0.008300264006093194
146	0xbfc3e31b1ea7714a	-0.1553682231596077
147	0xbfc9948350788d9a	-0.199844755451619
148	0xbfcaf74655d55983	-0.21067122641643374
149	0x3fd55743f705a303	0.33345126269573216
150	0x3fc831a3411dbc5a	0.18901482276439446
151	0xbfbdb62b386ca054	-0.11606092574641141
152	0x3fc17afdff14bf25	0.13656592326287256
153	0x3fa02d766ded6024	0.03159685222516398
154	0xbfce19721284c3a2	-0.23515153793553362
155	0x3fcf472275263524	0.24435835571458953
156	0xbfa11d95b546d118	-0.03342883909081901
157	0x3fbbec7ef302f4c6	0.1090773909845267
158	0xbfb91a46a5ab3182	-0.09805718941351496
159	0xbfab7bfd00e8696e	-0.0536803306205965
160	0x3fc68c7745682a76	0.17616167916306197
161	0x3fcc78e7319422d5	0.22243966980774724
162	0x3fc3258518e0fddb	0.14958251681126353
163	0xbfb966ca8910c30b	-0.09922471853566266
164	0x3fc9b25ad36a8042	0.2007554561905654
165	0x3fcc748a2f54c1b8	0.22230651198471008
166	0x3fcabd6add6c10bd	0.20890556155803167
167	0xbf9f6e5e7f662715	-0.030694462323970734
168	0x3fc7c106333c6cf4	0.18557813169250148
169	0x3fc44d7b13da1a20	0.15861452550252952
170	0x3fd49e887122c100	0.3221760849801427
171	0xbfcb19d9b59619a5	-0.21172639242668115
172	0xbfcf83df6928b810	-0.2462119353744474
173	0xbfb518bf2c287a16	-0.08240885570601394
174	0x3fc37d2f8363bbdb	0.15225786128527727
175	0xbfb6e0bd1d006a06	-0.08936674078032789
176	0xbf7de290ae290c5e	-0.007296147496677367
177	0xbfcdaf8477e643c9	-0.2319188676306381
178	0xbfb06ec9685940bf	-0.06419047162603685
179	0x3fd014bea13a5560	0.25126615281017983
180	0xbf89b54accfe6ad5	-0.012552818661608548
181	0x3fc4d4c0f570bc5e	0.16274272903817438
182	0xbfc243175332687e	-0.14267245828961345
183	0x3fd1d116e6238d86	0.2783868071985228
184	0xbfc01ec6df430ef4	-0.12593923474752666
185	0x3fb07c66f262b896	0.06439822595231912
186	0x3fb1c228002c20c1	0.06936883930405015
187	0x3fc8116c496ab662	0.18803170761877924
188	0x3f9b46c82e25739c	0.02663719922690043
189	0x3fba3866e26eeb2c	0.10242312458187247
190	0x3f8aff03427a6d0d	0.013181710687880011
191	0x3fd0cf5734d64d65	0.262655068968533
192	0x3fcec7927d5778a8	0.24046546096991972
193	0xbfc46aa1cf1a2c0b	-0.15950415241636082
194	0xbfb4c88bf11a4b40	-0.0811850989942231
195	0x3fd1f496dd42b69d	0.2805535469768559
196	0xbfc29f0fe3bf15d0	-0.14547918911391244
197	0xbfcfd69f426541f6	-0.24873724691362015
198	0x3fcdb136c557135d	0.231970640523424
199	0x3fc2d69f8cd46b88	0.1471747815747586
200	0x3fc0a005a1f784a0	0.12988348396814775
201	0x3fd375a2e7f55012	0.30405495311902186
202	0x3fa13e7fb8cccbd4	0.033679953869430485
203	0x3fbcebe34c62b917	0.11297436346896848
204	0x3fbbbe9cb9d56648	0.10837726151421478
205	0x3fb6d3d516ad3396	0.08916980556132467
206	0xbf8e66c61be88fab	-0.014844463087747636
207	0x3fc8b0b8a9908586	0.19289310721891811
208	0x3fd4f4253de0e104	0.3274014572412087
209	0x3fcb0ca2c9194ba6	0.21132311648633822
210	0x3fc3c69551b34641	0.15449778069755563
211	0xbfc2fc5b842a8d24	-0.14832633927753947
212	0x3fc7068c09a30823	0.17988729925679178
213	0xbfa598509f71a085	-0.04217769571624878
214	0x3fcc5fe370e8e5b0	0.22167628300830478
215	0x3fb44de6a94c562e	0.07931367524391739
216	0x3f9ff8eca19a92e5	0.03122300850249617
217	0xbfa318e11a83849e	-0.03729918907789308
218	0x3fc02ab2d1ee6a76	0.12630305529167501
219	0x3fb790dc55694b75	0.09205414853322032
220	0xbfbe8e87b56f7383	-0.11936233691763047
221	0x3fa0601c8518b5c7	0.031983271834501496
222	0xbfcce39a1d654c2b	-0.2256958621534023
223	0x3f8d576f2bb6f06f	0.014326923867763434
224	0xbfdafadc036592cb	-0.421561244313392
225	0x3fb9a7ddeb98e427	0.10021769525418787
226	0x3fca12cbe88cdbf8	0.20369862418166895
227	0x3f9e554d64a8ddf5	0.029622277516152058
228	0x3fa3506ccd907da2	0.03772296914416563
229	0xbfbfa5db856a3d3d	-0.12362453467561792
230	0x3fd05ec388a1eab9	0.25578392355934515
231	0xbfcbf63e7067960a	-0.21845226753718833
232	0xbfb13473ab55c247	-0.0672066014574365
233	0xbf7f4f58a729a440	-0.0076440299040792525
234	0xbfc6818f30c113d3	-0.17582883720947837
235	0xbfcfa96ba040542b	-0.24735780071992627
236	0x3fbf613ca0c49ea5	0.12257746624947659
237	0x3fc2954cc060b0c2	0.14518126862947694
238	0xbfc79ce60c59c4fe	-0.1844756660753219
239	0xbfd0204507be3dd4	-0.25196958309331063
240	0xbfb5a475fac1f1bd	-0.08454072353374094
241	0xbfcc932eb987aaae	-0.2232416540058088
242	0xbfd87b274e8557f7	-0.382516695671597
243	0xbf9770a6b9a1475f	-0.022890667991596
244	0xbf91f0426d9345e2	-0.017518079698509832
245	0x3fc189f1d345d59e	0.13702223602346647
246	0xbfc0cfc3128c1efd	-0.13134039312011928
247	0xbfc0e8c1d34275f8	-0.13210318389330644
248	0x3fc0ae8c88328637	0.1303268113161253
249	0x3fa67ed2031b487a	0.043936312560291804
250	0xbfcd3a586aaa3dd2	-0.22834305961849438
251	0x3fd2309bcb760d04	0.28421683186770985
252	0x3fa7943d88067725	0.046052859167714545
253	0xbfc11e1f66f1d0a0	-0.1337317707690362
254	0xbfbe1c4b62eed649	-0.11761923947673227
255	0xbfcce180a6f33645	-0.22563179160936123

hidden1.bias f8 [32]
0	0xbfcca3b5aaf0fbd1	-0.22374602171654925
1	0x3f753c7311771dbb	0.005184602246522225
2	0x3fc8405d0f70d469	0.1894642186540836
3	0xbf9f944f67eae1d2	-0.030839195935841897
4	0x3fc36e11cfb733eb	0.1517965568768028
5	0x3fd0025fd5e4ce3d	0.25014491928161303
6	0xbfbec3a6864e6155	-0.12017288950881284
7	0x3fb2a4b750f8673d	0.07282586790861685
8	0xbfab9face97f93fc	-0.053952601912705206
9	0xbfc1d0b2b083958d	-0.13918145769927684
10	0xbfbc2d651ab09775	-0.1100676717911407
11	0x3fb1a70967c60d0c	0.06895502837692308
12	0x3fd04e76edbca04c	0.25478909698950214
13	0xbfc13557f1311d35	-0.13444041516252417
14	0xbfac8354fb5b7d81	-0.055689483340525044
15	0x3fc49fd9141baf6a	0.16112817270129237
16	0x3fa4f1502a6f6905	0.04090357320792929
17	0xbfcdd7eee8f3d043	-0.23315225958470095
18	0xbfa777317e21bcbe	-0.04583124794668823
19	0x3fb54baea7d54989	0.08318606946457953
20	0x3fb9124ad1aea576	0.09793536776728282
21	0xbfcc1a3b6298c428	-0.21955053629201982
22	0x3fc2ef91315728d9	0.14793600949480526
23	0x3f8f9cbbdd4a4a14	0.015435664835682629
24	0x3fbece755d02d735	0.12033780594614714
25	0x3fc59b11b93db167	0.1687948374268544
26	0x3fce1e3b510519dc	0.23529759841967646
27	0x3fba2306ad11cc29	0.10209695554094424
28	0xbfb7b90e6c4c654f	-0.09266748565678039
29	0x3f9db30b2b954628	0.029003309760190416
30	0x3fc2988de510decb	0.14528058705194832
31	0xbfcb991f44ecda29	-0.21561041703690023

hidden2.weight f8 [32, 32]
0	0x3fc5cdc8b4a176c9	0.17034252948626818
1	0xbfc5da828a666d0d	-0.17073089368646102
2	0x3fba34d6dd357f2d	0.10236876392945922
3	0x3f8150583c067fd5	0.008454026538686247
4	0x3fc20bd57cca745f	0.14098614304831167
5	0xbfc1b10a30941d53	-0.1382153260421811
6	0x3fbbda4221464cd6	0.10879910766952902
7	0xbfc4d035713fcd17	-0.16260402707812524
8	0xbf97d0ab8abd8631	-0.023256950705564165
9	0xbfb1c40ffc3f1808	-0.06939792545662737
10	0xbfb74e97d7ecc46c	-0.09104298612216305
11	0xbfad734762c2ebc0	-0.05752013283332458
12	0xbfbf7284101ffe09	-0.1228411235206225
13	0xbf92e8672bd85a7e	-0.018464672137350473
14	0xbfc004c8f3f000ff	-0.1251460257626675
15	0x3f8c6000bb417ad7	0.013854985918610492
16	0x3fa987ee891dec80	0.04986520217695389
17	0x3fb96eeda5bb037e	0.09934888168483089
18	0x3fd07d32be3c8462	0.25764149263165426
19	0xbfc3d91410683830	-0.15506220627907075
20	0xbfbc22a899b65c45	-0.10990384819739159
21	0x3fbbad4745fbe2f5	0.10811276873199545
22	0x3fa7ca29b5ed6386	0.04646425576965556
23	0x3fb136e596071b40	0.06724390900408839
24	0xbfb7919af595f570	-0.09206551070925229
25	0x3f6faf84d4c1ac49	0.003867873607352777
26	0x3fbed30343b03540	0.1204072990660352
27	0xbfbd0dc33405ec68	-0.11349124927612453
28	0x3f8c5bec640b1bd4	0.01384720497425277
29	0x3fb1b943017c7a11	0.0692331198338041
30	0xbfa6d1379dc2848c	-0.04456495095042454
31	0x3fc069b619e6ff2f	0.12822605385553618
32	0x3fa763cf4cce3953	0.045683363080672244
33	0x3fb5d2bb34f61eab	0.08524675410273612
34	0xbfc18666f0badf81	-0.13691412691491325
35	0x3fc42e4c50449b5a	0.15766290587745396
36	0x3faaf9d2268c141d	0.05268723221346525
37	0xbfbe5096947e96d6	-0.11841717839578378
38	0xbfc06780a2ebdf99	-0.1281586452021173
39	0x3fb2384062da49e7	0.0711708299007011
40	0xbfb0bd2f9b2c0394	-0.06538674867989719
41	0x3fa8c6924a78cddd	0.04838997992592529
42	0xbfbde1803fdeb8fb	-0.1167221218044893
43	0x3fa10b9f852e6143	0.033291802413432346
44	0x3faa8f251223d6fc	0.051873358215670934
45	0xbfb00d7d2df83a3b	-0.06270582554154995
46	0x3fc1d966b7d71b5c	0.13944705940795188
47	0x3fc123c84be8a4d9	0.13390449244005856
48	0xbfcbae1d14d5c87d	-0.21625102536524202
49	0x3fb1c65457d13a43	0.06943251747109351
50	0xbfc0832cb93cdfef	-0.1290031342011839
51	0xbfaac249aedd1ef8	-0.052263548465416976
52	0xbfba3517934d761c	-0.10237262102369765
53	0x3f5c255d1bce4900	0.0017178925765831132
54	0xbf92e9091e519f3d	-0.018467085338129897
55	0x3f6365859127b0e3	0.0023677452784253024
56	0xbfbe1a90f3ae9eac	-0.11759286832113486
57	0x3f9b4602aba858ad	0.02663425610270369
58	0x3f86b6a3a9af7758	0.011090544334304717
59	0xbfbc7f18f29dde08	-0.11131435321100736
60	0xbfb12288b4e3e261	-0.06693319717658987
61	0xbf67be1fc41b783f	-0.0028982754164266484
62	0xbfc4c7447b05c61a	-0.16233116156540534
63	0x3fa8d807858a1ad8	0.048523173381047335
64	0x3faba4db110045c4	0.053992124390912305
65	0xbfa1925925cba332	-0.03431967340822552
66	0x3fc23b6d8fc65065	0.14243859787223126
67	0x3f91b87c19942ddc	0.017305316029746595
68	0xbfa4d9aac1b7cf4b	-0.04072316755983126
69	0xbfc33a73c39cff25	-0.15022131968907462
70	0xbf9ef1153971fd32	-0.030216533309155476
71	0x3faa694343998d3b	0.05158434105103501
72	0x3fbdc180a37b03cc	0.11623386374687
73	0x3fa47040d67a57cb	0.03991892450464681
74	0x3fb08d7ac0ce74e2	0.06465880591572984
75	0x3fc45061bb43fc57	0.15870305675341242
76	0x3fba8d3ea1444150	0.10371772229359988
77	0xbf9061cb78f7d811	-0.01599805761176049
78	0xbf7f79a3d5120777	-0.007684364290186588
79	0xbfc417663c9c4198	-0.15696409186831484
80	0x3fbe01824c6f21d8	0.11721052518908637
81	0x3fc046bd81845228	0.12715882133547152
82	0x3fbfb0adb3b879d6	0.12378965032301123
83	0xbfc2a58644abe53d	-0.14567640641306837
84	0x3fb0e6f62b1e7586	0.06602419426640979
85	0xbfb33884291d4e0a	-0.07508111957331934
86	0xbfa83c786a5875a5	-0.04733635233081238
87	0x3fb26aeccd6c0793	0.07194404616532628
88	0x3fc95e870da93957	0.19819725195925272
89	0x3f8951bb72035532	0.012362923066045004
90	0xbfb6424f161924ba	-0.08694929399020426
91	0xbfb04b1ab469bf88	-0.06364600090614492
92	0xbf947920fa3ae297	-0.019993319771602982
93	0x3fc34760ac938041	0.15061577250071603
94	0xbfa1e7b7d39d4a49	-0.034970993596875895
95	0x3fc344e39fa99b96	0.15053983016988742
96	0xbf7a433d95e9792f	-0.006411781853414219
97	0x3fb9ac6bee3b1c9d	0.100287194883196
98	0x3fc9765120dae451	0.19892324547052678
99	0x3fcab13c50a4458e	0.2085338014372095
100	0xbfaaa9665973f6bb	-0.052073667926362664
101	0x3fbc79ff9b8493a2	0.11123654887030779
102	0x3f7a367dcfa4e4d5	0.006399623345992829
103	0x3fcab995756d81e4	0.20878856881883145
104	0xbfce852958009ab5	-0.23843876645078912
105	0x3fb4dd96fd03b076	0.08150619198903705
106	0xbfc1b8c54166e528	-0.13845124906019035
107	0x3fb1a7fca16d00b6	0.06896952572879197
108	0xbfbcc72940f85b07	-0.11241395794091256
109	0x3f7faf8daac18a0c	0.007735780131130198
110	0x3fb31d2ac41465e0	0.07466380393125105
111	0x3fbf37c84179d3ba	0.12194491957218548
112	0x3faa96701f0207bd	0.05192900064959314
113	0x3fcdbe696d677705	0.23237340776443474
114	0x3fb665c9f659360a	0.0874906755863877
115	0x3f9e2f80de54b38a	0.029478086061476762
116	0xbfb011419be5525c	-0.06276331001328955
117	0xbfc3cbbeac2c4e90	-0.15465529829872482
118	0xbfc5f63cd46d4e53	-0.17157707569514233
119	0xbfae0eb1c4c15036	-0.05870585943981192
120	0x3fb5cbf10db9340d	0.08514315209431818
121	0xbfcd34705ce893aa	-0.22816280876682288
122	0xbfadfa8c217666b9	-0.05855214985349506
123	0x3f7e465c8ce8db07	0.007391320729360335
124	0x3fb8a48afc61054b	0.096260725608791
125	0x3fbc014076b9ebff	0.10939410112943902
126	0x3f96f4c663e56fd4	0.022418117377455207
127	0x3fb4570d8e8ba98f	0.07945332269779314
128	0xbfa7f64c7515d597	-0.046800984661710725
129	0x3fbbe22727736abe	0.10891957009463746
130	0x3fc32e5d54345567	0.14985243426842063
131	0xbfb373fa8c024a87	-0.07598844450175522
132	0x3fac3fd9dfb10a0e	0.05517464500055179
133	0x3f7318544bc1d490	0.004661874085390441
134	0x3fb0fab6e40a20a4	0.06632559840557178
135	0x3fc49c153ccc110a	0.1610132738934527
136	0x3fb5e192d31861b0	0.08547322896664045
137	0x3f89c2c0783d8f91	0.012578490895698543
138	0x3fc58ae1b8324b38	0.16830083364455972
139	0xbfc114a798a8b575	-0.1334428306012502
140	0xbfb479d0fc4a44e7	-0.07998376998354538
141	0x3f7ff4165d95b69d	0.007801139226428025
142	0xbfc51173c9192ca5	-0.16459510154013404
143	0xbfbf69e1a31c72b8	-0.12270937187390529
144	0xbfc471dbab6faa83	-0.15972467299373613
145	0xbfb1d865d8d3986b	-0.06970821899048622
146	0xbfb6fa81052b6c51	-0.08975988746844733
147	0xbfc4c36be79b51b8	-0.1622137909786383
148	0x3fc30fe9d55359f8	0.14892313877380992
149	0x3fb366e746b53a5a	0.07578893162028902
150	0x3fc4d713d1802fb5	0.16281364182975513
151	0xbfc39fb47166d5c6	-0.15331130540077548
152	0xbfb1b4462c169d22	-0.06915701462149973
153	0x3fbacddc8a947c28	0.10470369704533822
154	0x3fa9b6005ef5e50b	0.050216685859547715
155	0xbfc47cd8f58e33e4	-0.16006004323972356
156	0xbfbef2e9e86d2200	-0.12089406895132271
157	0xbfc60679c4d3a3e3	-0.1720726214473692
158	0x3fbbee8b322ddd1d	0.10910863852574378
159	0xbf9f41a365537e69	-0.030523827609498264
160	0x3fcaf14e36867088	0.21048906004296364
161	0xbfc3d9fac928aaf7	-0.1550897104474058
162	0x3fc3863d44ea4721	0.15253415932652906
163	0x3fc3037878e387ed	0.14854341414235198
164	0xbfc80b35b9efd6ff	-0.18784209803532545
165	0xbfc32051972280cf	-0.14942378883006888
166	0x3fbe4c7fa11cc08f	0.11835477527052006
167	0x3fb9ae40981257aa	0.10031512940108081
168	0xbf9697d30b8186de	-0.022063539101856537
169	0xbfb6dbb48c78d2b1	-0.08928993634692507
170	0x3fc68bccf5752049	0.1761413763545099
171	0xbfb959a55a7cda9c	-0.09902413806126237
172	0xbfc5160a0b1ce81f	-0.1647350839865007
173	0x3fa9285070721aaa	0.04913569805744562
174	0x3fc49596a02e6767	0.16081507512427182
175	0xbfabbb738ac921ad	-0.054164515201196785
176	0xbfb454cd2a49d42c	-0.07941896707946289
177	0x3f9811082fc10410	0.023502471842451966
178	0x3fca690107da43c0	0.20632946856906464
179	0x3fc8e0663b310275	0.19434812441069807
180	0xbfa35fbf0fcdb3ab	-0.03783986156381699
181	0x3fb02954aabb3ff7	0.06313065689323581
182	0x3f9df300a837a54c	0.029247293727086274
183	0x3fb512c64db117c2	0.08231772801181506
184	0x3faf593111418265	0.06122735343592892
185	0xbfc643675256fce2	-0.17393199463365422
186	0x3fba1226f89abadb	0.10183948106235212
187	0x3fc312d0c03bce40	0.1490117014542296
188	0xbfc3130bc8df6dae	-0.14901873882523148
189	0xbfa1153c82f86e01	-0.0333651456714641
190	0x3fcd42e3aa35b8de	0.22860379992511687
191	0xbfbb8c28e1a33ca6	-0.10760741718989894
192	0x3fa92810f11a4556	0.04913380568644736
193	0x3fc7a58c68e2cd15	0.1847396385324848
194	0x3fbb20aae8ae8106	0.1059672182150316
195	0x3f77ebe0994cb47c	0.00584018453518553
196	0xbfabab4cb5000d68	-0.05404128751254228
197	0x3fc207ae5ffebefb	0.14085941016445944
198	0x3fc39a626ca3525e	0.15314894013012553
199	0xbfc384bd46107412	-0.15248838349444377
200	0xbfb09a1ac6765449	-0.06485144944447642
201	0xbfc06354e78f4d85	-0.12803136164312093
202	0x3f93697e0e8f4b04	0.018957109106689365
203	0x3fb3dd15f40593f2	0.07759225089610292
204	0xbf9e99ecc88a53b7	-0.029884052028666477
205	0xbfb95831c9c844ed	-0.09900199104619718
206	0xbfbda6887cb796d9	-0.11582234425403772
207	0x3fbc0348e735afca	0.10942512173431776
208	0xbfae34c44d705e1b	-0.05899632878589164
209	0x3fc3914d4150637f	0.1528717583576302
210	0x3f914216905f7b19	0.016853668748690518
211	0xbfc2fb08c251547c	-0.14828595626991958
212	0x3f97697ccb9f3e47	0.022863340309241555
213	0x3fb36bd6c7a152f0	0.07586424230369082
214	0xbfb97c551a740ed8	-0.09955341239770676
215	0x3fc402c564dcb4d0	0.15633456635388265
216	0x3fa262f0b32ad093	0.035911104079248045
217	0xbfa577ae3fdfe203	-0.04192871598928962
218	0xbfac50a442ac309d	-0.05530274690508572
219	0xbf9de502010fea96	-0.029193908037977133
220	0xbfc5c30ecb98f3c9	-0.17001519147188862
221	0x3fc598e901b68276	0.16872894843710967
222	0x3fb8fe50b0e0bb2e	0.09763054197604212
223	0x3fc4165f0316fe4d	0.15693271304006587
224	0x3fb468813a11b970	0.07971961658197357
225	0x3fa3c1bca7026b61	0.03858747042359912
226	0x3fa0dea80262e345	0.03294873265389823
227	0x3fb7eaf98f627cf7	0.09342918158153056
228	0xbfc12a16ca944a66	-0.13409695521893922
229	0xbf8e49279772b1ca	-0.014787968930556245
230	0xbfba5245798c4527	-0.10281786172369732
231	0xbfa6928284617276	-0.0440865313146092
232	0xbfb0fcbd3ea79de0	-0.06635649470955896
233	0x3f8ce1fa3b045338	0.014102892805149744
234	0xbfa2e4933b4ed8eb	-0.036900139798875596
235	0xbf4ed4aa3cdb0365	-0.000940878986249155
236	0xbf96530e6bf6d6be	-0.02180120977364796
237	0xbfb3d480aee6fcd4	-0.07746128339839525
238	0xbfc15ff8a44ff771	-0.13574131033959305
239	0xbfbeb2a0f6f02d14	-0.11991315869106628
240	0xbfb3a327eebccdc2	-0.07670831278374293
241	0xbfab8a6f2fff8715	-0.05379054509081819
242	0x3fc27f05b541e5d5	0.14450141287288312
243	0xbfc4b8d5b3ef531f	-0.16189070974237382
244	0xbfb4dee6fc3944f8	-0.08152621896558176
245	0x3fc1a590c2780114	0.13786515708489644
246	0x3fba134d48781008	0.10185702342283787
247	0x3fc2e7fa624c0830	0.14770440864237022
248	0x3fb10e2ca75e311e	0.06662253461962961
249	0x3fa398d0c3f8f8b0	0.0382752646660135
250	0xbfb3c747c35557db	-0.07725952643281124
251	0xbfaed9ca761338ad	-0.060255362428152416
252	0x3fbd00819e06bdb1	0.11328897579254861
253	0xbf95679d76888244	-0.020903072700209316
254	0xbfc1d683f1d5dc77	-0.13935899074906263
255	0x3f8aae22f3c70e1d	0.01302745157671042

hidden2.bias f8 [32]
0	0xbfc2c2f4d95b04e7	-0.1465745984369626
1	0xbfb0d84486233fc3	-0.06579998278470982
2	0x3fb428c0dd3ae082	0.07874684716341743
3	0xbfafea635ae4d3e7	-0.062335114331666656
4	0xbfa4a82d8a3e5ab8	-0.04034559547942734
5	0x3fb99f32ad0294b4	0.10008541797522491
6	0xbfc07bbd2c13815d	-0.12877621318967672
7	0xbfb9a79b37ed097c	-0.10021371951464703
8	0xbfa486ae7fb0555b	-0.04009003933621599
9	0xbfa7b20ea3082b28	-0.046280343438488025
10	0x3fa79bef7724bc24	0.046111567777522816
11	0xbfa6e082de0a9ec2	-0.04468163452594133
12	0xbfa70fff2ec6953a	-0.04504392095558747
13	0xbfb869e1e52662b1	-0.09536563724976578
14	0x3fb9319c5f0a75fa	0.09841325111707269
15	0x3fa61291d01dbe7d	0.043110424666221704
16	0x3f9b6ae3f5260f1e	0.026774942243277804
17	0x3f97d3682bc50d5c	0.023267390891544934
18	0x3fc3e80bba890dc6	0.1555189762894839
19	0x3fb5334b41af06dc	0.08281393388372343
20	0x3fb859912dd61b0b	0.09511668557216184
21	0xbf6be10dbe28f135	-0.0034032123960782376
22	0x3fc18bd740ba9f33	0.137080103498414
23	0xbfc448438b22a7b9	-0.15845531743735622
24	0x3fc025a3059afa2b	0.12614858411503013
25	0x3fb08e5c0775ba76	0.06467223341108216
26	0x3fad2850e43d51d3	0.05694821153761933
27	0xbfb9ccefca42ce4e	-0.10078333557140093
28	0xbfbab0c508b4f687	-0.10425979101725079
29	0x3fbc20a5eecc5544	0.10987317161592097
30	0xbfbed043ee001b56	-0.12036537704999026
31	0xbfbf5917a9889e4b	-0.12245319260602476

predict.weight f8 [9, 32]
0	0x3f80cb57fedc58d6	0.008200347390396361
1	0xbf975603e044f38e	-0.022789059222521106
2	0xbfa8db4246dfedec	-0.04854781260652516
3	0x3fb9e070d08ee05f	0.1010809430289341
4	0xbfb2063d4e884abd	-0.07040770690245331
5	0x3f3e0c93942f709b	0.0004585132884906779
6	0xbfa034b93eccbc47	-0.031652249256119584
7	0xbfb6bc0580ee3962	-0.08880648038595987
8	0x3fb56db3c90c6368	0.08370517404945377
9	0xbf91f569506f08b7	-0.01753773263386257
10	0x3fc457bd5c3730ed	0.15892760279383059
11	0xbfa1af187a9d4077	-0.034538998572885164
12	0x3fb73bfbaf846b46	0.09075902018632317
13	0x3fc2d86a1ecc39da	0.1472294474010159
14	0x3f9981858c8cb1d2	0.024908148482767185
15	0x3f8fe678221bef60	0.01557630399792459
16	0x3f73d4cccb37c887	0.004841613746508717
17	0xbf91b0a7c6ee25f2	-0.01727544929193487
18	0xbf94ed5209b24d03	-0.020436555711580883
19	0x3f9a2da32828ae49	0.025564717603783902
20	0xbfac4506d5e91fc5	-0.05521413193906669
21	0xbfc2ce4521624587	-0.14691986208030647
22	0x3fbcaffe9f4dcf87	0.11206046475655117
23	0xbfb4ba7bd61ceea6	-0.08097051598900382
24	0x3fa1ca3bcf39b810	0.03474604515655255
25	0xbfa867a8420d1088	-0.047665842116232204
26	0xbf4fba78d701ff4d	-0.0009682741201828355
27	0xbfa6d37c92634ab5	-0.044582264775859505
28	0xbfb0b90cf06bb62b	-0.0653236472096174
29	0xbfaf873722288bab	-0.06157848636600901
30	0x3fa1c634bfad03d5	0.03471531715195623
31	0xbfb7226f9722860b	-0.0903692001325213
32	0xbfb1b3bc9686d8b1	-0.06914881396264395
33	0xbfaaf2ec6202f073	-0.05263460823468415
34	0x3fb46a11020b7109	0.07974344539565349
35	0x3fa43a7bd233f792	0.03950869503931566
36	0x3f84f0ca4ff46213	0.010224896016141327
37	0xbfb2c5b2f13f384e	-0.07332914724176584
38	0xbfa7f2fd6e95b384	-0.04677574133788823
39	0x3fc47e86ae6986cb	0.16011127010556545
40	0xbfb519948ad08257	-0.08242157353425604
41	0xbf7335663cfe1611	-0.004689597480938016
42	0x3fc415c841ab9a09	0.1569147415786605
43	0x3f858b0cea4ba082	0.01051912393582222
44	0xbf9e05b75a31e3f0	-0.02931868064885984
45	0x3fc0a65a9bd6dfa7	0.13007671937316198
46	0xbf82e6b4a173db40	-0.009229098488942378
47	0x3fa200ac956e2d8f	0.03516139339543677
48	0x3f223392e2092b8d	0.0001388661194304499
49	0x3f996420eeda677e	0.02479602296680338
50	0xbf7a104639811ca6	-0.006363176646181723
51	0xbf90955bdd1f1499	-0.016194758769206705
52	0x3facf6e72113a351	0.056571219241794986
53	0xbfbcc78b723034c8	-0.11241981065559792
54	0x3fad2fcd04947972	0.05700531655223785
55	0x3fbeaf8e0fce1ea6	0.11986625562542005
56	0x3fb9dc4f8c39fb0d	0.10101792500971048
57	0xbf5957e2b248632a	-0.001546832450122613
58	0x3fb99e93720af858	0.1000759271073276
59	0xbfb60b89fbb68543	-0.08611357112251476
60	0xbfb4bcc6d0dc4a9e	-0.08100550269254334
61	0x3f71c9269c061fc7	0.00434222299407589
62	0x3f443f0ab1088529	0.0006178667263762361
63	0x3fb06d1927e2ffe4	0.0641647074107819
64	0x3fb971ec163a63ed	0.09939456503560935
65	0x3fb712f0ef6ea233	0.09013276906501559
66	0x3fad9ffdfc63eb25	0.057861268100131626
67	0x3f75067702b4aa92	0.0051331185198174745
68	0x3fb81c5c7e33cc0a	0.09418275910483956
69	0xbfc311bd840c7f8c	-0.14897889087387417
70	0xbfcb91b60effb060	-0.21538425190317678
71	0x3fb5fea44fb56eb2	0.08591677614225082
72	0x3fa41f412dddf751	0.03930095372105192
73	0xbfbb71cc54e266dd	-0.10720517227528199
74	0xbfba458d6626ec82	-0.10262378448435253
75	0x3fd1885d7123129b	0.27394805954490103
76	0xbfc4cb277cadee0a	-0.16244977558004364
77	0xbfc193aecbb84bee	-0.13731942126523172
78	0x3fc28608bead7ec9	0.14471539793429702
79	0x3fba6d0179a66e73	0.10322579593633367
80	0x3fc435b4f9a22b95	0.15788900555739063
81	0x3fbed064d5a45e46	0.1203673383318967
82	0xbfaaedf83f0fb031	-0.05259681482115786
83	0x3fd46def7e42e1d5	0.31920993166161554
84	0x3fbe18275198db3c	0.11755605451695045
85	0x3fc1a36314d62c6b	0.13779867665684561
86	0x3fbb7f2c8c7927db	0.10740927152178818
87	0x3f9a0a69bfddf496	0.025430347762711657
88	0x3fbbd9e468597418	0.1087935213813157
89	0xbfa442dcd288c61b	-0.03957262105940292
90	0x3f7b9a20edb7338c	0.006738785388233814
91	0x3fad0f84404f3ed9	0.0567590073111412
92	0xbfc11ebaea00932c	-0.1337503092373934
93	0x3faa99ce2ef7a4d2	0.051954692109413295
94	0x3fb1fd61c88e612c	0.07027255197897792
95	0xbfb3c5b73abc9f31	-0.0772356527710343
96	0xbfa637fb11b069bf	-0.04339584914142191
97	0xbfb718abbab44a6c	-0.09022019680222976
98	0x3fa88b4622c64d6b	0.04793757605070933
99	0x3fa83c118da47495	0.047333286800701625
100	0xbfbae619c119a3e9	-0.1050735565601283
101	0xbfa84359ec959e3b	-0.047388849382340635
102	0xbf89a1bb879007f9	-0.012515511583845994
103	0xbfb481128678e5f8	-0.08009448798193108
104	0x3fb7c321a2277734	0.09282121857492315
105	0xbfbb83f42e5ef72a	-0.10748220569709291
106	0xbfb12bcd93d04f86	-0.0670746312974285
107	0xbf74df3430431686	-0.005095676289959555
108	0x3f8d6ea2157c73b1	0.014371172218995061
109	0x3fc1d5363be02d62	0.13931920932405278
110	0xbf854fe7a762ee4a	-0.010406312747696895
111	0x3f7c6616de4d96e9	0.006933297471595636
112	0x3f9f1136daba8ca7	0.0303391047479066
113	0xbf51c54065822acb	-0.0010846260902634293
114	0xbfaae6e1a83b0213	-0.05254273584933258
115	0xbf8027d0f10fe8b4	-0.007888443333275631
116	0x3f7c5fa2e44c8f49	0.006927143379275532
117	0x3fa3fabe23e540fb	0.039022390252855
118	0x3f950ea6bab8b8de	0.02056370272310281
119	0xbfc034b3db803830	-0.1266083547383814
120	0x3fbb71df6bee520f	0.10720631012947755
121	0xbf94c45d716bffb0	-0.02028032307407529
122	0xbf70b474f575b676	-0.004078347082538172
123	0xbfa631e0276c1d31	-0.04334927064160821
124	0xbf7b02b6520f2179	-0.006594383420584265
125	0x3fac695c687a0362	0.055491340402119574
126	0xbf68511e489d12f5	-0.0029683677175021913
127	0x3faec7e4cc6acca8	0.06011881823851556
128	0xbfadf514723b0e56	-0.05851043600480625
129	0x3fc84827a6c1ff3e	0.18970199243994473
130	0x3fa468d3bf59b0b3	0.03986226759738667
131	0x3f8d8dafb338de1b	0.014430401474881773
132	0xbf8615774211d9af	-0.010783130363262254
133	0xbfd878d048298bf9	-0.38237387702082476
134	0xbfd19c406c564630	-0.27516184406076416
135	0x3fb7c322dc777788	0.092821291756506
136	0xbfc192763cd0ef8a	-0.13728216142214605
137	0xbf9c7ee04c035a77	-0.02782774414012087
138	0x3fbb69cfe498f3ba	0.10708331423752684
139	0x3fcc39060490db46	0.22049021933499996
140	0xbfb538c43dea92f3	-0.08289743911388907
141	0x3f91f3bb497aff86	0.01753132472981591
142	0x3fd80fb0dc4962d5	0.37595769417161523
143	0x3fc89dbe5c81e365	0.19231395260774345
144	0x3fd248d93ddbbfc5	0.28569632569178466
145	0x3fb535982dd77bd2	0.08284903639967858
146	0xbfcb0fd3797e4c6c	-0.21142047340672165
147	0x3fd224f4b1706394	0.2835056050112652
148	0x3f7d2342c276843f	0.0071137054250423595
149	0x3f93b9d0300ac87a	0.019263508732088465
150	0xbfabcf838f9c9759	-0.054317580490801994
151	0x3f9b3c8780d36e49	0.026598088491353065
152	0xbfa9a5d72681fc9f	-0.05009338707986299
153	0xbfce62b9bdc26c19	-0.23738786473845222
154	0x3fc2bfd6130c093b	0.14647937707929679
155	0xbfb77fa7034e25c6	-0.0917915709561817
156	0x3fb4cc57e2e75668	0.08124303140297118
157	0x3fc50c4023989594	0.1644363569077255
158	0x3fb83384921bf72f	0.09453610007400635
159	0xbfbd4245c8f05803	-0.11429248958333464
160	0x3f975dc6b2cfdf4d	0.02281866518384783
161	0x3fbb5671c7a6ab56	0.10678778766911753
162	0xbf85995a39c9e385	-0.010546402824944465
163	0x3f9f721457f34b27	0.030708616130890178
164	0x3fc42ebb6765a07d	0.15767614887886686
165	0xbfac0255921104c9	-0.054705308990841646
166	0xbfa005f0839cef62	-0.03129531485180227
167	0x3fc441b8481cdd63	0.15825561066751978
168	0xbfa872d94a33ab79	-0.04775122671875116
169	0xbf94c3a0cbd77936	-0.020277512017736053
170	0x3fb2813843f0088f	0.07228423746713218
171	0x3f97ba8a942c3f31	0.023172536176445383
172	0xbf9b5515104462d9	-0.026691750638834975
173	0xbf459989be76848a	-0.0006591723039727365
174	0xbf7b5d53bed65c05	-0.006680800562569371
175	0x3fa5bc32307a33d0	0.04245144693150105
176	0x3f90be3758714b9b	0.01635061719236895
177	0xbf5d8fec9c23d8bd	-0.001804333748223238
178	0x3fa67cfabd55bbac	0.043922267543954646
179	0x3f74bf938570c26b	0.005065513853921825
180	0xbf827b4a83511700	-0.009024221546620748
181	0x3fb457bf556895db	0.07946391902131415
182	0x3fb8099a135e7ef6	0.0938965127265837
183	0xbfbca6a0ca57bb95	-0.11191754283912154
184	0x3fb81c2208383f1d	0.09417927456547344
185	0x3f8711a6780a78ba	0.011264133966787038
186	0x3fa6246de0848f6e	0.04324668279357878
187	0x3faa108f2753cfe7	0.05090758662291233
188	0x3fb2bf025e3b13f1	0.07322706986003859
189	0xbfa6860fef274ef4	-0.04399156374316063
190	0x3f9ab745dc5182a5	0.026089755603950455
191	0x3f988d6e90cf44ee	0.023977019871215192
192	0x3fd358f60a873409	0.30230475452555133
193	0xbfa0e20bf8d63f04	-0.03297459995803645
194	0x3fb6d03ccfea0174	0.08911495281245668
195	0xbfcd6cdb7da10b53	-0.2298845637725103
196	0xbfa1b1034cb5c1b4	-0.03455362616921623
197	0x3fd0d9103dbdda8c	0.2632485011048764
198	0x3fc9806e041b30e6	0.1992318649339559
199	0x3f7cac100455b895	0.007000029150146987
200	0x3fc319f273d16fc7	0.14922934203320734
201	0xbfade3c2396d1069	-0.05837828589440692
202	0xbfbcaee9e9008375	-0.11204397142911467
203	0xbfdc4ca98967c3c8	-0.4421790925835549
204	0x3fd12f735ba14407	0.2685211558173823
205	0xbfaf992c33a11761	-0.061715489675903575
206	0x3f9727e686278894	0.0226131457692494
207	0x3fd1bfe534822775	0.2773373616006361
208	0x3fcaf28f6f5b9315	0.21052735268963177
209	0x3fbb954940def9ff	0.10774667581333829
210	0xbfbf078b99d59ea2	-0.1212088823864357
211	0x3fb4f191939e68e0	0.0818110452077323
212	0xbfa18275cc64fb5a	-0.03419845695542874
213	0xbfc574a8546c412c	-0.1676226055356066
214	0x3fc05d166be5cc4f	0.12784080761375313
215	0xbfc30dd5aa87fe2a	-0.14885969950408767
216	0x3fb22dda71889bea	0.07101216575448147
217	0x3fc28f749d04ba09	0.14500291506688281
218	0x3fc68fd4bb397cd3	0.17626437322448982
219	0x3fd60c53407d69ef	0.34450227067796296
220	0x3fbf4a12d59c7769	0.12222402300946346
221	0xbfb62b9b0236b8ed	-0.08660286716505868
222	0x3fc454c81d7aa408	0.1588373321476697
223	0xbf94a3ca2eaba2a7	-0.020156058405435797
224	0x3f8cb6c1908d517e	0.014020454620244701
225	0xbfbd6a5ce9162c61	-0.11490421953765086
226	0x3fc20b29478fab00	0.1409656142635285
227	0x3fc20a18c97267e3	0.14093313061022092
228	0xbf9664c68e03f956	-0.021868803422870307
229	0x3fb0f2b4b0ec1433	0.06620339698209037
230	0x3f9c6def01ad5432	0.027763113477096542
231	0xbfaf15e4d43552ea	-0.060713911918957766
232	0x3fc40f07c79efd75	0.15670869109269928
233	0xbfc12812acb06884	-0.1340354293068381
234	0xbfb69d53156d6490	-0.08833808205726457
235	0x3fbe30ee23d9f907	0.11793411612777414
236	0x3fac9a4addf1d985	0.05586465796743582
237	0xbfb76f49de25a801	-0.09154187844765717
238	0x3fc0f97fb56b1842	0.13261410101239518
239	0x3fcdb865709089f0	0.2321898269302234
240	0x3fa78e69bc72144b	0.04600840020524596
241	0xbfc23754452b016e	-0.1423135125860528
242	0x3fb2874d285f076a	0.07237703548073929
243	0xbfa884c456f14d5a	-0.04788793145476218
244	0xbfc52ad091bdac5b	-0.16536910167937688
245	0x3fc20e0cdd26e143	0.14105377958709128
246	0xbfa95c80ec031f3e	-0.049533871469576315
247	0xbfa9126221fc100f	-0.04896837868548697
248	0x3f7478bcacfea479	0.004997956289949029
249	0xbfb226280fea5732	-0.07089472187575721
250	0xbfc881fa017ee034	-0.1914665705969597
251	0x3fc149fd825aae1a	0.1350705038542948
252	0xbfa24a9fb0902c8a	-0.03572558431923152
253	0x3fd1cfee13fd54e9	0.2783160395823204
254	0xbfc41f766f49dc4a	-0.15721016344079636
255	0xbfd1144cf50579ce	-0.26686405113096334

predict.bias f8 [9]
0	0x3fc194cb443d9359	0.13735333282525167
1	0x3f929a328fce33ae	0.01816634180754633
2	0x3fc5a5516fcd8eaa	0.16910760840538802
3	0x3fc74ab454419f9b	0.18196729768828565
4	0x3fc4ba76f1c330fe	0.16194044880683828
5	0x3fc264d3de92679d	0.14370201461570967
6	0x3fc5af4b8ec597b6	0.169412083351913
7	0xbfb346b7af08eac9	-0.07529781363784162
8	0x3fbce89c223ca15a	0.11292434535846976
