Task2Mroph/01_finger_reach/results/tmp/params.npy (npy, 1160 bytes, 1 tensors)

array f8 [129]
0.9265497273149551 0.7966382587453518 -1.0 1.0 -0.3384286232041963 0.004816955687718649 -1.0 1.0
-0.05052980944397913 0.456389810088709 -1.0 1.0 -0.22722673951090855 -0.022902220247861323 -1.0 1.0
0.34151922961280645 0.19939944304727458 -0.9999955586022601 1.0 -0.41105878571414384 0.02671569555849637 0.07317725777540812 0.24160601681109176
0.3072687228158104 0.6639827205431192 -0.3819873608899507 -0.3364624428384986 0.9993978722876715 -0.6286836140857442 -0.788406311631344 0.18680081135600285
0.9995685768476598 -0.5302418183806257 -0.3314660953075745 -0.9981877627751204 0.13989313052583122 0.4346193736096434 0.6239698088856682 0.10696446100733592
-0.2329075139022337 -0.22260010797046836 -0.5252712745845619 -0.1313197563715503 0.15620423563906924 -0.1841493416482596 0.47608141100505463 0.2936156865773514
-0.10345346675095637 -0.49364815277377727 -0.008926223814602157 0.28042483997648265 0.06320000509393642 -0.11447013581909278 0.31539229554316306 0.22299541722089736
0.5952162833438014 -0.58194914002603 0.5642478275976155 -0.28753332696044615 0.6945944614099978 -0.44018152025117147 0.9928324870020586 -1.0
-0.4174700358397932 0.14280844381516528 0.19194028820300446 -0.6482098642158084 0.17433132781314864 0.39866797675625953 -0.2667512877102499 -0.3233851192051471
0.04170298562151611 0.2603186722543744 -0.10495208355918223 -0.4601660401600992 -0.2710334162776499 0.0647835447178158 -0.03293486968650847 -0.36812867868200994
-1.0 -0.9717047275867998 -0.18219936319602167 0.23222495348391148 -1.0 -0.9996391749629168 -0.17738487906672157 0.4402475190864559
-1.0 -0.9998612926693442 0.9999876568536761 0.40395803452880025 -1.0 0.17247344641153747 1.0 0.21780111959730747
-1.0 0.4481086250765737 0.9999911802837088 -1.0 0.02105690786940106 -0.5183391491916998 0.05456287151576456 -1.0
0.3519327242271288 -0.5328539248377214 -0.22618300319216822 -0.881481514048164 0.1985799862170275 0.034218303677638125 0.2804140039331892 -0.1630615797977207
-0.4249637966364608 -0.21407407862010233 0.011071753100374655 -0.08266323685057657 0.3456720911957178 -0.005437487929094159 0.07499189363469337 0.08820584902296032
0.5109080679453096 0.5 0.5 0.5 0.5 0.5 2.510185724029373 4.0
3.2460316752336817
00000000: 35ef 1d9d 4ba6 ed3f aeb7 8184 0f7e e93f
00000010: 0000 0000 0000 f0bf 0000 0000 0000 f03f
00000020: 224f 2c87 d0a8 d5bf e60d 52b2 f1ba 733f
00000030: 0000 0000 0000 f0bf 0000 0000 0000 f03f
00000040: d3eb 110e 0bdf a9bf 05c1 239b 7d35 dd3f
00000050: 0000 0000 0000 f0bf 0000 0000 0000 f03f
00000060: a4ef 7c0b c415 cdbf 52a4 e1fb ad73 97bf
00000070: 0000 0000 0000 f0bf 0000 0000 0000 f03f
00000080: 7818 8978 73db d53f b244 5dc3 eb85 c93f
00000090: 53f1 8aaf f6ff efbf 0000 0000 0000 f03f
000000a0: cb0b 5882 c94e dabf f7c2 dafa 5b5b 9b3f
000000b0: acd2 f4a8 bebb b23f 3538 5c2a f2ec ce3f
000000c0: 50f7 e46e 4aaa d33f 10f0 bab0 583f e53f
000000d0: f57d a01d 7b72 d8bf 34b6 14c5 9988 d5bf
000000e0: 705c 253f 11fb ef3f 7df0 4019 2d1e e4bf
000000f0: d854 8ddf 9f3a e9bf 46f5 d1c7 16e9 c73f
00000100: 5370 753d 77fc ef3f d052 9db0 bdf7 e0bf
00000110: e70b c591 bd36 d5bf 9b5e 8c76 27f1 efbf
00000120: 8d91 45a2 04e8 c13f 9221 f7c6 cdd0 db3f
00000130: be5e 5b88 8ff7 e33f c05b dcdd 0562 bb3f
00000140: 02f4 99d5 e9cf cdbf 8cdc e80b 297e ccbf
00000150: 45ce 3bb4 05cf e0bf 929d 77f5 15cf c0bf
00000160: 6b82 c819 80fe c33f 41c7 faa3 3492 c7bf
00000170: 0004 a02a 1e78 de3f d04e dc72 99ca d23f
00000180: 126a 5a28 ed7b babf 543a f96b ee97 dfbf
00000190: f649 e27a e947 82bf 79d7 2b07 7bf2 d13f
000001a0: 1849 fc22 e02d b03f c530 b631 ea4d bdbf
000001b0: 0a2b b12a 632f d43f 8d91 0f24 1d8b cc3f
000001c0: f743 e004 030c e33f a31b 8bcd 539f e2bf
000001d0: a2dd cb75 510e e23f 4188 f32e f266 d2bf
000001e0: 39a3 f729 1e3a e63f e911 721c ef2b dcbf
000001f0: e490 c2a2 48c5 ef3f 0000 0000 0000 f0bf
00000200: a17a bf3d d4b7 dabf 56af e30d 8c47 c23f
00000210: a4f0 4ed6 7f91 c83f 450c f89c 22be e4bf
00000220: e017 d02b 7d50 c63f 205c 88b0 c683 d93f
00000230: 0669 38fe 7312 d1bf 60f2 bf7f 57b2 d4bf
00000240: 23aa c7fe 175a a53f 3bb9 f7a5 0fa9 d03f
00000250: a4a3 88c6 23de babf aeea 4d43 5c73 ddbf
00000260: 4248 c28a 9c58 d1bf f2c8 e185 a795 b03f
00000270: ec34 67d8 d6dc a0bf d42b ea96 6b8f d7bf
00000280: 0000 0000 0000 f0bf 1a53 4b83 3418 efbf
00000290: 47b4 2309 4f52 c7bf 94a6 431a 8cb9 cd3f
000002a0: 0000 0000 0000 f0bf 4c84 884b 0bfd efbf
000002b0: febf 3237 8cb4 c6bf 10c6 27ee 032d dc3f
000002c0: 0000 0000 0000 f0bf c2a2 111c ddfe efbf
000002d0: fee2 521d e6ff ef3f 1b7d d0cc 72da d93f
000002e0: 0000 0000 0000 f0bf 0b0b e221 9c13 c63f
000002f0: 0000 0000 0000 f03f 76ef d936 e8e0 cb3f
00000300: 0000 0000 0000 f0bf 2a9a 70cc cfad dc3f
00000310: 4b6c f380 edff ef3f 0000 0000 0000 f0bf
00000320: 5fa8 9d2a f18f 953f 5e79 c0fb 3b96 e0bf
00000330: b1dc 7829 aaef ab3f 0000 0000 0000 f0bf
00000340: 33a7 3cd5 1086 d63f e924 97ac 230d e1bf
00000350: e48a cf8c 90f3 ccbf 98b1 5bb8 1835 ecbf
00000360: 1a9c 38a9 116b c93f b1aa 70be 0f85 a13f
00000370: 0ff1 0e94 4df2 d13f 1b8f 3bac 33df c4bf
00000380: f067 225a 9b32 dbbf 391e 4c87 c766 cbbf
00000390: b7d0 cd8b c9ac 863f 7bcf dafa 6a29 b5bf
000003a0: 9bd5 b4d5 7d1f d63f 06e4 3e8d 9e45 76bf
000003b0: 4f49 a032 ab32 b33f 6599 de94 a894 b63f
000003c0: 09ce 62e0 5b59 e03f 0000 0000 0000 e03f
000003d0: 0000 0000 0000 e03f 0000 0000 0000 e03f
000003e0: 0000 0000 0000 e03f 0000 0000 0000 e03f
000003f0: e7bc bc40 dc14 0440 0000 0000 0000 1040
00000400: 2245 7774 dff7 0940
