Task2Mroph/02_flip_box/02_scatter_plot/results/tmp/params.npy (npy, 1880 bytes, 1 tensors)

array f8 [219]
0.8285620357545203 -0.9128608012655235 -0.9921361550922186 -1.0 0.9304669416369514 0.7265937288230988 0.8910307451106466 0.6746059084866587
0.999997015386304 -1.0 -1.0 0.9367999050155059 0.7372646086070532 0.9104017873280453 0.9092614913954311 -0.9235534535588237
-0.9553979834616165 -0.8837795047443682 0.8557143595119584 0.8057888259387184 0.8944406158756929 0.9348668219754827 -0.930875483253308 -0.9679835866174905
-0.8407269723942857 1.0 0.7943285002464623 0.8893959464660803 0.8726310909702472 0.8352098019835378 -0.9910102609242433 -0.9128005033372599
0.9911301103353863 0.7174093969309859 0.9012625607606981 0.6828834164789791 0.9646933800163325 -0.9701637564545348 -0.9117786840007267 1.0
0.7807175174765459 0.8925421307854341 0.9129596752533877 0.8907866664780095 -0.945458373068665 -0.8130533321901159 0.8509094360398584 0.8965504265558328
0.9249811415009499 0.9193609213871695 0.8636372120055053 -0.9654790788292752 -0.896526284667062 0.9618275674610975 0.8897059811946395 0.9999774113793456
0.8636505162750875 0.9239819291216936 -0.8960455337651747 -0.9124033112827517 0.9910615710737254 0.7995890885751695 0.9548857614052065 0.8913157839902621
0.8763739000667371 -0.9583100602803069 -0.8809358356958776 0.8207194914640219 0.8014028880388935 0.9204857949273677 0.9906592900051404 0.7208358061584215
-0.9191230970974157 -0.9137823575485264 0.919131777743306 0.831462872004727 0.9377113177415857 0.9995859659931432 0.7739076750632731 -0.8675345380033082
-0.845568278853658 0.7891977773585085 0.7963975914123983 0.917946199898248 0.811074556526292 0.7294201437729908 -0.8416889576432907 -0.8753441697026146
0.9889859419482666 0.8893513914729518 0.9910832611556061 0.8368459800298471 0.79883789924238 -0.8847900941435543 -0.8956678667759645 0.8442821806513752
0.8815062628086889 0.9907634495887809 0.8938828871950854 0.8762323618043272 -0.8144022003420771 -0.8196736503215548 0.8635057298538108 0.8257029735638388
0.9669634860083525 0.7959257653790964 0.6378266446604334 0.8113903780062409 -0.048422047706759376 -0.8076954027144704 0.1929957302908681 0.4958704015415632
0.8265276350265185 0.7918056715756568 -0.8189257198286453 -0.8152357593107028 -0.8337609150218802 -0.7946828184092382 0.7995012919373944 0.8087038531134415
-0.8020419316828844 -0.8275030677406473 -0.11831720655819132 -0.8123471943917362 -0.8118241608422382 -0.4051753185791374 -0.823642169589518 0.8153025803028678
-0.8217619386215635 0.7421440473099236 -0.8333712733176207 -0.743937121617554 -0.8160376479962966 -0.8217988487108958 0.7918248469060419 0.8102287651319311
0.8220087992202079 -0.7859550663117388 -0.8279787131314308 0.8050832425687255 -0.8246985112408742 -0.8030193233171854 -0.7949723938353197 0.809699378683986
-0.7884857143333408 0.8129381282287944 0.8023155953619269 -0.8316253988002208 0.7863159422601923 -0.8091743359648818 0.8008198218819493 0.7931360361699022
-0.8060289099690593 -0.7863379176656432 -0.8139205178689494 -0.8059637459849223 -0.7899433393704768 0.6369686500111423 0.8247877005200883 -0.821229315548463
-0.8320199922622289 -0.8242552280295092 -0.8204344199466191 -0.8201793783018081 0.8116101366107725 0.7926872146036371 -0.002868494739275783 -0.7895039040401235
-0.8175324540269634 0.8037740618047029 0.7904068162703504 -0.6141635911359573 -0.615855640675554 -0.8257032093236856 0.8143786219222997 0.3754682769964654
-0.8223508249668241 0.8029738267636046 0.8068823457291746 0.4521323760666651 0.8154867702510017 -0.7923184181934677 0.8072384958426807 0.7403297329305236
-0.806234398019689 0.7865667540574554 -0.8265521274617335 0.7832358396278792 -0.7911343862242949 0.7969178415501854 0.8020565096119686 -0.8007532944079196
-0.802175045679083 0.47037077848383135 0.25410975018483023 -0.8036661244400739 -0.06916907884773188 0.2893440133086869 0.8213543278370062 0.8307002920413092
0.8260104221694337 -0.5090781945238986 -0.8110690694775382 -0.8192332199518059 -0.8251205329765714 -0.791086169277341 -0.7994676306981783 -0.7915969745621372
0.7870649220385515 0.783083508682383 0.691170456493479 1.5394929459271824 0.7004182504895152 0.8696025272878835 0.5000745122611964 0.5551373082830297
2.1745907471936947 2.6915218454305334 1.9450957505898792
00000000: 2abb c887 9483 ea3f 808b e7da 2736 edbf
00000010: c19b 6952 94bf efbf 0000 0000 0000 f0bf
00000020: 07e0 8a9b 62c6 ed3f cec3 d87d 4140 e73f
00000030: 3762 bfe8 5283 ec3f 266f 5421 5f96 e53f
00000040: 2ed1 a5bd f9ff ef3f 0000 0000 0000 f0bf
00000050: 0000 0000 0000 f0bf 0900 5ecb 43fa ed3f
00000060: a7e5 cef2 ab97 e73f a567 d9ed 0222 ed3f
00000070: 2ac7 218e ab18 ed3f 7a93 e4f8 bf8d edbf
00000080: 4739 b4ca 9e92 eebf 8411 b8f4 eb47 ecbf
00000090: 4d49 9a14 0362 eb3f f372 dca5 05c9 e93f
000000a0: 6fce 2ced 419f ec3f 3f01 50d3 6dea ed3f
000000b0: b113 a761 bbc9 edbf edc7 f2b6 b8f9 eebf
000000c0: bd8d 6940 3ce7 eabf 0000 0000 0000 f03f
000000d0: 69db 5a9a 236b e93f 7a89 e87c ee75 ec3f
000000e0: 9514 a609 98ec eb3f 7d2c 1ae8 09ba ea3f
000000f0: 1071 9526 5bb6 efbf 4a63 b366 a935 edbf
00000100: 5915 3f7e 56b7 ef3f 612c 358d 04f5 e63f
00000110: f671 f294 24d7 ec3f 3b41 9852 2eda e53f
00000120: a7cf baa6 c4de ee3f 5793 b7dc 940b efbf
00000130: 2423 9f7d 4a2d edbf 0000 0000 0000 f03f
00000140: fe3b 9f4d a3fb e83f abd1 c083 b48f ec3f
00000150: 6cf6 7835 f736 ed3f 948c 070a 5381 ec3f
00000160: a6e5 01eb 3141 eebf c421 f56b 8804 eabf
00000170: 92c4 f46c a63a eb3f 78b5 2885 8ab0 ec3f
00000180: fc39 050d 7299 ed3f 9981 5298 676b ed3f
00000190: 2f83 a581 eaa2 eb3f fb67 9161 34e5 eebf
000001a0: 07c8 14e4 57b0 ecbf 6b5f 549b 4ac7 ee3f
000001b0: 902b 89ad 7878 ec3f ec9d d3a0 d0ff ef3f
000001c0: 8966 5268 06a3 eb3f 7786 f58c 4291 ed3f
000001d0: fcf1 e7ae 67ac ecbf be16 d76d 6832 edbf
000001e0: 60b0 82c1 c6b6 ef3f d066 35db 3b96 e93f
000001f0: 71d8 9495 6c8e ee3f 64b2 d4ad a885 ec3f
00000200: f358 fb46 410b ec3f 579d 0adc 79aa eebf
00000210: ee05 8659 a030 ecbf 20e3 e085 5543 ea3f
00000220: 0081 61ab 17a5 e93f d0a8 34a0 9e74 ed3f
00000230: fd9e 811c 7bb3 ef3f 148f a740 1611 e73f
00000240: 2303 61d7 7469 edbf 7aa5 aa7f b43d edbf
00000250: 1de6 c30b 8769 ed3f 3627 6306 589b ea3f
00000260: ec40 592a bb01 ee3f 5265 2fb5 9bfc ef3f
00000270: 17a5 5007 dac3 e83f 5cfd 9bca d7c2 ebbf
00000280: 5cc4 0635 e50e ebbf f594 7ab2 1b41 e93f
00000290: 6b57 37cd 167c e93f 519d 81b5 d05f ed3f
000002a0: 76bd dca0 52f4 e93f 3e8e d1e9 6857 e73f
000002b0: b26e 4fae 1def eabf 7fbe b3c6 d102 ecbf
000002c0: d1e3 9bd8 c5a5 ef3f d4e8 a00c 9175 ec3f
000002d0: e7d7 483e f4b6 ef3f 6a8d 8038 71c7 ea3f
000002e0: c9a4 817f 1490 e93f 827b c550 3350 ecbf
000002f0: f22f 7ca8 4fa9 ecbf 76c8 4f10 5c04 eb3f
00000300: a470 3f9f 4c35 ec3f 6aca c18c 55b4 ef3f
00000310: 539f de48 b09a ec3f 83af 3473 180a ec3f
00000320: 254f 0834 950f eabf c1c4 303c c43a eabf
00000330: ed2e b4c4 d6a1 eb3f 1e55 75a4 286c ea3f
00000340: f89f 9a68 5df1 ee3f 871a 8b4f 3978 e93f
00000350: ebaf 6a6c 1369 e43f a16d 3af4 e8f6 e93f
00000360: bd9c 9c4e c6ca a8bf ef38 7907 a4d8 e9bf
00000370: 13f7 ee86 15b4 c83f c939 6b35 57bc df3f
00000380: 5cbb 3515 ea72 ea3f 6b8d 06d9 7856 e93f
00000390: a48d 10b6 a334 eabf 419d 984d 6916 eabf
000003a0: df76 d65e 2bae eabf 5958 78a9 0a6e e9bf
000003b0: 2f63 bfbb 8395 e93f 77af 28e7 e6e0 e93f
000003c0: 2e28 53d7 53aa e9bf e324 a9b6 e77a eabf
000003d0: c7b4 b854 094a bebf 961d 1d8b bffe e9bf
000003e0: 1b71 9da9 76fa e9bf d566 9c75 64ee d9bf
000003f0: 78ca bfd2 465b eabf efd8 d76f f516 ea3f
00000400: 0445 6fb1 df4b eabf 17c0 83df a4bf e73f
00000410: e166 8a3b faaa eabf af16 f438 55ce e7bf
00000420: 035d 4efc fa1c eabf ea51 6319 2d4c eabf
00000430: 9de4 b30f a156 e93f bca4 10e0 64ed e93f
00000440: ca99 b565 e54d ea3f d9e6 3d3d 8b26 e9bf
00000450: 8de0 d536 cd7e eabf 6e7d acee 3dc3 e93f
00000460: b8dc da21 ee63 eabf f081 7694 55b2 e9bf
00000470: 62db 17f2 6970 e9bf 7341 e1ab 0ee9 e93f
00000480: c298 8d64 463b e9bf 8640 4dd2 9603 ea3f
00000490: cfce 64c1 91ac e93f 45d6 4bde ac9c eabf
000004a0: 2597 0a0d 8029 e93f f469 b793 c1e4 e9bf
000004b0: ac16 1fe4 50a0 e93f 281f 14d3 5e61 e93f
000004c0: 0d53 fe23 fdca e9bf 5551 ff22 ae29 e9bf
000004d0: f34b b90a a30b eabf 628a 587b 74ca e9bf
000004e0: 5941 0941 3747 e9bf 0901 0c14 0c62 e43f
000004f0: ec0e fc2c a964 ea3f f381 99b3 8247 eabf
00000500: 624d 0c64 e89f eabf 5233 fe7f 4c60 eabf
00000510: e6de 45af ff40 eabf b81d d5d2 e83e eabf
00000520: 310d 3bd2 b5f8 e93f 31c2 d593 b15d e93f
00000530: 4a89 0163 ab7f 67bf 3855 fdb0 9d43 e9bf
00000540: 9fdc 2ed2 3929 eabf 8460 9a61 84b8 e93f
00000550: 1455 4d3c 034b e93f ce54 4a67 3aa7 e3bf
00000560: b646 78e3 16b5 e3bf 4aeb 0723 296c eabf
00000570: 6ef8 76c1 630f ea3f 8fa8 9818 ac07 d83f
00000580: b246 62ad b250 eabf fecb af2a f6b1 e93f
00000590: dd0c d4ec fad1 e93f 88d2 2aa2 bcef dc3f
000005a0: 198f 11b6 7718 ea3f c419 c527 ac5a e9bf
000005b0: f1ed 76d3 e5d4 e93f 2a2d e6fa c7b0 e73f
000005c0: 37f4 8c14 accc e9bf 5186 990a 8e2b e93f
000005d0: 5365 7c72 1d73 eabf 0d38 889b 4410 e93f
000005e0: 5161 720f f950 e9bf 96d2 61d8 5980 e93f
000005f0: 5d79 ca69 72aa e93f 48ae 745f c59f e9bf
00000600: aa7c 5b00 6bab e9bf 6441 a509 8e1a de3f
00000610: 6dde a88a 5543 d03f 1ff1 2b05 a2b7 e9bf
00000620: dca2 8b93 10b5 b1bf 9911 9dc0 9c84 d23f
00000630: bb9d 0fdf 8848 ea3f d50a 63c7 1895 ea3f
00000640: 8fee ab68 ad6e ea3f a5c7 925a 5e4a e0bf
00000650: 7080 061f 47f4 e9bf 49ac ef95 2837 eabf
00000660: 108f 0c2d 6367 eabf b4a6 2bf1 9350 e9bf
00000670: a2e5 0124 3d95 e9bf ea6b ab2d c354 e9bf
00000680: f27f 7fc6 a22f e93f 117d 7a25 050f e93f
00000690: 6f3a 5381 111e e63f 0ee1 f25a c3a1 f83f
000006a0: d7f7 eb88 d369 e63f 930d e7ad c8d3 eb3f
000006b0: 1d33 7743 9c00 e03f c1ae fb50 afc3 e13f
000006c0: 8a0c 6bd5 8f65 0140 eabf f49a 3c88 0540
000006d0: 23f4 c5b8 1c1f ff3f
