task2morph/02_flip_box/01_loss_compare/results/tmp/params.npy (npy, 1808 bytes, 1 tensors)

array f8 [210]
00000000: 0000 0000 0000 f0bf 375b 320f 5ee1 ef3f
00000010: 6754 5ee6 cc70 ecbf c7b6 44ef 857b eb3f
00000020: c902 0a05 d5c0 e7bf a797 ed95 2e7d e5bf
00000030: d96d 2baa 50da e5bf 0000 0000 0000 f0bf
00000040: 984b ec41 441f ea3f e942 63b2 cbf5 e8bf
00000050: 3547 c8a9 eb46 e83f f2e7 5a7a 4bab edbf
00000060: 8e10 fe70 9072 e7bf 2f65 381f e360 e4bf
00000070: 0000 0000 0000 f0bf daa0 8fd1 746e e83f
00000080: 84d7 eaa2 d68b e8bf 1381 2a8a 8f63 eb3f
00000090: 9be9 0c5e fcff eebf fba3 a40e 2fd9 e9bf
000000a0: f91b 96a9 9623 e3bf 1907 d987 d0a4 eebf
000000b0: 03f7 a8a5 70ea cc3f 366b 4c94 c252 e3bf
000000c0: 809d 77b2 10eb e83f 7d61 b62a 5a8d efbf
000000d0: 3260 64f2 9814 e9bf 66d3 4f9f c8f0 dabf
000000e0: 260e a715 0eff efbf 736f fb6f 8f4b d03f
000000f0: 4ba3 d725 c548 dabf 5cd3 50a5 bc90 ea3f
00000100: cd1c 20dc 0567 efbf d717 528a 6e78 e6bf
00000110: d635 1c94 a7ba d5bf 1216 11b5 defe efbf
00000120: d4f3 d8d4 8952 d13f 267f 59ed fc7c e0bf
00000130: 454c 5a55 af20 e93f 3551 ca8e 7987 efbf
00000140: 4b89 4307 a944 e7bf 5927 c263 797a d4bf
00000150: 7721 827c f9ff efbf 1bb0 4e07 b9ba cf3f
00000160: 126f 11ef 6930 e2bf e6be 6653 18c0 ec3f
00000170: d930 0fd5 3610 d23f f134 f1ff f10f e4bf
00000180: dcad 69de ed48 cabf a96f 0e3b 5dff efbf
00000190: 68f4 b62a 8408 b93f 10fb aab8 33c0 e4bf
000001a0: 29ba 673e 56e5 e93f fe38 be17 93b7 bf3f
000001b0: c42a 39ca 0146 e3bf 3177 ae4c 5ece c8bf
000001c0: e8b1 24ac e9f7 efbf 96d7 5990 00fe eebf
000001d0: f971 6ef4 1a44 ef3f a7d2 2fe0 67fb e4bf
000001e0: a17c c1b0 9448 efbf bc5f b8a3 eea8 e3bf
000001f0: b79d 9e9a e46c d1bf c78f 71a2 81fa efbf
00000200: 8787 2f9f f3e6 e83f bb22 638a 207c ecbf
00000210: 29bf 485f e7ff ef3f 698c f641 6a67 e73f
00000220: b203 75e0 cb2e e6bf 695d 2b51 ae94 e5bf
00000230: 506f 1909 1672 efbf e6c5 b73a 0a9d edbf
00000240: 270d 1e37 4d1a ecbf 9b95 18fe d5f9 ef3f
00000250: eab8 57c9 480f efbf a2c8 3d7c d63e ee3f
00000260: 2c21 140a 04e8 ed3f e836 57d8 d4fb efbf
00000270: c8db fb18 5583 eb3f bfe4 880a 74eb efbf
00000280: 7647 cbd0 2acd c23f 3e40 aef4 6aef efbf
00000290: 0cac 8e40 3946 ebbf c58d 8af3 088c e5bf
000002a0: cdd7 a374 29f9 efbf 6c1d 0acd 9316 ee3f
000002b0: 867d 75a2 6eef efbf 73b6 b4d2 6cef ef3f
000002c0: 050e 41d0 b82d eb3f 8de6 d102 dcfa e6bf
000002d0: 008a 613f 0766 e7bf c556 ff09 7b95 efbf
000002e0: 7355 1ee0 7ee1 ee3f 3b7f f673 71ef efbf
000002f0: c81e ae5a a54d e6bf 91a6 92d3 de6a efbf
00000300: 2604 4c64 edee e7bf 3ca7 8ac8 a135 e9bf
00000310: 15f1 018d 9a27 ebbf 27b3 9c92 1207 e93f
00000320: 55db 63dc 7a4d e53f 62d6 843c f60d e7bf
00000330: eaad 317d cae8 e6bf 7d5d 76fc 3f67 e6bf
00000340: 91f1 f490 7280 e7bf 30cf d4d7 0cbf d3bf
00000350: 7e7b ac1c 7793 e73f 338f 9739 c75e a13f
00000360: 5f39 e617 d320 e6bf 96a9 b73f 615f e7bf
00000370: eed6 7bb5 4080 b53f 35cb 71cf aa2a d23f
00000380: 1e7b 7cb8 dcea e63f 60dd 34f0 59e8 e73f
00000390: 738d dc30 5b7b e53f d588 3e0e 1057 e6bf
000003a0: b669 8996 c92a e8bf 3465 57ae 2f7d e63f
000003b0: ea6c 1d9b e427 e23f e0c3 50ad c709 e63f
000003c0: b39a c032 49bb e73f 812e 75ec 76d4 e7bf
000003d0: 8251 c5d6 5aec e7bf 68cb f98d a42b c23f
000003e0: a60e c14d 0a73 e73f 2254 c96b 432d e8bf
000003f0: 1eb5 a7ba 5d04 e6bf b03d 258f efd3 db3f
00000400: 181d c975 6127 e63f b5ca ddc2 db1c e63f
00000410: 846c 28b5 4847 e63f e55b 6fda 6602 e6bf
00000420: 857e 8f53 3182 d1bf 6235 7d1b c4c9 e6bf
00000430: 880d 2398 2bd6 e63f 9544 6ea1 906b e73f
00000440: c0d3 de60 68ba e7bf 6bb2 7440 9569 e6bf
00000450: f2d4 1a96 6cf0 e73f 3d59 b66d bf27 e63f
00000460: 3399 21d0 a59d e6bf 9cc2 dc57 0c9e e73f
00000470: 890f b446 3469 e7bf ba4e 980a 50c2 e63f
00000480: f256 fb5f 78b5 e7bf cf84 eba9 37c3 e6bf
00000490: d605 7cd7 3d80 e7bf 77e2 f811 e20e e83f
000004a0: ab1f 7b91 0181 e7bf e6bb eaa2 95a3 e63f
000004b0: f521 3834 fec3 e73f 5629 1ef0 7543 e13f
000004c0: 2f70 adcf f987 e6bf 84c3 7d12 35bb e63f
000004d0: 12e3 e86b 2783 e6bf 7c9d 9cea 7609 e7bf
000004e0: c81b 80e7 9eeb e5bf b80d 7905 191d e83f
000004f0: ba45 ac53 ec0f e73f 91d6 3536 dc4a e73f
00000500: 2846 a9b8 a6d9 e6bf 0e82 c7a0 37f6 e5bf
00000510: 3713 fe09 1caf e7bf ddc9 8825 2ad3 bd3f
00000520: e19f 3814 ba97 e73f 163e 5f20 03d0 e6bf
00000530: a6de b876 4e90 e6bf c565 3267 3855 e63f
00000540: 96d7 0dc8 2222 e73f dc33 de5b 33d3 e6bf
00000550: 47bb 2a0a d3b7 e6bf c317 e333 5fc5 e73f
00000560: aa9c 3b05 e78a e73f 01f2 5561 52b4 dd3f
00000570: 7adf 8ebd f7e5 d0bf 1d13 d590 e85a e63f
00000580: abf7 863b adca e6bf c769 3555 2cbd cdbf
00000590: f036 24ef 2831 e7bf 9caf 539c c23a e73f
000005a0: f4e5 a4f9 1bf6 e5bf 240e 13c8 c158 e7bf
000005b0: 0fa2 b9da 66f4 e73f b0f1 00f2 e111 e6bf
000005c0: 5b5c 8ca2 4bac e7bf 1940 d561 a3c4 e6bf
000005d0: e174 f42b fc07 e63f ebc3 1bda c918 e63f
000005e0: e57c c8a5 7766 e7bf 785d 1528 e4b4 e73f
000005f0: a70b 7b69 1797 bcbf e766 77a5 61bf e63f
00000600: 8094 3de6 22e1 e5bf 3785 3243 acbc 92bf
00000610: f477 e989 c4d7 e6bf 0a40 97dc 4137 e63f
00000620: c92b f2ad 03fe c13f 7afe 007b c823 e63f
00000630: ac18 8ac8 567c e6bf 645f e450 d83f d73f
00000640: 52f2 e721 2b2e e63f 0f46 302a 543b e63f
00000650: e494 20ce e19d d0bf b752 67ef c939 e63f
00000660: 82a1 3d32 e7ec e63f e39c 19f0 f351 db3f
00000670: 4e31 463e 9833 8e3f b6b4 18dd 2de2 e1bf
00000680: a968 7a3d 9630 e8bf 2f8d 7dd0 8b25 e83f
-1.0 0.9962606713114387 -0.8887695788749966 0.8588285134516916 -0.7422890757007617 -0.6715310028346168 -0.6828997920633199 -1.0
0.816316727405467 -0.7800043567786733 0.7586572948514233 -0.9271600141285019 -0.7327348906406017 -0.6368270501872412 -1.0 0.7634834378232214
-0.767070120046569 0.8559034060054124 -0.9687482678339622 -0.8077616964338853 -0.5980943023904494 -0.9576189664150859 0.22590454186313744 -0.6038525482611934
0.7786944852531832 -0.9860049089648296 -0.7837643369885028 -0.42094626958651415 -0.99988464573875 0.2546118348670838 -0.41069153495350424 0.8301680783102756
-0.9813260363888731 -0.702201147229739 -0.33951749290357947 -0.9998620544872117 0.27066274438749116 -0.5152573238119416 0.7852398554845271 -0.9852874554513052
-0.7271313802596436 -0.31997523061783323 -0.9999968940547167 0.24788582665257838 -0.5684098882006501 0.8984490994389176 0.2822396355302437 -0.6269464491721505
-0.20535062179565855 -0.9999223855443137 0.09778619807089373 -0.6484621626658242 0.8092452257968193 0.12389487580933076 -0.6022957753824234 -0.19379786247457667
-0.9990127908873179 -0.968506128249589 0.9770636343051243 -0.6556891802452655 -0.9776099636327623 -0.6143716046963088 -0.27227130031175356 -0.999329392693192
0.778192339810844 -0.8901522353054 0.9999882565516361 0.7313739097920805 -0.6932124504020207 -0.6743995271053055 -0.9826765229913494 -0.9254199168046255
-0.8782106472503174 0.9992475474179402 -0.9706157619928295 0.9451706339443897 0.9345722386215463 -0.9994911408809601 0.8597817886319428 -0.9974918561703346
0.1468862075330965 -0.9979758051795284 -0.852322221840383 -0.6733441120781484 -0.9991652753949382 0.9402560238531072 -0.9979775593782712 0.9979766955709252
0.8493312900031361 -0.7181224875523228 -0.7312046277914419 -0.9869971461546007 0.9650263192476544 -0.9979789032840708 -0.6969782610985584 -0.9817957050592715
-0.7479159315990997 -0.7877968708828358 -0.8485844377569572 0.7821133483426806 0.6657079987042872 -0.7204543287286465 -0.7159168667980655 -0.7001037531762645
-0.734429629439136 -0.3085357768752486 0.7367511329683649 0.03392622545268722 -0.6915069071563201 -0.7303930515748103 0.08398823195224356 0.28385420091869956
0.7161697009322301 0.7471131984265575 0.6713081316305946 -0.6981277731140617 -0.7552230777903819 0.7027815251450762 0.5673697499836667 0.688693846232237
0.741612052083687 -0.744685613471532 -0.7476019091359805 0.1419568722954765 0.7327929991374347 -0.7555253129199893 -0.6880329747779432 0.4348105333237653
0.6923072147846225 0.6910227590545533 0.6962016618957851 -0.6877931848820223 -0.2735713306446786 -0.7121296440979388 0.7136438342499085 0.7318804886764548
-0.7415048496246683 -0.7003885516074438 0.7480986530050855 0.6923520224397987 -0.7067441048682553 0.7380429950772682 -0.7315923100400009 0.7112198073322908
-0.74090212580151 -0.7113302534818561 -0.7344044884377421 0.7518167830485954 -0.7344978181290477 0.7074688131305009 0.7426749248416501 0.5394849481392991
-0.7040986114693676 0.710352455249549 -0.7035100085841768 -0.7199053365956583 -0.6850122949116377 0.7535519701854616 0.7206937441098298 0.7278882082743668
-0.7140687567391 -0.686305822393537 -0.7401256747403754 0.11650336662641032 0.7372713465638264 -0.7128921158091 -0.7051155394355717 0.6979028716625001
0.7229169757181235 -0.7132813257500135 -0.7099394987652453 0.7428432477397496 0.7357058622555048 0.46413096909944335 -0.26403611671002347 0.6985972241169268
-0.7122408068314504 -0.2323356071527327 -0.7247509642345147 0.7259228757152303 -0.6862926364767064 -0.7295845897392081 0.7485842010474374 -0.689682934440091
-0.7397821593066384 -0.7115036879349673 0.6884747370237642 0.6905259380274605 -0.731258224292017 0.7408314497833279 -0.11168047261439416 0.7108619910970589
-0.6837324616323173 -0.018297854997063125 -0.7138388341516007 0.6942452724852057 0.1405644034715279 0.6918680574817266 -0.7026781002794187 0.36327178859345666
0.693135801527726 0.6947422813411225 -0.2596363556825294 0.694554298005264 0.7164188367142261 0.42687700698156855 0.014746846580941633 -0.5588597601214562
-0.755931015085726 0.7545832702711887
