Task2Mroph/03_rotate_plank/model/rotate_model_parameter_reference_1.pkl (torch, 13925 bytes, 6 tensors)

hidden1.weight f8 [32, 2]
-0.08427198533415185 0.5513929833553548 -0.4381614172176099 -0.054321591983312593 0.2849668189514332 -0.5172331700297093 0.5300719917919933 0.14330320853083744
-0.47595971174418705 0.5059504650267876 0.5980426548637016 0.2174785746125163 -0.3527144663794577 -0.14906106971742977 -0.47750412527425723 -0.12965291913774488
-0.4876056245157317 0.45415356943140145 -0.42882186116894927 -0.3289061497219574 -0.2340873663951566 -0.13676944388043938 0.3754868653605038 -0.4638360104285348
0.653538368132343 -0.6143700153203767 -0.0007661439042120691 -0.4140044449142336 -0.5937243539184285 -0.34574853767535413 0.26807040706373525 0.33444387865361663
-0.0031585448781747583 -0.5306307357414292 -0.45536137247749087 0.42414528382195793 0.265993084770632 0.5176176843318089 0.13683748079265615 -0.1799243361284332
-0.4718522487933155 -0.0644297338693973 -0.3459893675673371 -0.535135289934577 0.46738806776260616 0.6709809705755 -0.0049360684336199915 0.20951171096184995
0.1272740551497287 0.3904421666741471 0.6960300611401112 -0.5260539211732901 -0.5172562660333501 0.41068247154857823 -0.29172094465755594 0.106003642413187
0.4130361996213049 0.25268508667446965 0.29833199449741343 0.3870377640161701 -0.7026434922922038 0.08585033659276775 0.4353103797200552 0.3926583840595978
00000000: 23ab fa4c d992 b5bf f429 d8e5 02a5 e13f
00000010: b264 542f d60a dcbf 57e9 112a 0ad0 abbf
00000020: 19dc f577 e53c d23f 66e3 b593 2c8d e0bf
00000030: cbb5 a889 59f6 e03f e0a1 0671 c257 c23f
00000040: 66e9 09b9 1f76 debf 14f4 9507 bf30 e03f
00000050: 6915 8859 2a23 e33f 584e c582 56d6 cb3f
00000060: 5441 7bb2 df92 d6bf 8285 c5e1 6e14 c3bf
00000070: 6e83 7076 6d8f debf a786 c383 7798 c0bf
00000080: 9d01 a938 ee34 dfbf 4173 0422 da10 dd3f
00000090: 8af3 613f d171 dbbf e094 2061 cc0c d5bf
000000a0: c077 8927 93f6 cdbf 0680 4740 a981 c1bf
000000b0: 4242 b30f fa07 d83f dbd9 df3b 7daf ddbf
000000c0: 6ce8 b94b c9e9 e43f 8d35 6e4e eba8 e3bf
000000d0: 368d 9d81 e11a 49bf 7e89 d37f 0c7f dabf
000000e0: 5e63 5d37 caff e2bf 6b26 7d79 be20 d6bf
000000f0: 3d4e d7c7 1028 d13f 0d8a 4a4c 8767 d53f
00000100: a9f9 8cde f2df 69bf 2161 084f edfa e0bf
00000110: 86c2 a906 a424 ddbf 0c26 b142 3225 db3f
00000120: 4c54 03dc 0706 d13f f329 41f6 5290 e03f
00000130: dd8c 6ffc e383 c13f 7d8b b6b9 c207 c7bf
00000140: 4920 47c6 d332 debf 5eea db8f 777e b0bf
00000150: b4c9 9d96 b024 d6bf 278b 260b d41f e1bf
00000160: 852f 65a4 afe9 dd3f 0786 9b15 ad78 e53f
00000170: 4336 e4c7 d737 74bf 34e6 5a9d 47d1 ca3f
00000180: 51aa 3f28 844a c03f e811 3624 01fd d83f
00000190: 2926 b4d5 e045 e63f 23e6 6b08 6fd5 e0bf
000001a0: 4375 4803 5d8d e0bf addc 1522 9f48 da3f
000001b0: 0832 3753 8eab d2bf 84e8 6b01 0e23 bb3f
000001c0: 2a02 5c62 2f6f da3f 9c0a dd11 fe2b d03f
000001d0: c0e0 ed13 df17 d33f f70c b10a 3ac5 d83f
000001e0: 428d 8434 0e7c e6bf 483b 04a4 49fa b53f
000001f0: 5772 2011 20dc db3f c750 82a1 5021 d93f

hidden1.bias f8 [32]
-0.13060596958260343 0.14932047770036133 -0.6704836194708467 -0.07047214599390714 0.008402651847720695 0.3271886072153777 -0.17536884772169545 0.6221670379007024
0.3494775731168818 -0.14518311866826755 -0.705323469149617 0.6891706952913783 0.4795754764418114 0.6038258367658561 -0.06706811382669121 0.5804510709427104
-0.6032967100900428 -0.7031643625410685 -0.13432375259141377 -0.1789654391636042 0.5964082136392195 -0.6180653797939765 -0.4539556293344164 0.08252271233009244
0.19270773979022135 -0.4277424558585185 0.69197726989818 0.1383947172852571 0.48644456793235813 -0.5569884340040103 0.5339214893197491 -0.35202309304178486
00000000: f983 0248 b2b7 c0bf 9e4e 2cf4 ee1c c33f
00000010: 1d31 4410 9a74 e5bf f6a0 526a 760a b2bf
00000020: 77c7 15d7 6835 813f 1a49 e77b a8f0 d43f
00000030: 67d7 d984 7c72 c6bf c1d8 0dd9 cae8 e33f
00000040: b93c ce2e d75d d63f 8245 4e45 5c95 c2bf
00000050: f129 2386 0292 e6bf ea6a b4b3 af0d e63f
00000060: 28ff d156 5db1 de3f 3774 ac8f 8a52 e33f
00000070: 8973 7d3b 602b b1bf 5811 d41f 0e93 e23f
00000080: 46e0 f3e6 344e e3bf 5173 9a8c 5280 e6bf
00000090: 0e62 3a4e 8531 c1bf e835 29ea 56e8 c6bf
000000a0: e8ad 94ad c615 e33f 8928 200c 31c7 e3bf
000000b0: 03e4 74e9 9b0d ddbf ef8c a25e 3520 b53f
000000c0: dbe3 0ab0 a5aa c83f d379 c1e4 2160 dbbf
000000d0: b137 f983 ad24 e63f c8f4 5608 ebb6 c13f
000000e0: 6886 a565 e821 df3f f284 8968 d9d2 e1bf
000000f0: 6551 e884 e215 e13f 5f47 03de 8b87 d6bf

hidden2.weight f8 [32, 32]
-0.13876752120169733 0.09785017498656402 0.061719394512072256 0.12636558027814462 -0.13014208458089616 -0.14002084802032574 0.12650020989893757 -0.1486817090802303
0.13862357595017955 -0.10343155560728869 0.012569002658735293 0.14325973419147564 -6.064071557822297e-05 0.16176141812303924 0.08487985150979299 -0.04740921596742864
0.16155000346993 0.06900077341168623 0.16393100658685622 -0.048419030053678334 -0.1502300408772504 -0.019610403418621317 0.1475647911865688 0.07307183255165313
0.12350568137017162 -0.03211086543262462 -0.15193479642189697 -0.03924504512493455 0.037612826128550325 -0.017249752949842333 -0.0032689096206723845 0.03767215710330783
0.1512898079067221 -0.04902007160242951 -0.08628676959958685 -0.1121484271715554 -0.07678204342800751 0.0023129464860405687 0.16684343209431668 0.08643237838441768
-0.06326174840227536 0.05859990986463283 0.0978398373581379 0.026435381967418813 -0.12645116836383122 0.11948162041993897 -0.16497615987596517 -0.05447844469832866
0.024760149864594218 0.13256302285559168 -0.14483514624894533 0.057809095712115996 0.13529598355908376 -0.012906973737673313 -0.10424618369348271 -0.049965889453472426
0.10545277119276389 0.10119600784141106 0.14880466341783158 -0.08096565225003811 0.10832726141448018 0.06971223052699908 -0.019146263248824118 0.13627573306731816
-0.0842364467388078 0.14179543710181436 0.04665968469592557 -0.054524669248792665 -0.17346881230108235 -0.1238941645322466 0.09575325929028293 -0.01653470668912399
-0.10530848418669182 0.1149903667819314 -0.06794858641965339 0.14398720054864353 -0.08766247625164839 0.09951177498561661 -0.026996838775831252 0.13265234707087978
-0.0076649476603109865 -0.16721745044636432 -0.017017618826733204 0.012440504984207703 -0.06684372948572519 -0.12127837392552158 0.0653996209895094 0.16123326096816656
0.06572842591301235 -0.042660608897386355 -0.06926004575163955 0.15113269396176976 0.04659277013283944 0.07795654307322077 -0.11602805571994805 -0.13617387914493673
0.1132422362762964 -0.08547874602799183 0.10508044109422118 -0.124801660160504 -0.13632420855930033 -0.15564965243565437 -0.10417151958310673 0.14692636188028055
0.14695616181965154 0.06181086252204328 0.08954503206797365 -0.10998708670797323 0.054536956083926766 -0.02450509960182083 0.08312541524813245 0.09641995677757477
-0.0025909091080830943 -0.13028160576336256 0.14678695343152898 -0.010976641478110373 0.16892891027393034 -0.1386412260031123 0.035822218040833236 -0.08911909957562746
0.15755445013189076 0.14281457055077926 0.12003545780296442 0.005963391304656648 0.02098812198234993 0.07907637272350623 0.16715534145516858 0.15608575831323096
-0.13934567824409252 -0.15042388431296164 0.1293380372735467 -0.09034036834714493 -0.13594811746989707 0.15999157980422216 -0.10787343230301376 0.08017826547961751
-0.15443588909793637 -0.06868383461307467 0.0020050285954020535 0.07604131655113089 0.16595501539856483 0.027128574906903777 0.10059308298861455 0.10738932199515591
0.02978017529450242 -0.15077731556347596 -0.05965274574824416 -0.06225942844160899 -0.13512726542775882 0.12735664501266034 -0.05292175093950169 0.04844211019517441
0.1160434991282238 0.06399792884839413 -0.04038084425881397 0.059670793932224436 -0.034721997029632676 0.08716072717837446 0.1572774521029724 0.13800723476220708
0.05257482237538671 -0.14654559596879596 -0.09176480886416102 0.09590711694507009 -0.05240341626790263 -0.0969590738465418 -0.013575452930263772 0.014308376914971473
0.11891583504962967 0.06435713405389311 0.12952101864302462 -0.03666136373585853 0.04882444737250259 -0.1294945335317391 0.09204535873714942 0.13598420615616547
-0.050881052227993814 0.04653812460520342 0.028614892667467688 -0.14722730054453534 -0.07108283813902913 0.03847833300455015 -0.10376494451422813 -0.07841487088133171
-0.17713572918864245 0.03411248952293779 -0.0999776096823002 0.13943757884392063 0.13916594150187317 0.05508187626590484 0.1467990211631664 -0.10484914764138097
-0.16699176898740753 0.16664395015165218 0.013045935090875805 -0.17003589292187993 0.0487395299252745 0.16746359512067352 0.07660062851764066 0.1681719453014196
0.17099863483017472 0.05935740428154089 0.07247562883100375 -0.039502283161131836 -0.11155105476903716 0.17768286601259267 0.0546278915666545 0.1552026615754902
0.042259492168359204 -0.16813651429411933 -0.07781011762963759 -0.10801847318629505 0.08146308413448748 -0.022276507709894908 0.16459919352512714 -0.06739835008407882
0.1394941971746777 0.09876343081035069 0.06643270440385798 -0.09884695291405038 0.041132368389952795 0.028458057303072475 0.023429898510673768 -0.010508533253200704
0.0644964985957186 0.08772493971100118 0.11924686722255735 0.03261163023209314 0.03201889336753983 -0.01860705656252483 -0.05669877506986343 -0.12339716570466046
0.14937981511615492 0.07893484547603867 -0.09445703412826596 -0.17722632642533354 -0.01012816541597273 0.054592595758819376 -0.10455033387062031 -0.055344952657656196
0.08165109784680459 0.08034688910751524 0.09158654324973937 -0.12093148933582931 0.10469869904761456 0.12437174047756583 0.03944080086890291 0.08117832096058775
0.06072745702422881 0.12031036115323897 -0.11507105013973788 0.03771337109591138 0.1363861648571154 -0.012737688013465096 -0.06685473641152505 -0.034025252464003834
00000000: 9c75 a756 22c3 c1bf b9a4 7985 b50c b93f
00000010: a8a2 ea39 af99 af3f a53d 5151 bf2c c03f
00000020: fcd9 8dee 7ea8 c0bf bfb3 8001 34ec c1bf
00000030: 46fe 39ac 2831 c03f 2da9 0193 0008 c3bf
00000040: 528e 94d6 6abe c13f 812c b58c 7d7a babf
00000050: 859d e6fa c6bd 893f 30d0 97c0 5556 c23f
00000060: 58c8 281f 0fcb 0fbf 94e8 4b20 99b4 c43f
00000070: ecea 529a afba b53f e0dc 3750 0546 a8bf
00000080: 7938 c9a6 abad c43f a2af 33e1 08aa b13f
00000090: e0a2 0bf4 b0fb c43f 534f 2b0d 61ca a8bf
000000a0: 7ae6 38ec bc3a c3bf 049c 60e5 bf14 94bf
000000b0: 22fc 1730 67e3 c23f 8571 11eb d5b4 b23f
000000c0: c2e6 5a7e 119e bf3f 0c3e c2d9 d570 a0bf
000000d0: dbd3 e072 9972 c3bf 31eb ae32 ed17 a4bf
000000e0: 50b7 4304 fd41 a33f c375 2253 eba9 91bf
000000f0: f67f 427d 66c7 6abf 7efb 74d5 c349 a33f
00000100: 1db8 96e4 765d c33f 1291 c2a8 2819 a9bf
00000110: 73f9 81c5 e316 b6bf 42ea ff62 c2b5 bcbf
00000120: fe7e 71ed fca7 b3bf 6868 7ab0 99f2 623f
00000130: dae0 3226 205b c53f 9300 7aae 6e20 b63f
00000140: d6bd 7904 ec31 b0bf 2294 d5b0 ce00 ae3f
00000150: 3cfc b215 080c b93f 0682 0774 e011 9b3f
00000160: 51f2 5448 8d2f c0bf c33d 2df4 5896 be3f
00000170: 61ba a455 f01d c5bf a4ed a144 99e4 abbf
00000180: 0a64 a687 b95a 993f ea6d e93b d3f7 c03f
00000190: 2cad 3944 f589 c2bf de5f fd5e 2799 ad3f
000001a0: 334d 55f8 6051 c13f 28c5 bfb0 f86e 8abf
000001b0: d041 b2bd e0af babf ba86 3c0a 2195 a9bf
000001c0: 5aa5 8beb f3fe ba3f 8a24 2a48 fbe7 b93f
000001d0: 9399 6ffd 070c c33f 8d62 833c 2aba b4bf
000001e0: f459 0add 55bb bb3f f3a2 3e26 a9d8 b13f
000001f0: 6e2b faf9 139b 93bf 7a9b 61b4 7b71 c13f
00000200: 57da df0f 8590 b5bf 3e83 8956 5a26 c23f
00000210: 6710 9f37 c7e3 a73f 4660 7f4e a8ea abbf
00000220: 28c4 dadd 3934 c6bf 4bcc d428 87b7 bfbf
00000230: cb1d 231d 4983 b83f d03a ea61 79ee 90bf
00000240: 91bb 922f 7ff5 babf eff5 ae38 0270 bd3f
00000250: ef59 7b1c 1465 b1bf ff12 b32e 2c6e c23f
00000260: 2a53 964c 0c71 b6bf 7a50 218b 9a79 b93f
00000270: bfe1 8c2e 0fa5 9bbf df1a 348a c0fa c03f
00000280: eae6 6cb8 4765 7fbf d66a 7ea4 6167 c5bf
00000290: 3336 4411 116d 91bf 4e55 6c50 687a 893f
000002a0: e377 15b0 ab1c b1bf 6be0 b879 190c bfbf
000002b0: e31b 5291 07be b03f e75e 719f 4aa3 c43f
000002c0: 3bc5 b6ff 93d3 b03f 755c 1580 9cd7 a5bf
000002d0: b639 6cbf 06bb b1bf ec09 f6ec 5058 c33f
000002e0: dcb3 e6ef 01db a73f 113a 02c3 f5f4 b33f
000002f0: 1353 bcc0 03b4 bdbf 609c bf4a 256e c1bf
00000300: 2225 5575 71fd bc3f 147d b162 efe1 b5bf
00000310: 5eed f241 8de6 ba3f 1139 e068 00f3 bfbf
00000320: d627 b558 1273 c1bf c225 6ceb 53ec c3bf
00000330: 9db8 c815 fcaa babf b118 99a7 7bce c23f
00000340: e804 7ba2 75cf c23f 62b3 2362 aca5 af3f
00000350: d44f 4058 6cec b63f ab9f 641c 1d28 bcbf
00000360: b692 9b95 44ec ab3f 4c0b 8065 dd17 99bf
00000370: b107 f50b b547 b53f 519a 0a71 faae b83f
00000380: b223 5bbc 8739 65bf ac12 0352 11ad c0bf
00000390: e2e3 3b36 eac9 c23f b4e2 58e1 eb7a 86bf
000003a0: 85db 7c68 769f c53f 6ac5 c7e5 febe c1bf
000003b0: 273f e92d 4a57 a23f 5f54 2062 82d0 b6bf
000003c0: 15ef 5385 be2a c43f 7735 f472 bf47 c23f
000003d0: 57c6 9fcd a4ba be3f 232c 07aa 116d 783f
000003e0: 6a19 1306 e97d 953f 12d8 bb62 593e b43f
000003f0: aa69 73a2 5865 c53f e2d0 a93d 9efa c33f
00000400: 41db 7245 14d6 c1bf a5aa d4ff 1641 c3bf
00000410: c2fe 1b18 268e c03f b440 8fdf 8b20 b7bf
00000420: 6734 3e77 bf66 c1bf 3f7f 72a5 9a7a c43f
00000430: 5345 d9df 979d bbbf 22c0 1514 9086 b43f
00000440: 8c8d 8022 8ec4 c3bf be51 6d87 4395 b1bf
00000450: c15f d587 d96c 603f 305d bb97 7177 b33f
00000460: cc3b df91 033e c53f 1c88 0cd8 97c7 9b3f
00000470: 5ed1 a3e1 77c0 b93f a6a7 e8d9 dd7d bb3f
00000480: 4a0d d6bb b17e 9e3f 5072 a9cb ab4c c3bf
00000490: 6beb 3500 ce8a aebf 4a79 0cc2 77e0 afbf
000004a0: 86b2 e7a8 d94b c1bf edfa a0f8 384d c03f
000004b0: c07e 104b 8f18 abbf 7f33 137e 67cd a83f
000004c0: d34b abd9 06b5 bd3f f563 6a13 2b62 b03f
000004d0: 94f4 f34a ccac a4bf 7436 ee98 2b8d ae3f
000004e0: a65e 63e3 14c7 a1bf cb08 ba58 2a50 b63f
000004f0: bc19 97e4 aa21 c43f 2321 f597 38aa c13f
00000500: b3fd 634d 16eb aa3f 0687 078f 01c2 c2bf
00000510: 86c9 fe04 e67d b7bf c493 bb6a 5e8d b83f
00000520: 697d 23de 9ed4 aabf 21aa 3853 4fd2 b8bf
00000530: d134 e972 72cd 8bbf 11e7 44d7 b54d 8d3f
00000540: b9c2 83a6 4471 be3f 2198 068a b579 b03f
00000550: e6b2 9b0d 2594 c03f 5667 8b3c 47c5 a2bf
00000560: a29b 6b99 84ff a83f c3c9 43e1 4693 c0bf
00000570: 1c4f 86dd 4890 b73f dc4b 1b33 ee67 c13f
00000580: 7650 9cce 140d aabf 7b9e 6456 d8d3 a73f
00000590: 8ec5 bdf0 384d 9d3f eb64 751c 58d8 c2bf
000005a0: 8e2e 1d21 7c32 b2bf 3de1 b79b 6eb3 a33f
000005b0: e0ec 28e3 5690 babf f193 f439 ff12 b4bf
000005c0: 1abf e831 62ac c6bf d3b6 c535 3177 a13f
000005d0: 81f0 eaf3 2198 b9bf 69e9 7b30 17d9 c13f
000005e0: 22da bb87 30d0 c13f 9a29 5412 b133 ac3f
000005f0: ae84 7d71 4fca c23f d719 22cc 64d7 babf
00000600: e444 407d fc5f c5bf 0222 fdc5 9654 c53f
00000610: fa07 7dc4 d3b7 8a3f e070 9f73 bcc3 c5bf
00000620: ec59 1a3e 63f4 a83f 272d 2874 726f c53f
00000630: 8418 564a 199c b33f 664f 9686 a886 c53f
00000640: b3cc 2084 48e3 c53f 6e4f 54fc 1764 ae3f
00000650: ee10 9647 c38d b23f a5ba 96ac a439 a4bf
00000660: d93b 1124 9c8e bcbf 91b4 4ae9 4fbe c63f
00000670: a2d8 74df 2ff8 ab3f 7704 dc49 aedd c33f
00000680: 1d0a 9e41 09a3 a53f 0f0e 144f 7f85 c5bf
00000690: a567 8426 5deb b3bf 05f1 b241 19a7 bbbf
000006a0: 135d 30c2 c3da b43f ac15 5520 a7cf 96bf
000006b0: f6b6 911c 9611 c53f ba5c 6aad 0441 b1bf
000006c0: 086b 6c23 f2da c13f f207 5f69 8f48 b93f
000006d0: d2a5 ccd4 bb01 b13f a439 13ae 084e b9bf
000006e0: 2c70 1542 4d0f a53f 5b93 b2e5 1b24 9d3f
000006f0: bb63 68df 01fe 973f 941e 3675 7f85 85bf
00000700: c0d4 2cb0 d782 b03f c231 1a43 2475 b63f
00000710: 0510 df72 f686 be3f e2d5 a1ba 78b2 a03f
00000720: 8142 bcc7 c764 a03f 24ba a46d ba0d 93bf
00000730: 10f1 4b31 9f07 adbf 43e0 1ee7 f496 bfbf
00000740: e79e 4db6 e01e c33f 379b d5f3 1235 b43f
00000750: 4d43 7510 562e b8bf f056 fe2d 5aaf c6bf
00000760: c434 d759 13be 84bf e297 c68a 8ff3 ab3f
00000770: 299c c288 cfc3 babf 469c 5373 2c56 acbf
00000780: d13c ef1a 16e7 b43f 8357 0d1d 9d91 b43f
00000790: e1e5 0238 3772 b73f 8003 c1b7 5df5 bebf
000007a0: 4adf 57b0 88cd ba3f 98d2 e58d d3d6 bf3f
000007b0: 2350 b8ab 9531 a43f 987f ab39 1ac8 b43f
000007c0: 56d0 c653 ab17 af3f 8dea 85ea a8cc be3f
000007d0: 7309 11dd 4b75 bdbf f72b f5be 2a4f a33f
000007e0: 2016 d812 1a75 c13f 854d 8e8b 3716 8abf
000007f0: 0f5f 785a 641d b1bf 575f 2405 c26b a1bf

hidden2.bias f8 [32]
0.10069707352002273 -0.04939703569789247 0.12430358085208755 0.024196635033823653 0.0707053107955334 -0.06044858974434028 0.0720953789429969 -0.06664743571229179
0.15440359494684477 -0.057479962190428245 -0.018670617781277495 0.09937875350220896 0.04209574542441452 0.16232347116016763 0.14638415507173855 0.14023907293808485
-0.01082071654705533 -0.12889797949354262 -0.0409871085654822 -0.004306561504513723 0.02130497669722196 -0.02483301806259838 -0.11039960512215354 -0.08688398031261083
0.12166446525356671 -0.10342247044934813 0.07902727717851074 -0.17062374307393907 -0.1668732968070051 0.11191403026348205 -0.0065755476636982 0.05831638131463802
00000000: 9d47 928d 48c7 b93f 74ff ae79 914a a9bf
00000010: 7d10 8906 5cd2 bf3f 06f7 92b0 00c7 983f
00000020: 7534 8545 be19 b23f 5c20 1518 1ef3 aebf
00000030: f9bd c0be d774 b23f 461e bf6c ce0f b1bf
00000040: 593c 573b 7fc3 c33f 5b00 917b 036e adbf
00000050: 921a 11f3 631e 93bf 4a90 35d0 e270 b93f
00000060: 9015 ccd3 928d a53f 83c8 00f8 03c7 c43f
00000070: 55c5 574b b7bc c23f b6f9 f19b 5af3 c13f
00000080: 12d8 82fd 2b29 86bf c3fd 389f ba7f c0bf
00000090: 7654 b125 43fc a4bf 2020 1fcd c1a3 71bf
000000a0: 7b5e a0c8 f8d0 953f b764 c2a1 d36d 99bf
000000b0: c9af 7d05 2643 bcbf 3a2d fd4d 073e b6bf
000000c0: 1b72 5903 6725 bf3f c660 4020 e579 babf
000000d0: de3f f9b2 213b b43f fa3a 36b2 ffd6 c5bf
000000e0: 134f 2eac 1a5c c5bf 43f9 f1db 65a6 bc3f
000000f0: 26b4 b322 f6ee 7abf f186 220d a5db ad3f

predict.weight f8 [9, 32]
0.10992605802874064 -0.05630316186362978 -0.13172034079526265 -0.10220259782254068 0.11273177979441572 -0.15466311478011355 -0.017543898216809656 -0.11665070395265992
-0.014303218115956267 -0.1154104468216454 -0.0367900139081002 -0.03222931795569725 -0.12417629657358904 0.008406676001931922 0.03256336601826201 0.022317489543463527
0.023388432024537085 0.14429766198267815 0.011523910151491332 -0.02607460831243643 0.07275248414278594 -0.06346564912069202 -0.15730604516748106 0.12900252062090029
0.12634679834794965 0.10860649433890315 0.04464046107525274 -0.03245192451622532 0.097217740657043 -0.0858756252687337 0.1134964005695136 -0.12446520555578784
0.10558011442543425 0.09710434171667943 0.17363744381244406 0.10364251987752819 -0.005964648558000657 0.1575748803629567 0.0642276200003337 -0.14696698642752537
-0.03640127002374952 0.14420503332711507 0.12919658547697283 0.07286194552671603 0.1084534252530711 -0.022737969306711774 -0.16937766926153522 0.09803808928091637
-0.06424977856502845 0.04819637374585913 0.102247465142882 -0.01691621446039364 0.11574486048158851 -0.13673661427818798 0.06698784874641964 0.18751386405096143
0.06395430306314823 0.09689680679099168 -0.14564808594957052 -0.07181014825860486 -0.020682096680404962 -0.014581030851019812 -0.08419564514538538 -0.09443397846754409
-0.07494091379050888 -0.07269604239658213 0.027777987951108345 0.17544702881806953 -0.04181475965255358 0.08963900873068752 0.1933332856864828 -0.04672410212694475
0.0651026056823826 0.009165923831284301 -0.1075845748390802 0.13584604536065928 -0.07214055430492444 0.06031050274227143 -0.16357213907985707 0.15720919612736112
0.12803369356696837 -0.06051972320619507 0.09254136165969543 0.04217561797820503 -0.1389552631289233 0.03568605016820037 -0.041621382784816634 -0.16193499438810147
0.08451561211935397 0.06019374183418719 -0.002427555062858005 -0.0776911756496025 0.08115241027487476 0.10330123662475779 -0.1607413633124651 -0.045143007203744215
0.09062454651003014 0.11136629776948914 -0.08400192541709099 0.028015128761516593 -0.05744722359211976 0.08535907687715696 0.12811222412694745 -0.035843460350440365
0.16915150315220084 0.15899406054066173 0.13133891317836102 0.15141050122586483 -0.02038008556360952 -0.06607011340796626 -0.0439852073296154 0.02892877535726866
0.025374415112777802 -0.023273266278698027 -0.05244334259255515 0.060573123846243006 0.09226548520422974 -0.08425092408740185 0.07425853169748765 -0.11582057095775881
-0.16492868071844594 0.10820163791758383 -0.05977657932324423 0.09476398818427104 -0.019478738274028858 -0.036253370758186826 -0.00498751760864633 -0.07657584315446861
0.11770272838577697 -0.07929177591712705 -0.09919859777383648 0.0596011616466211 0.06700889398248581 -0.07573377718219819 0.014340555172751915 -0.07490472098583914
0.156804928626067 -0.07832960507983784 -0.03520560808387876 0.14139043924143313 0.16319467434541027 -0.12360765460012106 -0.15222751891259018 0.032619674009352
-0.05200803829328922 -0.08888710593896278 0.10903200358634832 -0.055210683553744914 0.060378783567282136 -0.1113343256391982 0.10924411556910223 -0.08326475400591522
-0.09168211929903061 -0.051922882883482166 0.1064619853692375 -0.047084717474535014 0.07880075628839918 -0.026527173454293142 -0.07438514909084012 -0.15435842744457134
0.037538807571523405 -0.01653674425901167 0.020734285274852035 0.013333047938183884 -0.03321793182229169 -0.14901068972707993 0.06974918062241282 0.14388159407027257
-0.05957592856166926 -0.1536081959220758 -0.06972535322108396 0.11657369149154348 0.025312787514095964 -0.00926470516089969 0.07413759818147866 -0.02141038626292585
-0.005856667132760164 0.040769482080159146 0.12499938762146016 -0.088590410675344 -0.12677858464899994 -0.1494260999650155 -0.05943843310317062 0.09901896114256784
0.020038001698656716 0.13555614102763508 0.13489060862635363 -0.0653421667086504 0.024657509416047378 0.11681838503784692 -0.17036073942068872 0.16101115472773625
-0.08584166082707156 0.09711205153047872 0.16588068392003222 -0.010917843154575179 0.17179528413331097 -0.12734937147205017 0.1449052704615591 -0.06369871738299904
-0.09332335268392353 -0.1313304800537486 0.14212663405688433 -0.030471108383271214 -0.03176704177900581 0.08477603825377636 -0.1735539486949421 0.01521427869957569
0.07201998860040233 -0.12688716756885782 -0.03637017630985641 0.1287535399908072 0.1824264723301263 0.14398801570250983 -0.02129802105243237 -0.08307593912827463
-0.14254067062386913 0.15007224960641696 0.10500249063105012 -0.09431357859003264 0.060260332390536665 0.08779193919066076 -0.15029032763473577 0.11087197159526627
-0.06590705971635308 -0.06954480740388291 -0.14885882466182193 0.18853387705326352 0.1082173685934941 0.056326133572191746 -0.09691183155926829 0.1584750275308006
-0.08481014346659778 -0.06148741531479309 0.16939974466476657 0.10071456086540091 0.175742472382554 -0.15922978774376872 0.0037408174932043636 0.17405574994581036
-0.1485178253981135 0.14936574738966715 -0.15395801082263505 -0.0996909100613455 -0.10577403062607858 0.17719516197291815 0.11199704358512941 0.14018909969182827
-0.011537601169163716 0.021701287400532374 -0.1659085322876968 0.10810395350624455 0.1395323104663892 0.042482843477423114 0.02768092629964134 0.10066132739126359
00000000: fe2d 3638 1d24 bc3f fa3a bb9d c4d3 acbf
00000010: 1d81 f74d 36dc c0bf 2ecc 360f f329 babf
00000020: f7d7 6f6b fddb bc3f fd64 f03d 00cc c3bf
00000030: 789a 5714 07f7 91bf 9434 880e d2dc bdbf
00000040: c9e1 4870 014b 8dbf 0b39 b7fe 898b bdbf
00000050: 6efe 1b05 24d6 a2bf 6c28 2f75 5c80 a0bf
00000060: 7dd2 b88c 04ca bfbf 8c8e f8f3 8437 813f
00000070: bc35 3140 25ac a03f d23a df5e 65da 963f
00000080: 59b5 991a 23f3 973f 396c 8d85 5878 c23f
00000090: b815 c809 d999 873f 16ea d457 4db3 9abf
000000a0: 0b95 1824 e89f b23f 748d 64e7 483f b0bf
000000b0: 118d babf 9a22 c4bf ea8b 9593 2783 c03f
000000c0: 8aeb 6dc3 212c c03f c29c 519d a2cd bb3f
000000d0: 6c0b cb50 1ddb a63f fa98 fae4 899d a0bf
000000e0: c687 b608 43e3 b83f d781 0dea f1fb b5bf
000000f0: 20e7 a8a0 190e bd3f 651e 5aa3 f3dc bfbf
00000100: 80af 9062 4c07 bb3f ed05 f983 d4db b83f
00000110: c48a 4473 c039 c63f f358 59f1 5088 ba3f
00000120: bae7 d127 636e 78bf d23d eae6 692b c43f
00000130: cbbe 66a7 3871 b03f 8021 2670 d0cf c2bf
00000140: 65da 91f0 2fa3 a2bf 8b7e 077f 4f75 c23f
00000150: 9a71 b082 8389 c03f 7b01 2999 14a7 b23f
00000160: 0fe3 998a 9ac3 bb3f 3bf9 324a 9f48 97bf
00000170: e953 13df 2aae c5bf 264f 3933 0619 b93f
00000180: 3048 b669 ac72 b0bf 8b6b 0cf2 31ad a83f
00000190: 5238 e3ce e32c ba3f 0c9f 84ef 7b52 91bf
000001a0: 41d1 7286 74a1 bd3f 75cb 3edb 9580 c1bf
000001b0: 6a63 989b 1d26 b13f be9e d24c 7400 c83f
000001c0: e23d 1828 4f5f b03f 510f 41a8 3ace b83f
000001d0: 7e6f f0b2 98a4 c2bf 8fa7 4a5e 2662 b2bf
000001e0: 1792 6b03 b02d 95bf 4441 2dd5 a8dc 8dbf
000001f0: 0274 5d86 d88d b5bf 9036 2641 d32c b8bf
00000200: c4d2 dce5 532f b3bf d156 a434 359c b2bf
00000210: 6bdc 3137 d571 9c3f f51b 7a59 0c75 c63f
00000220: 6548 6582 be68 a5bf 8fb4 f102 95f2 b63f
00000230: ad36 a025 25bf c83f 2cf0 23b5 38ec a7bf
00000240: aa4b 4a7a 90aa b03f 2a73 be78 95c5 823f
00000250: ede7 7ca6 a98a bbbf 25b7 0e39 6763 c13f
00000260: 6c78 74a9 cd77 b2bf 9c49 c4a9 04e1 ae3f
00000270: 7a3f f18d eeef c4bf f6ac ff51 6e1f c43f
00000280: d8fe 5377 6863 c03f 36fe ddef 70fc aebf
00000290: 2a0f db69 cab0 b73f 9259 cfe7 0a98 a53f
000002a0: 6276 5f3b 49c9 c1bf 00ab ca24 7145 a23f
000002b0: 1f0b c0db 654f a5bf 89c7 7c30 49ba c4bf
000002c0: ffd5 0dae d0a2 b53f 2812 34d1 b6d1 ae3f
000002d0: 58b9 55b3 f3e2 63bf 5953 9aa2 91e3 b3bf
000002e0: f945 1f84 67c6 b43f aa8f f028 f371 ba3f
000002f0: 9b4f 4549 2c93 c4bf c295 2af7 fb1c a7bf
00000300: 7fb4 7997 2b33 b73f f0ea cb6e 8082 bc3f
00000310: f3a9 7772 2681 b5bf a6b7 4b77 ffaf 9c3f
00000320: 84f7 25f5 b869 adbf daa8 9aab 17da b53f
00000330: 70e9 6b3a fb65 c03f 0c13 f6f3 125a a2bf
00000340: 18d1 0da7 c1a6 c53f b2e3 23d9 ea59 c43f
00000350: 0589 65a8 b6cf c03f 879d 8457 6b61 c33f
00000360: aa08 f163 84de 94bf b489 5490 f8e9 b0bf
00000370: be19 faa5 3a85 a6bf fb8b 4a40 819f 9d3f
00000380: 990e 422c c0fb 993f b105 2776 f2d4 97bf
00000390: d4e8 a792 dad9 aabf dd51 dfc3 7003 af3f
000003a0: f171 80f9 b59e b73f aff8 9cf3 7791 b5bf
000003b0: d9f5 166d 9b02 b33f 0bb6 77bc 6aa6 bdbf
000003c0: e5d7 ed0c 621c c5bf beca 3a40 1ab3 bb3f
000003d0: b429 852a 099b aebf 9208 17e6 7342 b83f
000003e0: f2cc 6aff 3bf2 93bf d466 8d43 cd8f a2bf
000003f0: 661b 4790 ca6d 74bf e616 0376 799a b3bf
00000400: 3e1f 1119 c421 be3f e4e3 6740 774c b4bf
00000410: 5b68 3f4d 1465 b9bf 6fd5 2620 0b84 ae3f
00000420: 0327 32b0 7e27 b13f 3f39 33f0 4963 b3bf
00000430: c8a1 c9bb 945e 8d3f 423f f3ae f42c b3bf
00000440: 2579 2614 2f12 c43f 3d62 20b4 680d b4bf
00000450: 834c b62e 7806 a2bf e827 41f8 1419 c23f
00000460: b9f2 9826 90e3 c43f e3f3 0a52 c0a4 bfbf
00000470: 22f1 a3fb 307c c3bf 1717 27a2 86b3 a03f
00000480: fa94 322f cca0 aabf 293f 0b2d 4ec1 b6bf
00000490: 8ee7 9e79 85e9 bb3f 7f9b 8120 9344 acbf
000004a0: f564 96c9 f7e9 ae3f e8e5 8a07 6880 bcbf
000004b0: 4355 a61f 6cf7 bb3f 7d69 5dc3 d650 b5bf
000004c0: 3a6e 04b8 7a78 b7bf 8614 ccd7 a295 aabf
000004d0: 5398 6db9 1741 bb3f 1f99 63f3 7c1b a8bf
000004e0: 3da3 284f 492c b43f c71a c479 f029 9bbf
000004f0: e63a a7b6 e70a b3bf 1a43 de56 04c2 c3bf
00000500: b278 b35d 4938 a33f 895d 191f 02ef 90bf
00000510: 4c4c a554 5e3b 953f f3d2 cd66 5b4e 8b3f
00000520: 6d8f a2d5 f001 a1bf 4eec 9043 c812 c3bf
00000530: fd30 b211 15db b13f 049b 834a b66a c23f
00000540: 1f37 9a71 bc80 aebf 1602 f1f0 6ea9 c3bf
00000550: df5e c94f 85d9 b1bf 66b9 8700 c6d7 bd3f
00000560: c8af 2c6a 98eb 993f ad9a 62ad 5ff9 82bf
00000570: aeeb 977f aefa b23f d00c 2db3 9aec 95bf
00000580: b5bb c71c 29fd 77bf 9b14 6bd0 bcdf a43f
00000590: c3ac dab9 f5ff bf3f e7fd 9674 dcad b6bf
000005a0: 9847 73d9 473a c0bf 7260 42fa 6420 c3bf
000005b0: ab71 9bdc b66e aebf a28d ca7f 4e59 b93f
000005c0: f045 e487 d784 943f fe29 3e54 e759 c13f
000005d0: 8d3a 4b70 1844 c13f 2c3d 10a5 43ba b0bf
000005e0: dec2 2b72 d13f 993f 6820 4f47 cfe7 bd3f
000005f0: 3fc8 2a76 61ce c5bf b264 ec75 039c c43f
00000600: 00f8 e215 b8f9 b5bf 86f1 5edd 55dc b83f
00000610: 61c1 3c08 943b c53f 2685 551a 185c 86bf
00000620: 1ed4 7a4b 63fd c53f 00be d1f4 fb4c c0bf
00000630: 5441 d382 418c c23f 5006 f523 8f4e b0bf
00000640: b603 bb0b 0ae4 b7bf 1440 66ea 6fcf c0bf
00000650: b91a 959e 3431 c23f 8f84 ea77 d133 9fbf
00000660: 3120 100b c543 a0bf 62cf c8e7 e1b3 b53f
00000670: 9b43 de0a 0437 c6bf fa43 93eb a928 8f3f
00000680: f56f b2e7 e66f b23f aec2 7eb5 d63d c0bf
00000690: 92e6 999b 1c9f a2bf 7c9b c0f9 fe7a c03f
000006a0: b790 4a2a c059 c73f c3a6 3a05 336e c23f
000006b0: da11 8fff 25cf 95bf faf2 a3f9 7644 b5bf
000006c0: 6df7 56cf c53e c2bf fc60 0c46 9135 c33f
000006d0: b547 4277 71e1 ba3f 10e8 9c47 ef24 b8bf
000006e0: 6515 ba39 71da ae3f 9122 ad53 8879 b63f
000006f0: 0e54 0ca5 b63c c3bf 1672 0b04 1b62 bc3f
00000700: 4ca8 0efa 48df b0bf 0003 6841 b0cd b1bf
00000710: fa5e d253 ce0d c3bf 84e0 10ca e021 c83f
00000720: 3ade f72a 22b4 bb3f f193 346b c7d6 ac3f
00000730: 0f7c 24bb 36cf b8bf 551e 3de2 e848 c43f
00000740: 01e0 8e18 1eb6 b5bf a303 c94b 477b afbf
00000750: 1f99 a40d e4ae c53f abdc 25f1 6dc8 b93f
00000760: 3f5c b3b5 ba7e c63f 004a 7445 a461 c4bf
00000770: 6950 6519 10a5 6e3f 5e58 d974 7547 c63f
00000780: a39d 7ad1 a102 c3bf 2532 17b4 6a1e c33f
00000790: 1060 b866 e5b4 c3bf 5405 6cee 5785 b9bf
000007a0: af1b 4ec2 0114 bbbf 0770 d7c0 54ae c63f
000007b0: a062 7297 d6ab bc3f 994e 3767 b7f1 c13f
000007c0: 8e19 919d 06a1 87bf 6960 aabe dc38 963f
000007d0: 4ac9 26a4 7d3c c5bf 06ac e060 b3ac bb3f
000007e0: 761f 18db 31dc c13f 3bd4 c0ae 4fc0 a53f
000007f0: ba43 b884 6358 9c3f a30f 1ed5 f0c4 b93f

predict.bias f8 [9]
0.10300872058922739 -0.005333945403212783 0.13406670534927492 0.031684803584945805 -0.05555406570837702 0.12167433634051784 -0.08635262638194906 0.1330478855445878
-0.0042593337872262145
00000000: 402f 228e c75e ba3f a913 0c11 0cd9 75bf
00000010: c592 7a09 1929 c13f a9e4 5a96 fd38 a03f
00000020: 5a2f c11e 9571 acbf c953 589f 0c26 bf3f
00000030: 17f3 3baa 341b b6bf 70a4 9b8e b607 c13f
00000040: 8b26 1a35 3c72 71bf
