Task2Mroph/03_rotate_plank/model/rotate_model_parameter_reference_2.pkl (torch, 13925 bytes, 6 tensors)

hidden1.weight f8 [32, 2]
0.715274428464999 -0.6208531193725374 -0.023949263933643463 -0.031005474526344414 0.33438138256288885 -0.10360944533493939 0.22311168320368863 -0.13172965226383776
0.12324408527465737 0.0271479394137693 0.04659042033010503 -0.47405297929704876 -0.5534005570590772 -0.37256060687777043 0.46092573703441264 -0.5865309250084089
0.5053459345053389 0.0186704338364497 0.015852488922449986 -0.6583988205041227 0.2738072231329301 -0.20365888368146196 -0.10892998177185513 -0.4789855702855443
0.37099759393400206 0.5891466015156115 0.33651422330589953 0.13227671012628603 -0.6638122201137834 0.1745871567018795 0.2859128861797507 -0.661122542465958
0.17575869126981708 0.6803206584743102 0.2558485454427037 -0.4131188984298447 -0.2515659058561545 0.5894421761707136 0.6831332222267553 -0.6569401638269723
-0.016852804620167253 0.06096873288807631 -0.625766261688413 0.3905835741348649 0.0176078075468998 -0.15551969556756315 -0.672235284907877 0.10430676609166911
-0.38978692155933353 0.34363023459871406 0.2190601169025458 -0.30601331688227623 0.5471490271509635 0.40900312736369804 -0.2882508890494184 -0.31243049820864316
0.08369069960293217 -0.43951903508819323 -0.3569189846936627 -0.3368340068605049 0.1132962477023784 -0.22559414933484542 -0.08265286009411177 0.20014105261364049
00000000: 2c83 bd32 87e3 e63f 6363 6a5c 07de e3bf
00000010: 97de 6ee5 2786 98bf 87b6 592c e6bf 9fbf
00000020: 86ed 9f2b 8166 d53f 0d30 450b 2686 babf
00000030: c290 5b73 ec8e cc3f 467d 316a 84dc c0bf
00000040: 491a aea3 ec8c bf3f 0e64 be5f abcc 9b3f
00000050: f9d7 3f17 b3da a73f 79bd a94e e256 debf
00000060: 7a05 c515 75b5 e1bf 1359 9471 08d8 d7bf
00000070: d0a3 9ca9 ce7f dd3f ad1e a080 dcc4 e2bf
00000080: 5fbe bb3c cb2b e03f 1832 eb9a 571e 933f
00000090: 2bb2 ed85 a23b 903f 2a49 3967 9a11 e5bf
000000a0: b9ed 30bb 0e86 d13f dad2 798a 7e11 cabf
000000b0: 1b95 43d5 d5e2 bbbf f777 e817 b3a7 debf
000000c0: a9d6 35b1 6cbe d73f 1ce4 41f9 49da e23f
000000d0: 2436 eff3 7289 d53f 47e7 0178 71ee c03f
000000e0: 015d 0220 f33d e5bf 9708 2b38 df58 c63f
000000f0: 7168 e98f 654c d23f e744 5176 ea27 e5bf
00000100: 92ed 7ec3 427f c63f 5417 5ed4 2fc5 e53f
00000110: 0ff5 d993 d25f d03f 1a68 873f 8a70 dabf
00000120: 0b36 9ce2 a719 d0bf 4029 b1d6 b5dc e23f
00000130: ebcc 0834 3adc e53f 721a e260 a705 e5bf
00000140: 410b c292 dc41 91bf f96a aa33 4b37 af3f
00000150: 8a8a 9cf7 4606 e4bf f8e5 503f 52ff d83f
00000160: 56d5 45f6 c707 923f 135c 2cc3 11e8 c3bf
00000170: bcb0 7c92 f382 e5bf 6880 1d25 d9b3 ba3f
00000180: ed5f 20d8 44f2 d8bf 932b e1aa 09fe d53f
00000190: d428 fa72 290a cc3f 5397 09e1 b895 d3bf
000001a0: f1d9 34ad 3e82 e13f 9848 ff73 1b2d da3f
000001b0: bca6 60db b372 d2bf 1f10 057d dcfe d3bf
000001c0: d721 c6f1 c06c b53f cc16 6b72 1421 dcbf
000001d0: ec2b a5b9 c2d7 d6bf 6460 e938 b08e d5bf
000001e0: ac27 a49e fb00 bd3f eff2 c7e2 44e0 ccbf
000001f0: 386b 06e3 bc28 b5bf 5103 c8d5 389e c93f

hidden1.bias f8 [32]
-0.1678813689251635 0.49062016173907164 -0.14404121050253996 0.6559636418489811 0.014467851385440707 0.32357810234057727 -0.12927064739016644 0.18363404893902438
-0.011268334641755764 -0.1282083671464392 0.2724124938715881 -0.10260999731965155 0.13104425190229002 0.08325725471830032 0.17561174845739147 -0.10015697973640876
0.19547642534787238 -0.27213298439612 -0.568330183286236 -0.17819678222691404 0.25828225025063584 -0.030459847456191496 -0.6300882492283564 -0.1564335560908305
0.10781511972725664 -0.17067271470598466 -0.4802839105435817 0.5272308943538917 0.2475112293704481 -0.68355220900227 -0.4873750002120385 -0.23786292934182376
00000000: b915 92fe 227d c5bf de5c 5b1b 5266 df3f
00000010: 913c 3140 f16f c2bf e267 a376 a7fd e43f
00000020: 3ed1 5924 52a1 8d3f 104a d0ed 80b5 d43f
00000030: 43cf 6fc9 f08b c0bf ad05 500d 5281 c73f
00000040: a840 2246 da13 87bf 9bd7 fbbb 2169 c0bf
00000050: 3fd1 0cd0 346f d13f 6505 bb16 a644 babf
00000060: 36e3 1fdc 0ec6 c03f bd7a 2bf2 5850 b53f
00000070: ec7c 351e 727a c63f 4d1b 6f48 e3a3 b9bf
00000080: 5509 011b 5f05 c93f cc3a 0977 a06a d1bf
00000090: 0469 d1c7 c22f e2bf 3c61 f5f3 26cf c6bf
000000a0: 63ae 7d46 b287 d03f 8b76 a9c2 dd30 9fbf
000000b0: 34f3 00d5 ae29 e4bf cf1b b4c7 0306 c4bf
000000c0: 272e 3e8d c599 bb3f bca9 fd7f 9ad8 c5bf
000000d0: 5d19 25ba f8bc debf 001b 1653 13df e03f
000000e0: 5bf8 c4ad 72ae cf3f edbe d8e1 a8df e5bf
000000f0: e01d b3e9 2631 dfbf 2119 3adf 4a72 cebf

hidden2.weight f8 [32, 32]
0.11743599292982312 0.07985797828716809 -0.1478919094402896 -0.014509369089204954 -0.057897383726607785 0.09514469990254956 -0.16996394251509991 0.002713838485555203
0.02522399520512514 -0.1138758990891628 0.04593985894759632 0.1702292138322589 -0.10272104492691478 -0.14118241927911085 0.1048817610838778 -0.07914822901189775
-0.12100114284667492 -0.05683078990915967 0.07857640034468562 -0.16993944337323647 -0.13344954842159532 -0.17118607659024793 -0.16423718065715442 0.10453875313467959
-0.05342699272584986 -0.11961768657324923 0.1284177936001368 -0.10391071324665893 0.0067667610914638205 0.026290759946749915 0.09092938114258407 0.11630426591970162
-0.1496043103564459 0.09777586336472435 -0.11522319878848869 0.14965266692514387 -0.16974393599579146 -0.03527608197964689 0.0304295862612568 0.15928364629371644
-0.04714053414643431 0.009691209709001428 -0.046158523430789994 0.01849841675616682 0.10386126195915359 0.12431985362753398 0.14486835478214713 0.14399892236502895
-0.08900678210497007 -0.14601931298049955 0.1363915318701537 0.08042783154178935 0.058718813697162024 -0.15290428959001037 -0.0023929058874131233 0.08497559144803606
0.07349547678771051 -0.038206241857187906 -0.06907633562612685 -0.12157819599490724 0.11739487141397995 -0.06516919204221809 0.024047794839902055 0.05731301997298912
-0.12144014745581752 -0.12039594265679855 -0.07648882249222631 -0.10360112400886318 -0.027305595378240437 -0.0753470816005505 -0.11373378678721117 0.14486785608841293
-0.09230876820277172 -0.027207411737212184 0.1518646409807253 0.17029588631849768 0.1452348116192017 -0.061342861671992224 0.07908486500439654 -0.08428322510241422
0.022233174311658117 0.12870663881770167 0.11513754259593625 -0.01296993388796668 -0.036422119236135926 -0.05772683743595012 -0.0662414035479075 -0.13679646231028025
0.13964674919891892 -0.06931587209538805 -0.055657706882933075 -0.06132382027681986 0.07091841202703567 0.17583063571640342 -0.09026474954268311 -0.03722065611429479
0.0926450977624675 -0.16559789623962706 -0.018712589086978437 0.1281375764931424 0.07110329838153165 0.15994363994271066 0.024498397049275446 -0.013497940026352007
0.11031542362597682 -0.0577810065867709 -0.008625619623019089 -0.03559242139244248 -0.11026143511985242 -0.07556604262718146 0.04497593007763716 -0.13073299505103742
-0.12436065072590237 -0.1320327245503502 -0.024433623362503987 0.019845871407736918 -0.08292526157118124 -0.052565091597852276 0.09934831156540315 -0.08018071753188155
0.16389209045287095 0.1664524312860017 -0.15463541537698625 -0.14762742479299817 -0.12660740763022418 -0.030070116136011033 0.019555394515660116 -0.035779411664432166
0.052661812728022686 0.15340305583765826 -0.1368352019848893 -0.0132437172760898 0.09311052486379674 0.10009898635358098 0.12856928673537765 -0.14239999289322744
0.008025069469260298 0.08943363296550542 -0.035847327415630834 0.12448856637009084 0.14199756276150668 -0.12860258948057532 0.12533391848452727 0.00604725425513089
0.03580152178555304 -0.05467869003119222 0.13903731333135097 -0.15240591250170468 -0.08324128330636232 0.10327281866333494 -0.03299101220348971 0.028707319265866633
0.03964954937855931 0.14390998040380884 0.12595070241224374 0.13547101911981632 0.02000563867572049 -0.11416713890061575 0.12420888167217188 0.021079332206369598
-0.17149575034470604 0.08628458038981886 0.09218209347892348 0.030459241949191643 0.05933688059709476 0.011320009090832939 -0.16119128726151602 0.15874997442877437
0.08059773884348986 -0.016835580910333357 0.14711631379611975 -0.1298726505594156 -0.16844243857303554 -0.1399127599453839 -0.12368346579364174 0.07661900590710155
-0.11873295949544463 -0.1626861053950377 0.04295297549285021 0.14816574491706339 -0.17290632645305457 0.040892578068380446 0.175979604843283 -0.03177922904910724
-0.15175585900591038 -0.10923673624175952 -0.005249017909026568 0.039464909862016985 -0.047737010131620544 -0.15423280569325787 -0.060901342833266606 0.08639403837532068
-0.12457429292622867 0.13700568987018036 0.11295054904309844 0.18020179927096652 0.17703799934947465 -0.06836638981686041 -0.09141777278560395 0.034525857727008065
0.06500747678698826 0.09077505328475186 0.028074595394974457 -0.04038753080220724 -0.06104918738364656 -0.05388292693543229 0.08330770599820096 -0.11929657356576144
0.12686619299596733 -0.06115903065280367 0.018000246561708563 0.043265654745093286 0.013630806180442023 0.11982478923012818 0.08531673969093415 -0.07416684216646295
-0.030496414042514658 0.03025973357447013 -0.039275640410001124 0.030456370402128834 0.051146875862332644 -0.16869277238709995 -0.023776767327400052 0.17562169953645543
0.190792252678791 0.008121639440049372 -0.053206883947595804 0.05960993363680005 -0.14165275113691006 0.1166675891764525 0.10388565278055036 0.06500686748026921
0.14349222853143742 -0.0726312615934321 0.009566678200874616 0.07371195080342527 0.20515245586140698 0.043089845095678064 -0.1292816250980501 0.16447147013228156
0.11017447956816245 -0.08485146944302695 -0.13429730371729315 -0.11385657271132785 0.08979933153906701 -0.00828543764865135 -0.1658707864745321 0.0037222815281649562
-0.030278692517121054 -0.13679445575744123 -0.05464013642793611 0.1325323328674148 -0.0786510138882051 0.09830462784217729 -0.03168181016904473 0.007429976858234715
00000000: bac2 0105 4910 be3f b66c 118d 9271 b43f
00000010: fbcb 3141 1fee c2bf 3632 ca8d 16b7 8dbf
00000020: ae6d 42d3 b9a4 adbf 7e1c 782e 675b b83f
00000030: 8300 4de3 60c1 c5bf 3fc4 58f1 543b 663f
00000040: 3101 eca9 51d4 993f 1dfb 638e f826 bdbf
00000050: fe8a 86df 6d85 a73f 2dde 1d25 12ca c53f
00000060: 9671 9228 ed4b babf e676 c9f8 4312 c2bf
00000070: 1759 cdf5 87d9 ba3f 9675 24ef 0e43 b4bf
00000080: 951a 4e4f eef9 bebf cea1 21e0 ec18 adbf
00000090: 91c3 b73d 951d b43f ca53 cb5f 93c0 c5bf
000000a0: 0d80 11f3 df14 c1bf 4e2a 3ee4 6ce9 c5bf
000000b0: 2cd8 da53 b905 c5bf f4c8 e03d 0dc3 ba3f
000000c0: f459 f664 c85a abbf e0f3 dac3 439f bebf
000000d0: 2b58 de87 fe6f c03f fa32 197b e499 babf
000000e0: a225 6799 76b7 7b3f 8513 a208 f7eb 9a3f
000000f0: 37bf 40de 2547 b73f f5a9 82ca 1dc6 bd3f
00000100: 2e29 29ea 3b26 c3bf 125a 7dc7 d607 b93f
00000110: 247d 897e 447f bdbf 37f1 198f d127 c33f
00000120: 3eeb e556 2bba c5bf 9a00 dee4 b40f a2bf
00000130: 9fa8 4af7 ee28 9f3f 1a40 cf11 6863 c43f
00000140: f626 f3d8 cd22 a8bf 151a 1226 fcd8 833f
00000150: c43f 2209 17a2 a7bf 4268 fbbb 3ff1 923f
00000160: 1994 6fd3 a696 ba3f 4ae2 9209 6dd3 bf3f
00000170: f5df 01d7 0b8b c23f 0bc8 1b83 8e6e c23f
00000180: e256 4302 26c9 b6bf 0df6 eac6 c2b0 c2bf
00000190: 1bb5 6a18 4775 c13f b901 291a eb96 b43f
000001a0: 0f7c fa70 6410 ae3f c985 9a25 5e92 c3bf
000001b0: d14c ec90 499a 63bf 2b42 3ada f5c0 b53f
000001c0: 6007 357d 99d0 b23f 5033 8fbe c48f a3bf
000001d0: 8315 719a fcae b1bf 166e b4a7 bf1f bfbf
000001e0: 76f0 701d 970d be3f 9b2f 879c edae b0bf
000001f0: 4260 8331 fc9f 983f f384 d6d4 2158 ad3f
00000200: de80 be95 b316 bfbf d933 48bc 44d2 bebf
00000210: e718 1d7f c594 b3bf 8c68 726f 9a85 babf
00000220: 4be3 967c fff5 9bbf d9ca 5243 f249 b3bf
00000230: fb88 b34e a81d bdbf 5918 12a8 078b c23f
00000240: 83a0 9024 8ca1 b7bf 1d04 7b7e 42dc 9bbf
00000250: e52a 37f1 4c70 c33f d4cd 306f 41cc c53f
00000260: a895 12e7 0d97 c23f 02d2 72e1 5468 afbf
00000270: e46d cddc e73e b43f 0591 6adf 9593 b5bf
00000280: b227 3812 4bc4 963f b203 408a 7579 c03f
00000290: 52c9 fd6b a779 bd3f 5b71 0a0f fb8f 8abf
000002a0: 31c0 f085 eba5 a2bf c51f c73d 5f8e adbf
000002b0: 6e20 e155 32f5 b0bf 2263 eae5 8b82 c1bf
000002c0: 43aa 66d6 f1df c13f 2950 be5b afbe b1bf
000002d0: 3644 aabd 2a7f acbf a604 1cf5 d565 afbf
000002e0: 9222 5784 b527 b23f 3fb7 0447 9e81 c63f
000002f0: ed77 4433 971b b7bf ec3c 7ef9 950e a3bf
00000300: fd46 06d1 96b7 b73f 545b 51d6 4f32 c5bf
00000310: 53b5 9b98 6429 93bf 949f 36e6 cf66 c03f
00000320: 72b8 2f65 d333 b23f 04ea 607f 0879 c43f
00000330: d734 8698 1b16 993f 1afa cfd7 cea4 8bbf
00000340: facb b7b0 a13d bc3f 3383 3ddb 7895 adbf
00000350: 3442 8211 4faa 81bf 3463 bb7b 2b39 a2bf
00000360: f88b d9e9 173a bcbf 579a c5d1 4b58 b3bf
00000370: 06ce 94c9 1507 a73f 884c 20d9 dbbb c0bf
00000380: 65eb c67f 19d6 bfbf 2407 f9c4 72e6 c0bf
00000390: 0017 0fb5 2005 99bf b19d a0e2 7952 943f
000003a0: 4ce1 7506 973a b5bf f0e5 a5ca cfe9 aabf
000003b0: d912 1615 e46e b93f 0cba 9137 b986 b4bf
000003c0: 4ab9 4880 6afa c43f b345 5b32 504e c53f
000003d0: e97b ece1 17cb c3bf a443 bd98 74e5 c2bf
000003e0: f100 9ae9 ab34 c0bf b579 9055 b3ca 9ebf
000003f0: 7cdc 9e4f 5406 943f 090e f0d5 ad51 a2bf
00000400: 3a72 d436 7df6 aa3f 29f0 f619 b6a2 c33f
00000410: 50bb bbde d083 c1bf 1d4f a0a4 851f 8bbf
00000420: 2512 3463 17d6 b73f 7b5a c050 16a0 b93f
00000430: 0a35 e658 f574 c03f 63a9 36b8 293a c2bf
00000440: 834b 5997 726f 803f ffd2 bf60 1fe5 b63f
00000450: e65b ccb5 945a a2bf 4614 4991 7bde bf3f
00000460: 8110 16e4 f92c c23f 7fff ffb5 0c76 c0bf
00000470: c93b 7c1c f10a c03f 1f26 1a74 01c5 783f
00000480: 2c95 6eba 9354 a23f 04b6 f162 d8fe abbf
00000490: 1947 d784 f9cb c13f cdb7 f474 0982 c3bf
000004a0: 7457 7afd 4c4f b5bf 018a b962 1670 ba3f
000004b0: 78ac f3ac 32e4 a0bf b564 9c95 7365 9d3f
000004c0: f99b c31b f24c a43f 8780 b369 a46b c23f
000004d0: 8968 e211 271f c03f 9173 5646 1d57 c13f
000004e0: e528 64af 5b7c 943f 0c25 dbbf 0e3a bdbf
000004f0: 359b a73c 27cc bf3f 41a0 ca09 d295 953f
00000500: 4e16 919f 92f3 c5bf fd60 ec0a bf16 b63f
00000510: 80cf c4e4 3e99 b73f d183 2120 b530 9f3f
00000520: 72ec 3853 6761 ae3f ed34 afe6 f12e 873f
00000530: f11b 9885 eaa1 c4bf 40ca 344e eb51 c43f
00000540: d8de 76ac 0da2 b43f c919 adb5 583d 91bf
00000550: 2f30 3b16 b5d4 c23f 5615 66c1 aa9f c0bf
00000560: a4ff 7696 858f c5bf 4517 214c a9e8 c1bf
00000570: 87be a338 b8a9 bfbf 067f 9f9c 4d9d b33f
00000580: 8a7f fd81 4865 bebf c8b7 17f7 e5d2 c4bf
00000590: c8ee 03b2 eefd a53f b533 675a 18f7 c23f
000005a0: 4f95 b164 cb21 c6bf 23d8 e73a dfef a43f
000005b0: c44e c8eb 7f86 c63f 2080 eafa 5d45 a0bf
000005c0: 1c11 b469 bc6c c3bf 551d ae51 f0f6 bbbf
000005d0: 1d11 1684 fe7f 75bf bdd6 64a2 be34 a43f
000005e0: 7cf4 a542 fc70 a8bf 7220 368c e6bd c3bf
000005f0: cab2 80f7 752e afbf e930 6471 eb1d b63f
00000600: a75c 0ad2 19e4 bfbf 30de ad06 6789 c13f
00000610: f191 34c2 53ea bc3f ce4a 4641 da10 c73f
00000620: 4179 ad60 2ea9 c63f 6ab4 68b0 7580 b1bf
00000630: ea27 63b8 2767 b7bf 0992 9b8b 5fad a13f
00000640: 08ac cb7a 54a4 b03f 1692 26ad 083d b73f
00000650: 1a86 4734 96bf 9c3f 5f60 eca7 acad a4bf
00000660: c730 85ce d641 afbf 9139 0002 8b96 abbf
00000670: cb5d c460 a753 b53f c363 fd61 388a bebf
00000680: bf5e f1c2 263d c03f 6b88 0489 3c50 afbf
00000690: efbb 3519 a86e 923f d524 5778 ea26 a63f
000006a0: 13db 1ad6 77ea 8b3f 9855 fe5e d6ac be3f
000006b0: ca1e c65e 51d7 b53f 0f74 8d21 99fc b2bf
000006c0: 58dd d4b3 733a 9fbf 8b22 5a58 68fc 9e3f
000006d0: 554a 2ece ef1b a4bf 4ef9 536b f42f 9f3f
000006e0: ca19 3e5e ec2f aa3f 7ab1 3c8a b997 c5bf
000006f0: 779a 4dd8 ef58 98bf cf0e fd97 c57a c63f
00000700: 25f4 ca6a e16b c83f f081 47fe 13a2 803f
00000710: 3638 f4c4 ee3d abbf 163c f976 3185 ae3f
00000720: 0ebf c266 ad21 c2bf 591a 0458 eddd bd3f
00000730: b550 3709 4098 ba3f 7ad9 d741 4aa4 b03f
00000740: 3de7 620e f45d c23f dd04 365d f697 b2bf
00000750: 2f6c 08d0 b197 833f 266b 0652 c9de b23f
00000760: b535 4f88 6f42 ca3f 8487 f346 df0f a63f
00000770: b58a e2df 4c8c c0bf a7ed abb0 660d c53f
00000780: 2c5d 990a 6534 bc3f f37c 466e d3b8 b5bf
00000790: 7e10 b46f a730 c1bf 1ed4 3a50 b425 bdbf
000007a0: 5db7 29c8 16fd b63f d93d df9d f4f7 80bf
000007b0: 8f8c a201 413b c5bf 8e57 c2ad 307e 6e3f
000007c0: 0db7 81a8 6001 9fbf 514c e010 7b82 c1bf
000007d0: c490 03be caf9 abbf 3f00 aac9 d1f6 c03f
000007e0: 0374 720c 7922 b4bf 8faa a0f9 7d2a b93f
000007f0: 94b6 1b25 9938 a0bf 45c5 db39 e56e 7e3f

hidden2.bias f8 [32]
0.12029875540341517 -0.024472002835078454 0.10305737049086816 -0.10989042396748729 0.11410181104321693 0.10361670870653028 0.085197306755177 -0.07965610867703257
-0.12739560590514032 -0.04213446704100675 0.05803339224517131 -0.017407936840095447 -0.03787929638584531 0.1462276030305262 0.11889656432781834 0.10939347180859031
-0.12495903365489594 -0.05744106370213856 -0.13616544200621267 0.12742706637517953 0.12322486749820909 -0.05525088008277751 -0.04517776790760602 0.10021298053009828
-0.1671179064893751 -0.04304397340122454 0.008560454329746127 -0.06502360065063376 -0.17706902870395022 -0.059531164639048305 -0.12988580843666472 0.15429740445887277
00000000: 3009 3534 e6cb be3f 438b 604f 300f 99bf
00000010: 90ba dec3 f761 ba3f 997c 1561 c721 bcbf
00000020: 2851 d8ba c635 bd3f 70b5 36e7 9f86 ba3f
00000030: 1084 389e 7dcf b53f 3ac9 b1bd 5764 b4bf
00000040: a422 82cc 7f4e c0bf 8e76 f31b a692 a5bf
00000050: ebb3 8983 8db6 ad3f bf19 addd 62d3 91bf
00000060: b06b 5846 ea64 a3bf 35f0 640a 96b7 c23f
00000070: ae0d 6557 0170 be3f c354 d0e7 3501 bc3f
00000080: ea35 e3b2 50fd bfbf 85a5 1844 ea68 adbf
00000090: 728b 2184 de6d c1bf 7072 5ab5 874f c03f
000000a0: 1370 f537 aa8b bf3f 18be 0fe6 d749 acbf
000000b0: a7c1 5657 8a21 a7bf d6ee 02d2 8ea7 b93f
000000c0: 3953 799b 1e64 c5bf 8ca7 1814 dc09 a6bf
000000d0: 67cf 14bb 2488 813f 223c 43fe 62a5 b0bf
000000e0: 6f7f b5ab 32aa c6bf b35c 6f6a de7a aebf
000000f0: 7799 b921 19a0 c0bf f117 0171 04c0 c33f

predict.weight f8 [9, 32]
-0.016830524678761314 -0.1084760661970769 0.0003027372904097822 -0.11542405305022467 0.15417146755759875 -0.04562401824540849 -0.034291988267949734 0.19163840361514334
0.13479383547155002 -0.019408220731399892 0.1753448985378805 -0.07248945805298895 0.1765890908751599 -0.024170434827129782 -0.12197310426433458 0.01856591750661788
-0.05388632320937422 -0.07778081333936457 -0.1683087052596914 0.1000117847555636 -0.0967744305252664 -0.13802674060706707 0.01585179338840713 0.09274483723812484
0.13402663888655747 -0.07143597950618874 -0.0024302074151542744 -0.050625764362455326 -0.08658257447107078 -0.0529256904647463 -0.08582158859061302 -0.10683873360018922
-0.05356060992324015 0.016260465794756745 -0.10834811643026462 -0.06949122911902787 0.0852619686815754 0.06344396040926202 0.1659227697122309 -0.04121258553420672
0.10603797108994542 -0.1371253377561542 0.09192152848366633 0.07713244523911462 0.021005315305116973 0.08048443624950441 0.1586210975527833 0.09365411178931238
0.1062022462817657 0.03803520834395841 0.025179475203872228 -0.05111040385814089 -0.004974505840057881 0.06895993142954927 0.12742800511419816 0.0517822090684246
0.026642402323041634 -0.14809928173795003 0.09989778302430453 0.07216844822033851 -0.14468027713431134 0.01891314298188483 0.09752071473410069 -0.04989773697686616
-0.06743331908795856 0.08971626535292218 0.004416228436434682 -0.0486746046128042 0.11501163270123159 0.04333009312159654 0.15366492877936866 0.09978732482907343
-0.08075473285954536 0.03600191399459525 0.06056541229613919 0.17509316997217997 -0.0509141033304204 -0.04139716496459889 0.12735081294167924 0.02619571269537296
-0.08555100146355717 0.16697744471600118 0.023203977943188757 -0.14444264198604925 0.16132052425342772 0.06266537827736648 0.0975268034960598 0.17276406920777684
0.14270212725390408 0.08402471828392868 0.14858863829766183 0.1498015095564693 0.1290681978601038 -0.058874954305473154 -0.12247918763277425 -0.1279438551501123
-0.05753531025990803 -0.09586040992149168 -0.130902066064039 -0.13002184894948743 -0.072151267179984 0.04247010074987137 0.10264282263378559 -0.05965505014458756
0.05540549854278339 -0.13440370705106333 0.11091292600757496 -0.13007045950922516 -0.144634121711783 0.12381456204296724 -0.09970107306352281 -0.00487378403942802
0.08943736808964485 0.09656568750129353 -0.09558365505785028 0.15470424712327496 0.07869778800776013 0.04020696645735699 -0.047205114276351226 -0.06454381023284171
-0.06831769470716306 0.1692911265313086 -0.07379957839128981 -0.1599255641362238 0.1508292544740063 -0.012914232391382128 -0.1546189961872614 0.07547220442974362
0.07080816101548806 0.16934636648284135 -0.08911225905025576 0.04252165245744666 0.09504880225743319 -0.02693218925987605 -0.13537281539733276 0.1099014467665669
0.06544961687795418 -0.14246697199610034 0.1365587762829672 0.0832518005257002 -0.06384289884927995 0.009021503333586495 0.017704979825074383 -0.07175589983851367
-0.029264573354981414 0.1348021533203839 -0.15307816076178463 0.11449062138399399 -0.07499672255632046 -0.053134010356031845 -0.04888473610557405 0.16230369169080416
0.08975891034068963 0.12312603381626892 0.1821647724633018 -0.16950759358380385 -0.0652277778834834 0.042799489205010297 0.015872899177927238 0.17610375948773008
0.1454846149691939 0.14833735601947776 0.0970927884070678 -0.007238197309207074 0.06216005273979429 0.15991347759076316 0.1602272389133859 0.10713661120813747
0.08976610955367828 0.012140362713501362 0.17227188532508483 0.025132897687432487 -0.13873990178150455 -0.1106835326115935 -0.05119873872519581 0.037378335395690125
-0.002940414967132618 0.07075237011680788 0.1073998918513308 0.034610403260029024 -0.1494288909903673 -0.11350762398557546 -0.12978453934982978 -0.16450251010812972
-0.12484770403579913 0.00256294777267683 0.1063401086040932 -0.02652252976015813 -0.10365117875178945 -0.16220932365173274 -0.1314836059304536 -0.12348210843419073
0.06866443005477879 -0.11483777675068622 -0.09849283441118485 0.03270841414611744 0.09628274890322569 -0.10619734499886486 0.16531249114288657 0.07672635713785789
0.10985351280470512 0.08486040816493363 -0.15685600333840952 -0.10546374597500201 0.09528975943230089 0.08095026666257378 0.1115707252338517 -0.11150279512525499
-0.14592225469189868 0.1486980047344627 0.07348217756059379 -0.17076477624755254 -0.15966769393738645 0.03259371862079475 0.16880374456408334 0.01647508767126985
0.11957651642800916 -0.010511342833942162 0.15686006287767348 0.15575208253198247 0.18149120602673433 0.12794860139312828 -0.13356454231076553 -0.09637358422728541
-0.08879150082289174 -0.1340634396606118 -0.10547705484119688 0.09211652023280305 0.15816464046414594 -0.01628417239014549 0.14462825161955517 0.07766156597828791
0.15475810577116728 0.007970697328523735 -0.11644632127085018 -0.08862166469359226 -0.13127178096678532 -0.04188547823645558 -0.12423103979634263 -0.026748886240614958
-0.051639003368721494 0.14930752822572188 -0.022322925559410105 -0.05021760175685631 0.05994348539794595 0.14472243021280373 0.17441259300818177 0.0037457000477559123
-0.015279919047665916 -0.004802060607701754 -0.08139021007504103 -0.149430573196932 -0.027355372203192112 0.1351435971838586 0.06332371757672325 0.07831778696668895
00000000: d979 4764 053c 91bf cd15 b764 16c5 bbbf
00000010: 618a f7c2 16d7 333f 83c1 0545 6e8c bdbf
00000020: 626f 9101 e4bb c33f cc61 8d04 085c a7bf
00000030: 7b56 4030 b88e a1bf e2a3 1772 9b87 c83f
00000040: 45bf 86a5 ec40 c13f 3978 42a5 bfdf 93bf
00000050: 20cd 5e9e b371 c63f 2471 a44b ab8e b2bf
00000060: c6d0 11a9 789a c63f 2353 736c 22c0 98bf
00000070: fe91 ce1d a139 bfbf ea6c 0ba2 f102 933f
00000080: fb9a c5f7 fc96 abbf 8681 8c81 71e9 b3bf
00000090: 277a 5cc0 238b c5bf 685f bd50 5f9a b93f
000000a0: 5bee 3186 35c6 b8bf fbbe 7038 dcaa c1bf
000000b0: 1ca0 bed8 733b 903f c582 cf2a 20be b73f
000000c0: a2c0 67ef c827 c13f 609f bcdb a049 b2bf
000000d0: 9dd3 dbab 83e8 63bf 8b22 8bc4 9eeb a9bf
000000e0: 49b9 c18d 462a b6bf b51f 547b 1319 abbf
000000f0: 4d96 4954 67f8 b5bf 3e45 c282 c859 bbbf
00000100: 1bc1 f2d7 4b6c abbf 4b8e 3963 95a6 903f
00000110: 2eb4 a6c0 b3bc bbbf 3bd1 6c5c 2dca b1bf
00000120: 1e77 1477 bad3 b53f cf24 1607 dd3d b03f
00000130: deb2 c912 f53c c53f 8225 1be6 d019 a5bf
00000140: 9a2b f7f1 4d25 bb3f 2ccd 8eb4 528d c1bf
00000150: e2bb a256 2b88 b73f bd33 c3b1 f3be b33f
00000160: 254f 1cd9 6a82 953f 8853 87c5 a09a b43f
00000170: 30f0 3835 b24d c43f e061 4543 b7f9 b73f
00000180: 5abb 8a06 1230 bb3f 4921 decf 5979 a33f
00000190: e7d1 1ffa a5c8 993f dcb4 1c92 242b aabf
000001a0: 0755 59be 2560 74bf d16c 39aa 5ba7 b13f
000001b0: 24ae 4795 8f4f c03f 4552 ed9c 3283 aa3f
000001c0: 4948 a85a 2548 9b3f 2f13 d0d1 eaf4 c2bf
000001d0: 4944 08af e692 b93f f7cf e8a4 a179 b23f
000001e0: c583 5521 e284 c2bf 5c7d 498a f75d 933f
000001f0: 852b 7718 1ef7 b83f af8b eb38 328c a9bf
00000200: 5fbd 245c 4f43 b1bf ce2c 9c29 a5f7 b63f
00000210: 3966 4c4b c016 723f e75a eab5 e0eb a8bf
00000220: af81 1c01 6771 bd3f e29f c7a9 5c2f a63f
00000230: b424 d3d9 4aab c33f 1c3a b280 a98b b93f
00000240: c703 a198 57ac b4bf 7a7f 66c6 d76e a23f
00000250: 1d4e 2902 6e02 af3f 2549 64f7 7369 c63f
00000260: 082c 6bd1 6911 aabf 5013 575b 0232 a5bf
00000270: 230d 5a0c 084d c03f 8fc4 4985 0cd3 9a3f
00000280: 0d10 6da1 abe6 b5bf a4c8 1c54 845f c53f
00000290: 86c6 9c99 c8c2 973f 6b2c bdb3 187d c2bf
000002a0: 31c8 eba3 26a6 c43f 2ef2 4a96 d60a b03f
000002b0: 28be 7f3f 84f7 b83f 93ec 950d 221d c63f
000002c0: dc04 d034 1044 c23f 42c8 15d9 a482 b53f
000002d0: 3ad7 05d7 f304 c33f 27de 3724 b22c c33f
000002e0: 87a3 6184 4e85 c03f fc4b 97a6 db24 aebf
000002f0: 33cb 52c9 cb5a bfbf b404 ccd8 7660 c0bf
00000300: f6ef dca7 4475 adbf cf0d 98cd 4e8a b8bf
00000310: 11a8 5c1e 66c1 c0bf b472 8052 8ea4 c0bf
00000320: 512a e764 8178 b2bf 849a 8e1b a4be a53f
00000330: cb98 61ce cc46 ba3f 9911 d352 1b8b aebf
00000340: 7b08 8508 1c5e ac3f f16b 1f03 2434 c1bf
00000350: e0fc e71d ca64 bc3f bd47 e218 26a6 c0bf
00000360: 27a3 51f3 5e83 c2bf 473c bea6 4fb2 bf3f
00000370: 7f16 2f70 0286 b9bf 4dec e970 88f6 73bf
00000380: 273f fc0a 5ee5 b63f 15db bb65 87b8 b83f
00000390: c96f 81a0 2b78 b8bf b22f f948 59cd c33f
000003a0: 6dc8 c2c9 8925 b43f 5fed 02ec 0196 a43f
000003b0: a2af 0acc 442b a8bf 1ffa 1b72 f185 b0bf
000003c0: 6e60 81b8 447d b1bf 673c fae5 54ab c53f
000003d0: 8830 a677 87e4 b2bf 0f35 e1dd 7078 c4bf
000003e0: 447a 9f7d 5f4e c33f 4502 31ee c672 8abf
000003f0: 3579 fb25 8eca c3bf f463 c879 2552 b33f
00000400: e2f6 d9cf 7b20 b23f febf de48 24ad c53f
00000410: af24 4b9e 0fd0 b6bf d06c 5ae5 65c5 a53f
00000420: c13a 3849 1e55 b83f 5dca 52a0 1c94 9bbf
00000430: 1612 737b e553 c1bf d13e a54f 8022 bc3f
00000440: 83cb 065c 4ec1 b03f 03e0 bd94 5b3c c2bf
00000450: f0fd 0e0b c27a c13f a54b 9770 fd4f b53f
00000460: d7b5 a31a 0258 b0bf ea62 3aae dd79 823f
00000470: c9d5 4c15 4121 923f cdf9 193b 985e b2bf
00000480: b6d2 f645 88f7 9dbf ab80 f86b 3241 c13f
00000490: b112 1aaf 1098 c3bf 3e00 8be2 414f bd3f
000004a0: d5c3 af36 fc32 b3bf a3a7 9189 6134 abbf
000004b0: 0aae b18d 6b07 a9bf 4c81 ea0b 5ec6 c43f
000004c0: 7917 70a0 70fa b63f bded 8610 3085 bf3f
000004d0: e948 1bde 2c51 c73f 44dc 6ec1 6cb2 c5bf
000004e0: 55e1 cc84 c4b2 b0bf 7e90 d78c d0e9 a53f
000004f0: a496 723b fc40 903f e5e9 d967 918a c63f
00000500: 4e92 ae67 3d9f c23f 657b 70ee b7fc c23f
00000510: 0fc4 e2ae 12db b83f 1bc3 99cb cca5 7dbf
00000520: 7e25 4543 71d3 af3f 0992 387a 0b78 c43f
00000530: 01db 877f 5382 c43f 1add 5711 4e6d bb3f
00000540: ca7b d268 e9fa b63f b34d 87e6 0bdd 883f
00000550: 87e9 be50 010d c63f 7025 7c36 70bc 993f
00000560: d9a1 66a6 3ac2 c1bf 6ac5 c588 c155 bcbf
00000570: e7a2 d798 b836 aabf eff1 34d0 4023 a33f
00000580: 2d2a db43 7f16 68bf 3624 c4cb d31c b23f
00000590: 4f6c 182f 8f7e bb3f 2ad6 346c 74b8 a13f
000005a0: 65ca f063 7c20 c3bf c05d ddec d50e bdbf
000005b0: 4758 04a0 c79c c0bf 221d 8312 6b0e c5bf
000005c0: 6f7f d0e5 04f6 bfbf d41a ae1b e4fe 643f
000005d0: c329 b5f8 1a39 bb3f c350 b5d7 b828 9bbf
000005e0: fa47 ee36 e288 babf 5e61 186e 46c3 c4bf
000005f0: c039 b76d 74d4 c0bf 89b0 5d01 869c bfbf
00000600: 54d7 7bf9 fd93 b13f eb52 7d2f 0266 bdbf
00000610: c1b6 af8e d336 b9bf cc89 1f42 28bf a03f
00000620: 6455 b579 fca5 b83f fd30 b1cb bf2f bbbf
00000630: 431c 8aaf f528 c53f 06f8 a5aa 56a4 b33f
00000640: 20d0 d81c 5c1f bc3f 7529 cb65 69b9 b53f
00000650: b386 4286 db13 c4bf 3b54 e00b acff babf
00000660: e8ca 67e0 e864 b83f 5911 eb1b 28b9 b43f
00000670: 6805 1228 e68f bc3f 32be 797a 728b bcbf
00000680: 4c84 d497 94ad c2bf f450 a845 8908 c33f
00000690: 6d2c 765d bacf b23f 1e60 a5c4 9edb c5bf
000006a0: 002b d8b1 fd6f c4bf c10b 10b7 1fb0 a03f
000006b0: 712b 2c71 5c9b c53f cac2 fc6a d8de 903f
000006c0: 418b 6d0b 919c be3f baac ab8d f886 85bf
000006d0: 97d6 0d94 fd13 c43f f81e 612a afef c33f
000006e0: f5bd 3295 1a3b c73f e5b5 46a9 9e60 c03f
000006f0: 14a2 9096 a418 c1bf 9b59 7470 f0ab b8bf
00000700: a573 3230 0abb b6bf 923e 77a4 fd28 c1bf
00000710: 7a76 0555 8b00 bbbf e93a d2c1 f294 b73f
00000720: 61ab 162b bd3e c43f 09b2 6e4f ccac 90bf
00000730: 984e 64b5 2d83 c23f aa6b 08de a0e1 b33f
00000740: 46fe 8915 1dcf c33f 408f d1e2 f052 803f
00000750: 1f0a 9915 6dcf bdbf 7278 93cf e8af b6bf
00000760: 1eec 1183 83cd c0bf 0ce2 676e 0372 a5bf
00000770: 1fc8 12fd 9acd bfbf 5474 6e5e 0f64 9bbf
00000780: bd58 556d 6d70 aabf 5756 6353 821c c33f
00000790: ab32 ea2c d2db 96bf 4160 751a 1fb6 a9bf
000007a0: c5ec c89a e9b0 ae3f 3c7d 61bc 4386 c23f
000007b0: 8b87 7ddf 2653 c63f 5a66 9566 4daf 6e3f
000007c0: c813 c304 144b 8fbf 2840 3754 53ab 73bf
000007d0: 93a3 7c22 fdd5 b4bf 35a1 7380 8a20 c3bf
000007e0: 4e33 eef3 0b03 9cbf 7090 15a9 624c c13f
000007f0: 569c 0db0 fb35 b03f e48e b76d a20c b43f

predict.bias f8 [9]
-0.08293218650483225 0.17351778501439283 -0.007739316518162031 0.15580978365984993 -0.08292403381452262 0.18520098132105012 0.15909631243509922 0.05512235853028528
0.0402470932850549
00000000: 70f3 d234 0b3b b5bf 6ba1 f4ad d435 c63f
00000010: d920 6cf5 42b3 7fbf 4ea2 9b32 93f1 c33f
00000020: 6828 496d 823a b5bf 9c02 fb6e aab4 c73f
00000030: 6756 6999 445d c43f f5f8 546e ff38 ac3f
00000040: db34 d65a 449b a43f
