Task2Mroph/02_flip_box/model/flip_model_parameter_reference_1.pkl (torch, 14231 bytes, 6 tensors)

hidden1.weight f8 [32, 5]
00000000: 492f 1fa7 9800 adbf 0d14 b5ce c630 a63f
00000010: dff7 5054 d41d d1bf f33d 236c 4425 db3f
00000020: 5dcf dcb3 4e30 d03f b204 0d5d f7fc d6bf
00000030: a1ca d8e1 274d dc3f 84a8 eb66 74a2 bb3f
00000040: c4da ed30 c354 ba3f 340d 0db9 8488 d2bf
00000050: 1bd9 5089 cad5 d93f 0f06 59f7 9aa9 d83f
00000060: af55 7809 b420 da3f f103 75c8 75fa d13f
00000070: 6c49 d52b 1a6d c4bf 5835 fe9c 4907 b2bf
00000080: f813 6ca6 7772 cabf 54c7 49c9 ded0 d3bf
00000090: 0bcf 63bf a782 b23f 1572 0c10 7c11 dc3f
000000a0: 919b 4840 5439 c6bf 04d9 3699 936e a9bf
000000b0: a4f2 7daa 5daa 95bf 834d 213f a027 dbbf
000000c0: 7e33 f831 5dae b13f 6021 2ee7 6c1f ca3f
000000d0: d2ea c6c8 3f29 b8bf 6a7c fabb 2617 cd3f
000000e0: 1efb 280a 4249 d3bf 330b ab83 55a0 693f
000000f0: 61cf 5289 d287 d4bf 9346 ae21 a364 c8bf
00000100: dc7d d191 94c0 d43f 95c9 cc50 6826 c0bf
00000110: 113a 1ef2 78b2 d13f 5ce0 045f c552 d63f
00000120: 944c 3fe3 60b0 7d3f 9749 0b27 5334 d93f
00000130: bb7a 4ddf 5efe b7bf 0337 02dc eb17 d93f
00000140: b6a8 8d7e 7ec1 d93f f482 4a7e c5f9 c03f
00000150: 2c2d f6b2 303a c53f be05 f09f 5404 bdbf
00000160: 4050 7f0c 62ff b93f 00e8 2811 fa12 ca3f
00000170: b3ea f9bb d3b4 c03f 06c9 30f4 0421 d3bf
00000180: ac0f 865b 8373 c6bf 8cce 93a5 12b8 8fbf
00000190: 5e3f 90f7 ec49 c7bf 62bf 361d 5d59 abbf
000001a0: 67dd f35a 67aa d23f 4c62 3844 1e4d c43f
000001b0: 19f6 21e6 3aba d73f 79ab 51b0 16f5 c5bf
000001c0: 7a55 3593 5090 d03f 0f22 e75a d0d2 c93f
000001d0: 7b2a e823 2e31 d03f 439e edc5 250a d8bf
000001e0: 1a63 5061 9513 d63f b488 34fd 7c39 dc3f
000001f0: dcdd f0d1 5bb5 bebf e8bf f1af 27b9 d7bf
00000200: 6281 8a16 05ff 883f 84ad ada3 5666 d33f
00000210: f6df 7e7e 3392 c33f 2895 448a 86b9 ccbf
00000220: efc2 a69e cd5c c73f df6e bdd3 18f4 d33f
00000230: b2d2 b200 9a3e d9bf cd73 4fef 2f31 873f
00000240: bef5 5ea3 675e d3bf 6dcd 8142 90d6 2d3f
00000250: e024 467f 7685 a2bf 4ed0 c461 a8c2 bc3f
00000260: 72ca 9c69 ede8 d4bf 2fcd 925d eaf2 d4bf
00000270: ebb4 deb2 1c22 cb3f 01d4 019f 07cd b13f
00000280: 3f59 c9b6 c876 d5bf 1eb2 6e41 7c3c d43f
00000290: 6474 319a f090 babf 051c 29b2 8fbe b1bf
000002a0: 6376 0df8 ad6d d1bf bdf1 0803 e092 b0bf
000002b0: 903a 680d 1140 d53f 7f90 50c2 4013 d23f
000002c0: a078 c827 de74 9e3f 3a72 8e80 b1ac c0bf
000002d0: 25ef cd9a 986b a0bf 55be 99d0 6801 dcbf
000002e0: 2493 84fd cef3 d2bf b58c 86d6 348f a83f
000002f0: 2083 b9d2 2904 cebf 99b2 2cf0 22cc cb3f
00000300: 7255 2036 ef5b b5bf 9185 124b 76ce c8bf
00000310: 4f36 c33a d1f2 c1bf 6308 497f 600c dbbf
00000320: 614b 6aa5 13c7 a53f d178 bae1 bed8 dabf
00000330: 6237 69db c7be b7bf ddc3 2300 732e dc3f
00000340: 97c4 756d f335 b53f 2095 1578 6de9 da3f
00000350: 18cc f7fa 5210 acbf dc30 8445 cf5b c73f
00000360: 3aa0 f866 6cf7 cd3f bdfc 5352 45c6 d0bf
00000370: fc8e 52d7 9e35 b7bf 9aab b241 71a8 d93f
00000380: 8abd eee2 c694 db3f 129d 5ffd e83f d4bf
00000390: de04 8e96 4c30 cb3f 6dc1 8b73 108a c2bf
000003a0: 9ac1 eb67 49ea d53f e867 f87b aca4 c23f
000003b0: e38f 94aa 8b9b c53f 4e86 7bad a63c c23f
000003c0: faa7 adb0 5152 603f 5415 d45e 6281 c93f
000003d0: 3299 0f09 b933 a63f 27e4 9fa7 2536 d7bf
000003e0: fe32 33f4 968a b0bf c7f0 4d90 6702 dbbf
000003f0: e423 d5df 01da cc3f 7ef8 b4ba e9f4 c53f
00000400: ef86 180d 6732 dbbf 96dc 259f 151b c13f
00000410: e3ac 711e 3827 cc3f 10fb 3fa3 ca0c 963f
00000420: 53a6 892d 6c2b d2bf f08c cf3e fc73 ccbf
00000430: b331 1778 d3dc d4bf 1bd1 0b41 d544 d7bf
00000440: fb50 333e 34e7 c03f fffd 4d3f a730 bfbf
00000450: 8fe8 b8a0 1def cebf 625e 032d 98f2 af3f
00000460: b30f c09d 26bc c03f 19fc 6360 2b8c c83f
00000470: af93 347f ac8f dcbf fc23 5a31 4e47 c5bf
00000480: e76d 8b71 0381 9abf 1af0 ab2d d76e c6bf
00000490: 435f ddaa b9fa b3bf e064 e681 53e2 d7bf
000004a0: 5fb0 3a83 fa9a d83f fe8c 5bdf f531 dc3f
000004b0: 2d94 0dd9 5203 ba3f 50a7 e872 cc0e cb3f
000004c0: 46c4 7328 991c bc3f a54b c014 0fa7 d33f
000004d0: ed1e f07a 1c68 9bbf 6720 c989 5036 c33f
000004e0: c8ec 36f5 b4e4 dcbf ccb1 4fba bf90 d23f
000004f0: 571e 818a 753d b33f 4e5d 739b a909 b6bf
-0.05664517440854284 0.04334088586123395 -0.26744564279567656 0.4241496139556766 0.2529484516592129 -0.359189835424398 0.4422092156920972 0.10794761192997454
0.10285587257917955 -0.28958242484459906 0.4036737767195448 0.3853518882279738 0.40824604916391655 0.28091187072646934 -0.1595795358685551 -0.07042369921528768
-0.20661826730807298 -0.3096234288888031 0.07230614111523097 0.43856717650649674 -0.17362454546784226 -0.049671757176314585 -0.02115770676708685 -0.42429357686088326
0.06906683416327827 0.2040840271768145 -0.09437941219122628 0.22726902178417002 -0.3013463114947842 0.0031282110406619878 -0.32078994188781534 -0.19057120461052487
0.3242541717536065 -0.12617210336027243 0.2765180935320198 0.34880193976596785 0.007248285739439048 0.3938186532297094 -0.09372513725018454 0.392085041858863
0.40243494375921374 0.1326224199920244 0.16583832491264994 -0.1133473291847826 0.10155308537588414 0.20370412671928761 0.13051840475585194 -0.2988903412507543
-0.17540018052033923 -0.01548780982782396 -0.18194353187618167 -0.05341616613020396 0.29165061838235434 0.1586034615618409 0.3707415816678306 -0.1715420113499382
0.25880827308477417 0.20174602926842097 0.25300172335179355 -0.37561935738492397 0.3449452829677725 0.44100880362578754 -0.11995481372365852 -0.37067596609176556
0.012205161810300683 0.30312124237271854 0.1528992049841233 -0.22441179038393355 0.18251962896967863 0.31177349736911525 -0.39444589679923603 0.011324285975144033
-0.30263701395218934 0.0002276469324474605 -0.03617449096334169 0.11234524142202071 -0.326716759812519 -0.32732638490706994 0.2119785188091677 0.06953475601206095
-0.3353750023865309 0.3161917342174848 -0.10377410664064396 -0.06931398486732128 -0.2723193094624092 -0.0647411353501814 0.3320353156022202 0.2824251077274837
0.02974269025627818 -0.1302701833455034 -0.032070893189454254 -0.4375860249628876 -0.2961308933029605 0.04796757811279787 -0.23450205601968666 0.21716725089335823
-0.08343405791705097 -0.1938007227482044 -0.1402226960112096 -0.42263042860225236 0.04253446001270934 -0.41947910350598955 -0.09275483233178997 0.4403350354542093
0.08285447523464239 0.4204972908685978 -0.05481204331945139 0.1824893083033946 0.23411326434984564 -0.262101488493453 -0.09066193348786195 0.40090590873540466
0.43095562135109644 -0.31640076392655303 0.21241147376353003 -0.14483838693514475 0.34242472790267586 0.14565044453848874 0.1688093741332742 0.14247592421365812
0.001992377806733889 0.19926099424643928 0.04336336360556671 -0.3626798760374776 -0.06461471044458375 -0.4220217618201442 0.22540305547070638 0.1715366517691485
-0.42495132712256994 0.1336390521134702 0.2199468754437027 0.021533170904144916 -0.28390030333557553 -0.22228959147387384 -0.32597815253827916 -0.3635762343613053
0.13205578839427531 -0.12183614058994151 -0.24167223308342442 0.06239772366978681 0.13074190809868255 0.19177763182230548 -0.44626915380859605 -0.16623856935282777
-0.025882772259917444 -0.17525758485851456 -0.07804451390745464 -0.3731888550333462 0.3844591409240418 0.4405493432261237 0.10161321448465861 0.21138911829739948
0.10981137502291557 0.3070714666984549 -0.02676434040407021 0.15009505012335753 -0.4514591593430848 0.29008477396453425 0.07515654212431265 -0.08608493848020268

hidden1.bias f8 [32]
00000000: ce52 a30e 5589 cb3f 2bcf 8144 cf63 d53f
00000010: 13eb a9dd ef72 b93f bbd7 47ac c4e8 d83f
00000020: f352 d810 7933 96bf d930 bffb 85dd d1bf
00000030: 492b 086e 194f cdbf 5543 f7a7 da32 d83f
00000040: bf67 6563 25a4 ba3f adfc 769b 8a36 c6bf
00000050: b987 8eb4 7863 da3f b284 948f 07b9 d73f
00000060: 13b0 a7d5 b2a3 d8bf 6a0b f518 0e87 c53f
00000070: 6cd7 e102 68f9 d23f 34e8 6e62 69eb ba3f
00000080: 97c6 4797 ca7a d13f 8ad0 435d 8f5d c7bf
00000090: 3a40 21ba c9dd b9bf f207 cbdc d16b db3f
000000a0: d8f8 c48e 1ba8 b4bf 7404 093c 4d71 a53f
000000b0: 28d7 c889 73d2 b9bf 2de5 b203 8cfa d53f
000000c0: 4d84 a3e6 155f 9abf 11a4 f06e 2ebc cdbf
000000d0: 426b 60e8 b3ea d2bf 1fa4 0ef6 32ec cf3f
000000e0: 176f 07ec 7306 d8bf 1647 2866 2082 dc3f
000000f0: e4b7 bbde 51b5 dcbf d456 a9bb 3fb7 cfbf
0.21512854780907847 0.3342168969168024 0.09941004907333832 0.38920704674034895 -0.021680728581560293 -0.27914571365978486 -0.22897642014171485 0.3781038894931517
0.10406716992056796 -0.17353947249464366 0.41232125885482734 0.37066830655573846 -0.3849913679575831 0.1681840535985331 0.2964725521227283 0.10515459683566136
0.2731195905063059 -0.18254272512388453 -0.10104046625315358 0.42845579683137125 -0.08069011912900537 0.04188004834987505 -0.10086748231773568 0.34341717110835895
-0.02575334758956087 -0.23230533997528416 -0.2955751199057667 0.24939572348128622 -0.3753938488932688 0.4454422948484632 -0.44856688262268407 -0.24777981436880359

hidden2.weight f8 [32, 32]
00000000: 9bb1 6e9c 837f 9d3f 1647 25b1 b40d a9bf
00000010: 7339 17f7 30b5 bc3f 4c80 6a61 9e92 be3f
00000020: 6558 6b77 2f65 c4bf 18df 7c74 1b87 c3bf
00000030: 3d0b 43c2 4564 c03f 2f93 fc7c 4973 c53f
00000040: 287a cfdf 1989 bebf 5ddb 4126 a203 c53f
00000050: 927b 5683 bfca b23f 4b89 495d 92dd 8bbf
00000060: 6eed f263 7f30 ae3f 3d97 fdf0 480d ac3f
00000070: 5af2 c622 e01d 98bf f94a b360 1802 b83f
00000080: 6a90 6f75 3f59 c3bf e9cb 2c0e 73b7 7c3f
00000090: d95f 6ebb 7aba 8ebf eb3a 0daa 10c6 adbf
000000a0: b1e9 38e6 5a2f b0bf 0833 be8a b8e5 a03f
000000b0: 1ac8 5ac7 aeb6 b43f 9a1c 1399 2599 c43f
000000c0: d3ec 19d9 6742 433f 093a fd03 32b0 85bf
000000d0: 7481 9362 30dc 783f ec50 358e 9ce0 903f
000000e0: 5778 4ea1 eba5 a9bf 736d 6de2 d8ea be3f
000000f0: 1905 917c f09e c0bf 2c60 ef09 e73e c13f
00000100: 072c 93ea ea73 c2bf e7da fad1 2b66 8cbf
00000110: 53ba dd0c 6c75 c4bf ee51 3d09 a70f 643f
00000120: 0ba1 81dd 4b0f c13f 6792 1b73 ac31 bcbf
00000130: b0e5 6977 b1bd b4bf 0744 b7a8 cd4f c1bf
00000140: a04a 9a79 71b6 bf3f ab56 9c6b 436a bfbf
00000150: d9b5 af15 0fba 92bf def1 6adb 0685 70bf
00000160: aa6c b908 068d c6bf 8d9a 88b8 b905 c13f
00000170: 7c06 98ed 666f b33f b2a6 d152 521a a6bf
00000180: 9bca 1c76 1a68 97bf 1b13 0890 8135 c0bf
00000190: f854 a2a7 e912 b33f f2d5 af75 d651 aabf
000001a0: 853f 1b73 c274 c0bf a9ca 5259 6ab7 c13f
000001b0: 2cd2 ad4f 665b c6bf 2c58 1dd8 12ef 9cbf
000001c0: 56a6 9f8b 14be b33f 7d1b c435 1fbd b5bf
000001d0: fd0b 1e43 3959 c4bf 6fa3 0ab6 5df3 b13f
000001e0: 729f 8212 e7b5 b53f ec16 6d84 a14e b2bf
000001f0: 0531 2f3a e6a0 adbf c902 f7aa bfc8 a43f
00000200: 764d 19fe 409f babf 567a 3bc6 1e19 a13f
00000210: 16de 2541 2876 bfbf 94d1 55f1 64a0 8ebf
00000220: 7ad6 fb8e 6b7a c23f 0b94 18c9 1758 a2bf
00000230: 5866 fbe4 868e b43f 4a28 c8de 0baa 75bf
00000240: 7b91 cfa3 0a6b a13f c437 8250 35f1 c33f
00000250: 3696 76b7 b06e 99bf a542 5b29 dcfe c4bf
00000260: 46e4 97f2 83e5 953f ca18 7588 fa6d 95bf
00000270: 67ef e6f4 2cd1 c43f 7bd8 705d 7925 c4bf
00000280: 6e00 04f6 c300 b13f 9b76 6d37 d23f b4bf
00000290: c0b3 e1f9 3283 babf 81e7 cad7 206a a1bf
000002a0: b5ab 3fd1 4220 b7bf 1ee6 fef6 4c35 a7bf
000002b0: a425 50bc ee01 7c3f f534 19cd d7d9 a63f
000002c0: f748 a2c6 ed6a a43f 3680 dfac 679b 923f
000002d0: b63c 5c70 f1fe a6bf 5842 d27e 9c4d aa3f
000002e0: f597 bff8 afd5 a03f 7746 c4d0 a03b bd3f
000002f0: cc31 b03a 2afc c33f 49ed 1ea4 5a99 c43f
00000300: 5047 3b4f af95 c13f b77b 2000 9ad8 bdbf
00000310: eade 2415 0826 b73f 5968 687a fcdb b13f
00000320: d9d6 2ea0 3175 8e3f cb00 cc51 4da6 c5bf
00000330: c92f 4995 d023 b4bf 79f1 a554 9de0 ba3f
00000340: dc86 b44f baae 9cbf 0a9f 2d34 c04f 863f
00000350: 8b4c 8ade 9f6d ba3f 0856 7ecb 2df8 a9bf
00000360: 9d51 24e0 1d25 b93f fa85 95e1 e3eb c5bf
00000370: d504 59e2 e303 c23f 663e 5a25 df6a c4bf
00000380: 2a1b caf5 db8e c6bf 5efd 3714 ca41 a63f
00000390: 6c43 deb7 7a02 a6bf 009f 4413 316b c43f
000003a0: dba1 904e cd14 c6bf 8e14 bb08 0a66 b13f
000003b0: 0b79 a865 26e1 c33f 3bca ee74 6823 b43f
000003c0: 1d58 298c 0b01 c63f 05c6 68c4 9bc9 823f
000003d0: c030 fd3e c2fa a4bf d6c6 58e0 816e b5bf
000003e0: 2a08 dee9 81fe c0bf 5d4d c207 5121 c2bf
000003f0: ca6b 4971 0b69 b53f 89ff 7b9a 9263 bfbf
00000400: 13f7 59d5 8437 9abf 44a5 8393 aab1 bcbf
00000410: 6239 8e20 0fc2 b23f a6e7 daff 9351 a73f
00000420: c928 b21b 463f c33f 0500 5db7 124f 80bf
00000430: 123c 9e9a a913 b13f 5f5d 3964 fdaf c53f
00000440: 7de6 3bf5 e19a a63f 8a39 c52d 38a7 a2bf
00000450: 71d5 caa9 2abf c3bf 117e 18e9 6133 c0bf
00000460: 02e6 7aa2 b0d2 babf fb07 8be3 4645 a03f
00000470: ce9b c221 f913 bf3f 929f 607e e786 a63f
00000480: 6eb3 e625 ac2b bc3f e1d0 2845 47b3 c43f
00000490: 137c 9414 765b a73f 2975 5ab2 d49e 993f
000004a0: 7390 6d36 2077 9ebf d4a6 7b76 d997 b63f
000004b0: 6d9a 122b 6cd5 c53f 80d7 ad14 14c9 ba3f
000004c0: 3dac 38cc 6062 c6bf 7e04 7423 dd00 9e3f
000004d0: e6c2 c181 6a7f ad3f 4973 3ab4 0afa b6bf
000004e0: c140 2580 1534 a23f b30a 6d1d 46bd 823f
000004f0: b009 04cf 4bc2 6f3f 3ebd a5ed af42 8c3f
00000500: 5420 b8dc 0ce5 c3bf faf6 c089 7a3d c33f
00000510: 6e2a f6ee 57e6 c0bf 08e9 1e69 fa6d b1bf
00000520: 8f70 1dda 98a7 b93f e23a 88b4 d303 ba3f
00000530: e823 8316 0acc ac3f 89c2 c64b c7a8 c93f
00000540: d927 dcbf e00a a2bf b8b0 cee3 aae7 c5bf
00000550: 8e9c 63b9 4acd c53f d729 2a5c 729c bf3f
00000560: 04cc 0e5f 20b5 c33f 5066 deca 3f32 853f
00000570: 4c7f 3f9a 93a6 c5bf 00c6 8df4 1a69 b6bf
00000580: d3c4 93b8 2510 ba3f 6713 6a92 03c9 c0bf
00000590: 1125 808e 9916 c53f b5ff 20dc 5170 b93f
000005a0: 5291 d16d 01c4 c73f bc16 7629 2ecd ba3f
000005b0: 5eb8 4b80 4d23 be3f 73d2 dd77 1659 b83f
000005c0: 13c9 ab02 5193 b43f 6f66 6401 8c8c 97bf
000005d0: 6eb2 4a06 9f1e 92bf 1495 d550 a890 98bf
000005e0: bd29 3e24 29b5 9bbf b982 9f2f cc1e b03f
000005f0: 892f ab97 0d91 c0bf 5806 860a b432 a9bf
00000600: acdd 2744 3226 9a3f d55d 024b 7d94 b43f
00000610: ec54 c53a 611f c53f 6b08 a2d8 608a c3bf
00000620: 230d 2541 797c c1bf fab5 2267 b1a8 bebf
00000630: b5ff e60f 5257 653f e1b9 8e1f f349 bc3f
00000640: b062 3093 6920 c03f 1ea6 5764 14b3 c53f
00000650: 9dce 5814 b962 8dbf 5f61 31cd d8c1 b9bf
00000660: 2522 ada1 5c21 bebf 98ae 339f e4b5 b23f
00000670: 5930 9c7b 7469 bfbf 4e8c ccfb 1182 b23f
00000680: 6e40 7c2a 01f3 a83f 32d9 ae95 990c c4bf
00000690: 6161 7a32 13cb c33f a31d 059c 8110 91bf
000006a0: b996 4381 0810 c0bf 3920 fe0c b86f b13f
000006b0: 08eb 6f85 8046 c73f eb54 8043 cdd5 b7bf
000006c0: d4fa 7c99 6151 b3bf fd53 b0d7 3582 bd3f
000006d0: 7d46 76f6 a28d a4bf cbd3 e65c 8730 823f
000006e0: 4a72 5189 f36e aa3f 2bbe e906 aa83 973f
000006f0: 426f 7bb2 85d6 83bf 42de 3a16 1e5e 963f
00000700: a258 42c3 5871 bd3f f03e 1b32 4c03 42bf
00000710: 106d 714a 9b4f a53f 0d1e b5fc ff11 c13f
00000720: 7d2a 1399 a442 c5bf 9be5 7842 d561 b53f
00000730: 5426 21b6 3a21 703f 1f31 9e58 a440 a7bf
00000740: d950 bb7f 32f4 93bf 450c 7a25 d67c a5bf
00000750: 7cd3 3873 1a7a a63f 79e2 c93a 9b91 b2bf
00000760: feb0 b07d f4e4 be3f fbbf d7cd 0be5 a8bf
00000770: b61d 606b 4b84 b13f 3dd7 d129 bed2 ac3f
00000780: 305b 3223 945b a2bf 7eb7 9df4 02a2 abbf
00000790: 189e 219a 1165 b33f 8a83 6480 10a9 c53f
000007a0: 8266 4ae3 62da 86bf 6e7e 3458 cc17 b5bf
000007b0: 7cd6 4c3f 291f c2bf 2e53 7c6c da7f bcbf
000007c0: 7c3c 248e 31ff 7b3f fbf1 b8f2 0867 77bf
000007d0: 1e26 959d 41c5 a33f 0ba6 3bea 3d50 c4bf
000007e0: 283f 4ff4 84cf b8bf 093c f1d1 54fb ac3f
000007f0: 0834 9544 5a3f b13f 00c9 491a d1c6 c3bf
0.02880674021041472 -0.048932692169399924 0.11213975937355318 0.11942472341843419 -0.15933793383618702 -0.15256064594154206 0.12806007371372088 0.16758078196394297
-0.11927949632761481 0.16417338245420413 0.07340619045724697 -0.013606208297635055 0.05896375746803072 0.054788855951115135 -0.023551466105106257 0.09378197060440731
-0.15116112932367126 0.007010888514559868 -0.015004118771500362 -0.05815174175096679 -0.06322258110677727 0.033002631126782644 0.08091251723342943 0.16092367147777936
0.0005877501555028537 -0.01058997225450488 0.0060693635980161205 0.016481825046256768 -0.05009399742196823 0.12077098396314571 -0.1298504455790315 0.13473213181600963
-0.1441625256905754 -0.01386675104673203 -0.1598334372351525 0.0024488699363394073 0.13327930751552972 -0.11013295946356437 -0.0810194889580973 -0.1352479051406876
0.1238776132470698 -0.1227152002068929 -0.018287883471136943 -0.004033114228772365 -0.17617869783393775 0.13298722753934947 0.07591861057883337 -0.04316956768964299
-0.02285806032086644 -0.1266328767088901 0.07450733511571517 -0.0514056223545757 -0.12856321926528494 0.13840989457601907 -0.1746642960603294 -0.02825574344691277
0.07711914452343058 -0.08491702139518327 -0.1589728906365905 0.07011972135900434 0.08480686380300798 -0.07151231272754516 -0.05786818943269804 0.040594091052758303
-0.10399252132019918 0.03339477701023401 -0.12289668646359816 -0.014954365363089285 0.14436096650722502 -0.03582834558282152 0.08029978838330842 -0.005289121978885156
0.03401978730815621 0.15579859191023904 -0.024836312482554322 -0.16402771014556553 0.021383344346734633 -0.02092734773511821 0.16263353307828796 -0.15739361822642536
0.06641793018570905 -0.07909883359158203 -0.10356443977953145 -0.0340128196161933 -0.09033601387606789 -0.04532852664074148 0.0068377805337233345 0.04463075998919833
0.03987830209475079 0.018170947958310722 -0.04491381165109358 0.051373377305144075 0.032880305399700584 0.11419110390513675 0.15613296380651176 0.16092999471389138
0.13738051766136516 -0.11658632758233876 0.09042406574451048 0.06976297367546759 0.014871967030426191 -0.16913763517368915 -0.07867149014162957 0.10498984638792831
-0.02801028357965306 0.010894300072052516 0.10323523696051688 -0.050721579638018766 0.09822260591710692 -0.17126129641387405 0.14074371864447835 -0.15951146434643987
-0.17623471738280588 0.043470683067421176 -0.04298766607747137 0.1595212310869485 -0.17250982605152285 0.06796324456361644 0.15530853236936823 0.07866528372577701
0.17190689414809493 0.009173600131449975 -0.04097563761624334 -0.08371745803085714 -0.13276695174505565 -0.14164173964364127 0.08363410487929382 -0.12261310836401952
-0.02560241272157444 -0.11208597279950988 0.07327360672772934 0.04554426668387572 0.15036846496906822 -0.00796331998901679 0.06670627617698724 0.16943328279260592
0.0441504108293431 -0.03643203314514938 -0.15427144327774614 -0.12656806832909287 -0.10477737395094525 0.0317785408747255 0.12139851640914331 0.04399798791592881
0.11004138875314393 0.16172114254880568 0.04561966897221494 0.025019954095673178 -0.029751303979893295 0.08825453894283025 0.1705756388011709 0.10463071350917907
-0.17487726184603672 0.02930017022027131 0.05761273225733081 -0.08975283527474888 0.035553619282497013 0.009150073788651047 0.003876827300815587 0.013799070777820274
-0.15542755868250657 0.1503136799455474 -0.13202952545210017 -0.06808438364433667 0.10021357846329891 0.10162089498065144 0.05624419712837164 0.2004632110597593
-0.035239242000969014 -0.17113243220717833 0.17032751133158225 0.12348093748202103 0.1539650406026284 0.010349748972475897 -0.16914601356165304 -0.0875412795119459
0.1018088889720901 -0.13113445901049234 0.16475219209704808 0.0993701136039807 0.18566911566007122 0.1046933032249297 0.1177261770460247 0.09510937143734015
0.08037287059031355 -0.022997081360790646 -0.017694935568828667 -0.02398932450650644 -0.027058260762297105 0.06296993410752351 -0.1294266691751285 -0.04921496036969292
0.025536332521338842 0.08039076882629755 0.1650201355902604 -0.15266047075062103 -0.13661113434691527 -0.11976155059775087 0.0026051142478706554 0.1105033828778015
0.12598914801562477 0.16952757739572716 -0.014348455365598861 -0.1006141186675271 -0.11769656130957935 0.07308796774639814 -0.12270286577057855 0.07229721448361312
0.048728977619362776 -0.1566345196603805 0.15463485684154946 -0.0166645289876023 -0.1254892951175657 0.06811094586567003 0.18183905139434153 -0.09310610673886159
-0.07546052930136266 0.11526810184325594 -0.040143101297087626 0.008881623766550014 0.051627741348714354 0.022963196441592764 -0.009686512479155977 0.021843404871758183
0.11501078383511978 -0.0005497095155195513 0.04162297519425284 0.13336181487305546 -0.16609628176077598 0.08352406380517723 0.003937939969611632 -0.04541505414735724
-0.019486226125835813 -0.041968051981733846 0.043900324406798114 -0.07253427682179305 0.12068107670410552 -0.048622483136455195 0.06842490550490407 0.05629534016126889
-0.03585493974349274 -0.05397042499576708 0.07576093686076779 0.16922193783923617 -0.011158726273879486 -0.08239438203281121 -0.14157596197917488 -0.1113258852822809
0.006835168433339974 -0.005713496163988636 0.03861432121864204 -0.158698787089904 -0.09691649403179936 0.056605005862927334 0.06737293409715062 -0.154504907451674

hidden2.bias f8 [32]
00000000: a20c 0b6c 7d8c b93f 64d3 3da1 61c5 b73f
00000010: 1ab5 a391 8450 c7bf 96e8 37fa 1bb7 a9bf
00000020: fee4 59fc 1d96 c53f 7e7a 2722 4edc c13f
00000030: df4c 18ba af3d af3f 3245 1f09 da67 b0bf
00000040: 741a ba62 ae50 a63f 47a5 0b7c 9634 c2bf
00000050: 2440 b0eb d11d c4bf 12d0 4be6 9e73 86bf
00000060: e431 17b4 047e c13f 15fa 791b 15eb c4bf
00000070: 1e5e 7bda f5ef aebf c2f8 75dc a0de c53f
00000080: f4e1 dbfb 6893 abbf e269 8285 a41d c13f
00000090: d8d3 a486 a60e bebf e831 1aa1 8667 bf3f
000000a0: 3fbe 7e06 fa42 bc3f cdf2 4e65 4519 71bf
000000b0: b81e a620 8589 b1bf 47f5 318c 5842 bfbf
000000c0: e1bf b320 030d 443f 15c8 e081 4034 b73f
000000d0: ebf6 3777 b283 7e3f 655b 32a0 bdb8 983f
000000e0: f1d1 39b9 3bdf c03f 226c 26ad d4b9 aebf
000000f0: 5e9a 0e60 e3f7 be3f 116e 5de6 5785 b7bf
0.09979995620510576 0.09285555063781953 -0.18214470969488944 -0.050225137991177934 0.16864371129830852 0.13953568141637968 0.06101750513712444 -0.0640846512099145
0.043584298659926995 -0.1422298532191155 -0.1571600342581415 -0.010962716487007671 0.13665827554213117 -0.16342414704918498 -0.060424502296595003 0.17085657849015062
-0.05385902475785889 0.1337171222592835 -0.11741104876712372 0.1226734298053952 0.11039698275157493 -0.0041744910021718875 -0.06850463912098348 -0.12210610792859199
0.0006119027397328802 0.0906410519681063 0.007449814921981472 0.024142229941016242 0.13181253952247077 -0.0600115262379506 0.12096997351782465 -0.09187840818543004

predict.weight f8 [9, 32]
00000000: 4c6f 6cbc 43c2 c43f 6a70 0a24 c810 b3bf
00000010: 323a f5d6 adda bd3f 3969 5153 8933 c43f
00000020: 3746 8a24 7584 92bf 1cdc ec1c 7d51 91bf
00000030: 6d61 324f 9f2e b03f ccd0 2108 5bc8 b63f
00000040: 287f c665 677c a43f 86da e99f a40b b53f
00000050: 3a91 1a81 fc26 bc3f fea5 9ad1 7cca a0bf
00000060: 92c8 4441 1029 abbf 3976 1ebc d3c5 adbf
00000070: bdbb 4b9c a188 843f 999a 4c94 9597 ad3f
00000080: ee86 0244 559a a93f 45e5 117f 5a01 b33f
00000090: 67f1 da6b 0258 b93f b789 fa2d 5672 b5bf
000000a0: 6170 4820 bdfb b43f 04f9 2ea1 5ead bfbf
000000b0: ed20 95f3 0c89 bb3f c70f 89a5 371c b2bf
000000c0: 967a f228 47ba 7e3f 1272 c83c fa79 cb3f
000000d0: 1cb3 ed45 06d3 b7bf 0b85 fae0 647c 303f
000000e0: 5997 6853 ae59 9dbf 9716 c40f b9d8 90bf
000000f0: 82da 1459 9ae7 aebf 409a f03d dbd5 95bf
00000100: c456 1043 9f00 b4bf 2555 c908 9428 c33f
00000110: c898 9db3 2a6d b33f 67be 264a 1853 a3bf
00000120: ceda a1e9 6759 c23f ef01 1072 97d4 c83f
00000130: 2219 c542 f595 9dbf f720 e965 c25b b13f
00000140: 2390 fcd6 a605 c0bf f363 e61b 89aa b6bf
00000150: 2185 0a48 77a7 983f be62 8732 5202 bb3f
00000160: d2ea 23c5 9143 c83f a90c 641a dc36 87bf
00000170: 921d 7d99 95b7 b13f 1275 6244 8ce7 c23f
00000180: ffa6 7470 8a7d c5bf ac27 05cd 9796 8d3f
00000190: e66a 0dda 8a49 bfbf 06d3 a97a 9363 c53f
000001a0: ccf4 5207 ac4e b2bf 7f7d 1f34 9182 b93f
000001b0: d3d8 e10f b4e2 c1bf dd95 77b7 3e2a c2bf
000001c0: db4a f81b 2b31 80bf 2724 3990 a464 b4bf
000001d0: fa39 0a48 6542 c2bf df9b 879d 9e83 cb3f
000001e0: 4122 dc78 b35e bc3f 292c cef9 38b0 bfbf
000001f0: 22e0 a1a1 3ec0 c4bf 06dd da27 129a b0bf
00000200: 3edc 372c 3c6d c23f 299e 7b31 cb9f c23f
00000210: 3d18 1849 3b46 bdbf f821 250c 3f29 c2bf
00000220: 1617 a440 0c19 b7bf e2a1 fb35 0657 c53f
00000230: e483 f32e 53ef 823f 4d16 18a3 356b b53f
00000240: 485a c3ec 4d97 83bf 1c5a 5a9e 9c50 ae3f
00000250: 6841 7ec7 a01a bebf 5dea 1770 5181 bbbf
00000260: bb19 5700 7d70 c23f bb40 dc21 b9ce b0bf
00000270: 502a c2bd 6001 c13f 290a e7f7 d858 c2bf
00000280: ab3f b2e0 a055 c4bf 13e3 c454 0296 c6bf
00000290: 1968 cf3b f3b8 acbf 3dea 8fb5 527b 9e3f
000002a0: 24d5 445b 41be a93f cf1b be21 ced9 bfbf
000002b0: 6b97 98d1 080e b33f f33c c247 e147 b1bf
000002c0: fc25 5232 bde4 683f 420e 3c1f 8398 c73f
000002d0: 8bb6 f0ba f4cb b0bf 116c 1a8e 1466 c33f
000002e0: 6a19 4993 19c7 c53f 88de 58d8 baa5 bbbf
000002f0: 9f86 0f2c 2e7c c5bf 2a01 55c0 485f b03f
00000300: 284d 8203 5939 cb3f a139 79d0 3fb0 c23f
00000310: 0d9d a66c 2ecd c1bf b081 7db9 11ff a63f
00000320: 2a83 2180 73c4 a7bf e099 8ad6 0f81 be3f
00000330: 1445 8290 aaad b43f 2322 4d84 a7c6 c1bf
00000340: 14aa 6e06 b151 bdbf 1301 299b eca9 a83f
00000350: efca dac0 8d2a ba3f bb27 76cc fc6f ad3f
00000360: 4385 8fc1 fe22 c2bf 181c f23b abb9 c1bf
00000370: ee60 38fa 372e b7bf 6ab2 8f2e a5bf bb3f
00000380: 2d4c 1540 e1c0 853f dc54 4ca8 9dff 813f
00000390: 319a 4c46 be70 74bf 58ee 2c03 c7af b5bf
000003a0: b559 5f41 3c94 b33f edce eb9f 741c ad3f
000003b0: 643c 44af 2060 bfbf 9125 8067 2016 bb3f
000003c0: c072 cdcf 0ecf c23f 86e9 df57 6a6a bf3f
000003d0: f207 9d87 b96e c0bf 6746 ab54 3205 c63f
000003e0: d6cf 823b faac c43f ec40 e63f e31a b8bf
000003f0: eae0 9cea bf0c a6bf c18b 64a2 356f b7bf
00000400: fe64 4231 8169 b03f b38b 35d6 3abb b0bf
00000410: 71a4 d6c5 6849 bfbf 033a 5d06 e639 ae3f
00000420: 3c23 25d8 a584 70bf cb03 5a60 42b9 c93f
00000430: c9dc aa2b 8373 c03f 6400 1ddb 6ca6 c33f
00000440: b765 b3d4 6f18 c3bf ab36 3182 5da0 b2bf
00000450: a3e5 37e6 980f a63f b163 3b26 cf54 c0bf
00000460: 4eb9 a066 3c5e c43f de67 733c 42ca c53f
00000470: 9298 9f67 1ddc ba3f b164 5c5c e65c b7bf
00000480: 25b2 0909 2961 a0bf 9a95 61c4 acee c23f
00000490: 068d 9952 523e ab3f 950d 7caf 9dcb 923f
000004a0: c4dc be78 d9e0 bb3f 3bf2 e9a1 356e ba3f
000004b0: 8fc4 edb6 0579 a4bf 7eba bd45 01c4 823f
000004c0: 9da9 1e7c a8c7 7c3f 115b 6871 adac b7bf
000004d0: fd63 4a7c cf90 b43f ef33 c932 6d14 c93f
000004e0: 504b fc4b 262d a63f 2024 8985 2129 c03f
000004f0: 7c8e d0f5 c003 91bf 0ec9 356e a277 b3bf
00000500: 7bc8 c62b 3c08 acbf 1383 b0ea 193f a7bf
00000510: 9ff5 7d49 d2b9 c6bf 8c4b 8797 ab67 783f
00000520: 9e3e c8e6 4a1c b63f b358 18ba 06dd 7f3f
00000530: 3ede 2211 017b c5bf 24e9 6ecb e31a c33f
00000540: 1210 a908 4b55 c43f b50d 85af 1a70 7ebf
00000550: cfaa 5a9b 7afc c03f edd4 0b0e 89bd b43f
00000560: d875 7d5f 303f b5bf e35f a207 f527 ba3f
00000570: ce94 4707 e922 c63f 42e0 db6e e2a6 b03f
00000580: d277 f61f 182f c2bf 3d1f 11ed 45eb b83f
00000590: 7e17 6dea 20db b8bf ea4e 93e2 ad09 c3bf
000005a0: c684 658b 47fb 60bf 63ee 811c c670 c33f
000005b0: 332a 2acd d669 c5bf 01c5 d6a2 d1b3 aa3f
000005c0: 02f3 a1c2 c65c ab3f fa58 be02 caa7 c53f
000005d0: e14d ccbb 19a1 b53f 772a 1031 f8e7 c23f
000005e0: 71f4 e082 2a0d ad3f d6a3 57d4 cc3a c23f
000005f0: 57e8 383e d870 bfbf ec64 3562 4319 c13f
00000600: 57b0 a959 71d9 bb3f 6be8 63b0 6ae5 c2bf
00000610: 3aa9 e1d1 61f4 93bf 0a15 db40 aa03 a0bf
00000620: 9e77 7aae 08a0 a3bf 0aa7 3e84 9fb8 b83f
00000630: 9aba d7cf 482c a3bf 442f b04b 8168 c43f
00000640: 81b0 d341 845f b3bf 960c 43f0 7d8f a03f
00000650: 05cf 394a a80e c13f d620 5f91 28a3 a7bf
00000660: b1fa 9f38 2428 c33f 5d7c c9ee 1e2e b8bf
00000670: c04f 2b72 2e22 ba3f 616e 53e0 b70a 933f
00000680: a9e8 89b4 1a8d 72bf 7467 0f0f 8505 93bf
00000690: 8989 4a61 2e52 9cbf a51e 964b a560 b2bf
000006a0: 9c0c 4987 156f c23f ca96 77ca 28d5 aabf
000006b0: c634 bda0 b670 bcbf e470 2c7d bc15 c43f
000006c0: a37f b343 002b c1bf 122f 142e 529b b33f
000006d0: e2e5 39fa f4bc c23f 8e5a 499c efe7 a9bf
000006e0: 0f93 d47e ca80 abbf c0fe c575 c437 c0bf
000006f0: 05e4 40ef b601 a23f 48a9 3f24 bb09 c3bf
00000700: 30c4 6209 7e63 703f 7444 035b f86d c23f
00000710: 2496 ffae c332 a73f 0760 798c 58d1 c13f
00000720: 3b9b affd 6112 b3bf 0f18 9888 1763 abbf
00000730: fa80 900d 6e41 843f 8eda 6947 7b47 b4bf
00000740: 6c32 89de a8be c23f 72d2 b038 9f38 aa3f
00000750: b594 912c 1368 7bbf f516 61d5 b795 c33f
00000760: 6b68 c8df 3b4d b5bf 179a f9d0 2793 c53f
00000770: aa16 b7c7 fc1d c63f 38d2 0d47 0f4c c13f
00000780: 08d8 c460 1a0b b8bf 22bb 67f9 0426 b4bf
00000790: 7556 c878 d092 b93f fd19 67f9 0139 a13f
000007a0: 59f6 3dcd 8bb8 b93f 61a1 c3c7 20ae a6bf
000007b0: 2450 1238 b450 b5bf b642 8fea f7c6 babf
000007c0: af0d 1185 23d1 bbbf 317f d248 87a9 c53f
000007d0: c709 2ffe 4c19 a53f 2925 06f3 64f4 993f
000007e0: e102 b625 fa98 a4bf c705 ef3e 7398 a03f
000007f0: d09f 3dd0 769f bbbf db78 c51d 8593 b93f
0.16217848492021358 -0.07447481994535257 0.11661802766796184 0.1578227669550161 -0.018083410601837904 -0.016912417307335045 0.063211399874836 0.08899468372857483
0.04001162640929429 0.08220890907419162 0.10996988441417424 -0.03279485758441679 -0.053047664611214476 -0.05814992591261298 0.010026228506346041 0.057797121384557566
0.050005592872606516 0.07423940279285997 0.0989991677587959 -0.08377588865781758 0.08196622884901351 -0.12373916087287645 0.1075599760707779 -0.07074306289092568
0.007501867264322689 0.21465995757979833 -0.09306372840155713 0.0002515550886333518 -0.028662418213705496 -0.01645173224189608 -0.06036074006481319 -0.021323609977253577
-0.07813449275303258 0.14967585019136567 0.07588450322291174 -0.03774333863418349 0.14335345180344067 0.1939877802797265 -0.028892357063591174 0.06780638683369831
-0.1251724767436154 -0.08853966647292548 0.024076331874885008 0.10550416692366135 0.1895620548819666 -0.011335105471977096 0.0692075252273894 0.14769128169147244
-0.16789370051383654 0.014447389549463306 -0.12221591781182503 0.16710132111952464 -0.07151293925103913 0.09964854738745109 -0.1397309377241017 -0.1419142146907423
-0.00790628127200448 -0.07966068764757549 -0.14265123384070916 0.21495421115761723 0.11082002354317756 -0.12378269289745049 -0.16211684124186926 -0.06485093567868114
0.14395858916370402 0.14550151744991638 -0.11435289892696772 -0.14188373654384612 -0.09022595003270015 0.16671826969037712 0.009245538587892406 0.08366713744916261
-0.009565933978973665 0.05920876915950066 -0.11759381170691585 -0.1074419878640724 0.14405787006962875 -0.06565434528988849 0.13285455003308977 -0.14333641152013968
-0.15886317225931398 -0.17645291461101262 -0.056098557520911814 0.029767315227198877 0.05027965773698842 -0.12441719363970026 0.07443289868441887 -0.06750305177614617
0.003038758778136195 0.18434180283667173 -0.06561212123843967 0.1515527433265054 0.1701385468642898 -0.10799758703148588 -0.16785218383215736 0.0639539212761561
0.21268761321389573 0.14600370101329666 -0.13907413773743152 0.04491477383885767 -0.046420678511600436 0.11915682781054882 0.08077493694351673 -0.13887495002769965
-0.11452776343382026 0.04817141908688618 0.10221181829801272 0.057495021780666865 -0.14169296694948672 -0.1384786646560492 -0.09054899081127463 0.10839302431822664
0.01062179543320071 0.008788329790642306 -0.004990332851582611 -0.08471340014960427 0.07648064228064906 0.056857723733541345 -0.12256054190605564 0.1058063748061129
0.14694390436752336 0.12271752019288415 -0.12837905046222847 0.1720335877821981 0.16152885347184903 -0.094160273647734 -0.04306602229047647 -0.09154067244212084
0.06410987331982551 -0.06535690049854175 -0.12221388654747202 0.059035480763316904 -0.004032752827989591 0.20096616463345493 0.12852515823553848 0.15351639460459687
-0.14918325315265488 -0.07275947979470725 0.04308774767191472 -0.12758817068859465 0.15912585269092933 0.1702349467439594 0.10492118625515648 -0.0912612891664988
-0.031991274216896216 0.14790877903867 0.05320985086725653 0.018354858241776368 0.10889968107118181 0.10324416354155456 -0.03998582704560604 0.00916291231234578
0.007026346343915438 -0.09247859972706986 0.08033463272512616 0.19593586902411128 0.043313214088036234 0.12625521679208962 -0.016615881923043294 -0.07604422751117942
-0.0547503283918482 -0.04540329923498212 -0.17754582012632356 0.0059582426842607165 0.08636921057063282 0.007779146458707742 -0.1678162892983312 0.14925811227096475
0.158852938870155 -0.007431129685133643 0.13270504556324744 0.08101708023953665 -0.08299543696690337 0.10217219768890078 0.1729403768105499 0.0650464554454411
-0.1420622020786469 0.09733998334661194 -0.09709363673490931 -0.14873288691762038 -0.0020729443887580216 0.15187908546419057 -0.16729245202835016 0.0521531592634208
0.05344220281492619 0.16918301710092704 0.08448944888032585 0.14770414729749223 0.05674107406273599 0.14241943710592747 -0.12281562346552853 0.1335834722074546
0.1087866634276805 -0.14762624371343533 -0.019486931262158814 -0.0312779621286073 -0.03833033685553676 0.09656712511664636 -0.037447238322660684 0.15943924136842658
-0.07567621810057014 0.03234475667843488 0.13325980781848315 -0.04616667532497025 0.1496625210274565 -0.09445374803316171 0.10208406722386965 0.01859557444264082
-0.004529098813344992 -0.01857574371738431 -0.027657246292287083 -0.07178719611521929 0.14401501756410517 -0.05240752669832956 -0.1110948698453341 0.15691333877555913
-0.13412478738518727 0.07658876061412581 0.14639150827478803 -0.05059765608591703 -0.05371697233412053 -0.1267018866601486 0.0351693312699766 -0.1487344672198765
0.004001133280483279 0.1439810223005541 0.045309176551921376 0.13920122965896572 -0.07449924891953412 -0.05349038641365677 0.009890422619776452 -0.07921572202199398
0.14644347063076013 0.051213241262677026 -0.006691050432981506 0.15300653380307208 -0.08320974553535769 0.16855333045823848 0.17279014350622407 0.13513365716393522
-0.09391941893122191 -0.07870513047212715 0.09989645909112162 0.033638059324903914 0.10047220001976011 -0.04429724157836535 -0.08326269501623124 -0.10459851719429988
-0.10865995405861527 0.16923609786771857 0.04120865443066495 0.025346352894790734 -0.04022962293948296 0.03241310256226942 -0.10790197929384182 0.09990722634163111

predict.bias f8 [9]
00000000: f8dc c2b7 14cb 9a3f 02ae cae6 2f22 c03f
00000010: cd5b cfa2 ceb6 c33f 7f56 dddf 8610 c33f
00000020: 766b 7dda a00f b9bf 6d64 6ba9 73dc c93f
00000030: fe52 0555 490b 64bf db29 ba4c ea7d bd3f
00000040: 7699 9a97 5711 c63f
0.026165317264454452 0.12604330796362723 0.1540163321467091 0.14894185953987812 -0.0978947194502505 0.20204015514790133 -0.002446788050443848 0.11520256398413357
0.17240424063238508
