task2morph/02_flip_box/model/flip_model_parameter_reference_3.pkl (torch, 14693 bytes, 6 tensors)

hidden1.weight f8 [32, 5]
0	0x3fd599bc34f90578	0.3375082509338294
1	0xbfd34b27c87e8b73	-0.3014621217682169
2	0x3fbf2eea38e9570e	0.12180961503449003
3	0xbfd8af491cf63101	-0.3856985838726957
4	0x3fd1102ecdaec095	0.26661272131151154
5	0x3fc85f0706e1d2cc	0.19040000759164
6	0xbfd7afe60d6749f3	-0.37011100109989953
7	0x3fb8b6b97316674b	0.09653815326455832
8	0xbfd0cf16b21ef21e	-0.2626396884404886
9	0x3f7e88b52e75423a	0.007454593410628757
10	0xbf46b8bc4fe3fdea	-0.0006934089176695
11	0x3fb20ac802d3d3b0	0.07047700947789681
12	0xbfd5c508e7036f2c	-0.34015104827789133
13	0x3fd49c824dca3cd0	0.32205255123785737
14	0xbfb8067f52a2addc	-0.09384914176433007
15	0x3fc6e8a6cd614086	0.17897496250452977
16	0xbfdc7893644c9b63	-0.44485935969207996
17	0xbfda7b23a42c0dae	-0.41376582176618626
18	0x3fd8d6871fc1d9b9	0.38809373952190246
19	0xbfccefae0a3ac899	-0.22606444835179643
20	0x3fcaa84bf424e27b	0.20826100751016327
21	0x3fd8f74de8b40e55	0.390094258546218
22	0xbfdbbcd0fd0e3793	-0.43339943611578596
23	0xbfc3a3019bc27131	-0.1534120569748523
24	0x3fd2299e4fd5f57b	0.2837901858946094
25	0x3fc4cbf19a921130	0.16247386977568956
26	0xbf96ffb5ae1a8834	-0.02245983004707615
27	0x3fcd312c83de444d	0.22806316794279483
28	0xbfba79b9f7e3269b	-0.10341989805160738
29	0x3fd3fcd9635cd116	0.31230768874526527
30	0x3fd1205c610ae015	0.26760014988713127
31	0xbfda167ceae04872	-0.4076225560867278
32	0x3fc05d76225f02a7	0.1278522174670986
33	0x3fc6b6424c533a1c	0.1774371025735072
34	0x3fcb93145beff99e	0.21542601098185526
35	0xbfce765676a6338b	-0.23798638146800175
36	0xbfc1c84fb2dd12d2	-0.13892551644871404
37	0xbfa8b4eea91d01db	-0.04825540365573363
38	0xbfd6400a22031def	-0.34765866586209787
39	0xbfcfd6141fa81253	-0.24872066064576134
40	0xbfc9086637266ea6	-0.19556882565381278
41	0x3fb0ef7b6395f557	0.06615420514386493
42	0xbfd9438b32a6db11	-0.39474754282439145
43	0xbfc2c5b6b3925f31	-0.1466587426009425
44	0x3fcadd7da2815743	0.20988436159921706
45	0x3fd5b3b6845ca443	0.3390938084217547
46	0xbfc3c5aa61c0aeb6	-0.15446977398948086
47	0xbfd454652b2efaf9	-0.3176510736192735
48	0x3fd3b93e25bc82a7	0.30818132100288625
49	0x3fbc424131060811	0.11038596579422257
50	0xbfd549b4d815e622	-0.33262368299583234
51	0xbfd41deb3acddbd1	-0.31432610266295763
52	0x3fd09eec8f133386	0.25969995472114993
53	0x3fc074f2ced7016c	0.1285689840278893
54	0x3fd837294a5057f5	0.37836677796565193
55	0x3fd3b4f7dd7d7af0	0.3079204237928215
56	0xbfc41236ec6197eb	-0.15680586378147096
57	0x3fcc6bf4e6598ce8	0.22204457519101273
58	0x3fce29f2266679ca	0.2356550872327275
59	0x3fd41c803a47aa07	0.31423955623054706
60	0x3fa63c8a4ee838d1	0.043430635578361916
61	0xbfd9be1cc22b101a	-0.4022285362409562
62	0x3fdb7629e4f0495c	0.4290871368149476
63	0x3fd3b90bef9e9690	0.3081693496736557
64	0x3fd011fc18930658	0.2510977020247984
65	0x3fb4e771bab4b37c	0.08165655906914354
66	0x3fc83a1807036054	0.18927288381996965
67	0xbfc4f49556e60439	-0.16371409171191134
68	0x3fd1ab7926d89843	0.2760908965450463
69	0x3fd779aea56524b6	0.36680189277519604
70	0x3fd74f7e0bb84498	0.364226828999628
71	0x3fbfc57c82f762f0	0.12410715291424501
72	0xbfdc5a0daa5980b1	-0.44299642215447493
73	0x3fcce8d659e1a8aa	0.22585563076728948
74	0xbfd20196b5ea563e	-0.28134696736501386
75	0x3fa0410ea54d10e2	0.031746347120618315
76	0x3fd2c4616c13dbae	0.29323611788225434
77	0x3f627692f07c2942	0.0022538061056184564
78	0x3fceb97b6bf8a7b4	0.24003546497379846
79	0x3fdbcf2dd56022a5	0.43452020490125626
80	0xbfcf2e00961ee008	-0.24359137849910462
81	0xbf94cc104a284b27	-0.020309690977295205
82	0x3fa8184b12ef14fd	0.04706034284712677
83	0xbfc531849bcd5369	-0.16557366950533073
84	0x3fbaa539809c89b3	0.10408362760475746
85	0xbfdad65e0a91977d	-0.419333944626821
86	0x3fbf8d541740eb29	0.12325025146212155
87	0x3fb3139ab0e74f47	0.07451788729605112
88	0xbfb537af6692105b	-0.08288093809284318
89	0x3fda4b958e427b9d	0.410863293576705
90	0xbfd932171df26b35	-0.3936822693300884
91	0xbfd0c25ec0ce345f	-0.26186341122303775
92	0x3fd00e3521cf8eda	0.250867159860929
93	0xbfc2327d7d64355f	-0.14216583845738293
94	0xbfd39ca6876e0e97	-0.30643618798806344
95	0x3f6ccaac9818e729	0.0035146113375760413
96	0x3fc0641ae4fafed8	0.12805496388135995
97	0xbfbdc291ced7e103	-0.11625014591107079
98	0xbfd93e487426d5b8	-0.3944264539998943
99	0x3fd6ed50935c9979	0.3582345427588716
100	0xbfd6f9b829c5b1ab	-0.3589916618282369
101	0x3fd4c6574a261524	0.324605772410296
102	0x3fcc61b621d2717a	0.2217319169184398
103	0x3fb3643085e7786e	0.07574752110619595
104	0xbfce73beb47a820d	-0.23790725529126214
105	0x3fbd0d9a3dbf100e	0.1134888077495477
106	0x3fba4fd3fbc59e62	0.10278057953620981
107	0x3fdbb8add7213147	0.4331469155192917
108	0x3fa5787bfac0d429	0.04193484722092251
109	0x3fd4b237e22fa20d	0.32337758148654033
110	0xbfb62acbb4e3cc7f	-0.08659051100021208
111	0xbfdaea8a9104d505	-0.42056526338576844
112	0x3fca0b938c6bf22d	0.20347828251387182
113	0x3fd395e3a37993fa	0.306023511546584
114	0xbfd8b45a710a1d34	-0.38600789107336486
115	0x3fd6f1d25c88cfb0	0.3585096267372547
116	0x3f9547952c25abd4	0.02078087884857978
117	0xbfdc17904c3091ca	-0.43893821182635107
118	0x3fd5ee521893b8b8	0.342670940400136
119	0xbfa5f3ed29932d6f	-0.042876635861456396
120	0x3fdb126d7f355c69	0.42299973890971515
121	0xbfd646e1868a3757	-0.34807623041785035
122	0xbfd924c6db5f555b	-0.3928696768101269
123	0xbfd620b543355940	-0.3457463413555111
124	0xbfd3327ba551c850	-0.2999562372634772
125	0xbfd00663babedc41	-0.2503899882971759
126	0x3fd712562745a75a	0.3604941733852819
127	0xbfca6142a220f8b7	-0.20609314838833878
128	0x3fb384037172f43a	0.07623311538459712
129	0xbfd56a8bb14c931a	-0.33462803186766765
130	0xbfd94e1e5efce331	-0.3953929832091943
131	0x3fd6bb9a7ea1912d	0.3552004086143537
132	0x3fb3bb070ff818db	0.07707256450530357
133	0xbf7dc8c5d117f7dd	-0.007271549913182765
134	0x3fddd6c31f93062f	0.4662330444662954
135	0x3fd2b169d4b12ed1	0.29207845469202903
136	0xbfb6432376e773d9	-0.08696195271427544
137	0x3fd8cb342314c67f	0.38740256715673377
138	0xbfd012aad1155e73	-0.2511393586951051
139	0xbfabedb10f8ba025	-0.054547818324693055
140	0xbfd67feea7f91802	-0.351558364902644
141	0xbfbb5d6256ad5f57	-0.10689367881911714
142	0xbf94710fd952e8e5	-0.019962546958347444
143	0xbfd679402defd5da	-0.3511505554773443
144	0xbfcb40e2aee957e6	-0.21291764774895156
145	0x3fdce83b4fcc8fe2	0.45167429726484276
146	0x3fd4e5f1b80d689a	0.3265346810709474
147	0xbfd048ac36eab090	-0.25443559039082064
148	0x3fce2ed5736e484a	0.23580425392407484
149	0x3facc412db297287	0.05618342328373154
150	0x3fd0829364bb9ac8	0.257969711658387
151	0xbfd0040272466ae4	-0.25024472388910923
152	0xbfbc8a48089fd645	-0.11148500643306487
153	0xbfd65df1a193d45c	-0.3494838788895487
154	0x3fa09d2f2e7bbfdf	0.03244922106193803
155	0x3fd2fd3e680b88e0	0.29670677338266493
156	0x3fa4de46fa02fcb2	0.04075834085369347
157	0xbfdc3a73f8619508	-0.441067688522097
158	0x3fdba533aaca21a7	0.4319581191889718
159	0xbfd6bd7b77f52223	-0.3553150817356558

hidden1.bias f8 [32]
0	0xbfa6b651a1ca7f2d	-0.04435973262775259
1	0x3fc922ff86e331dc	0.19638055883696282
2	0xbfc60be8236204d4	-0.1722383663909911
3	0xbfcf7da500d329f0	-0.24602186718250563
4	0xbfbb0efe8d2b702d	-0.1056975454952755
5	0x3fb7dc724dbd6e59	0.09320749662350049
6	0x3fa8b61ac80f19b6	0.04826434795500083
7	0xbfc84c4d6c6593a6	-0.18982856552898147
8	0xbf96e1550dcc6829	-0.022343949286643437
9	0xbfc4cc1d30a2db42	-0.16247906565487297
10	0xbfda4881dd2e71a1	-0.4106754932379549
11	0x3fcbcde4c5c500a9	0.21722087532726178
12	0x3fda98ca7bfb4d2a	0.41557561976988444
13	0xbfdaea71f3e906bc	-0.42055939502106887
14	0x3fd895ab2dfaf3d1	0.38413505068075177
15	0xbfd05cac5e0b7bf2	-0.2556563299567066
16	0x3fdcaa7dc21667ad	0.447905959642976
17	0xbfd15a7aa9b78190	-0.2711474091902568
18	0x3fcb0b2873922e8c	0.21127801554790826
19	0xbfd991ac8234a6e0	-0.3995162269153365
20	0x3fb852c59faae55b	0.09501299999364703
21	0x3fad15511330e52e	0.056803258507395746
22	0xbfdc37f7e6cba6c1	-0.44091603792785966
23	0xbfaf3d879c31b28b	-0.06101630956331857
24	0xbfc0b536b7986134	-0.13053020443545338
25	0xbfd2db5ec7d5d24a	-0.29463929667625577
26	0xbfd0532684f697b5	-0.2550751017064344
27	0xbfc162d8603b2225	-0.13582901667383954
28	0x3fbf5ebc7c595118	0.12253931079732572
29	0xbfd3df0a9704a17a	-0.3104883646760964
30	0xbf9df9ad9d664717	-0.02927275918188518
31	0x3fce5c7c4dbaa1ef	0.23719743533480606

hidden2.weight f8 [32, 32]
0	0x3f85b3d160eaadf7	0.010596881647265894
1	0x3fadaafa131997bb	0.05794507487443875
2	0x3fc5042707fd914b	0.16418922319565818
3	0x3fbd5a9eb60f0630	0.11466400093834106
4	0x3fc15ed311225014	0.13570631348250173
5	0x3fc10049a3b48d1b	0.13282127850934775
6	0x3fb566deb339fca6	0.08360092044493914
7	0x3fa8be5b4936cbba	0.04832730549551152
8	0x3fc01a9aad83e638	0.12581189606116694
9	0xbf9cca4d415db6e8	-0.02811547004187434
10	0x3fb8d344570d22f8	0.09697367787624589
11	0xbfc69eab727cd04b	-0.17671721544468463
12	0xbfb2d299ef1b5223	-0.07352602088514763
13	0xbfc6714695738d18	-0.17533190057211168
14	0x3fc3144353bdba3b	0.149055877579899
15	0xbfa67dcfd51efc02	-0.04392861820769413
16	0xbfb8533c3174e01e	-0.09502006728587317
17	0xbfc3fd6dc873587b	-0.15617153442025597
18	0xbfc1608db8f43a12	-0.13575908213574955
19	0xbfb588ed31d12f43	-0.0841205832122656
20	0x3fa949d6af1528bf	0.04939146888007561
21	0x3f680271c6be6b12	0.002930853099269889
22	0x3fa8861d23fbfa5f	0.04789820732365934
23	0x3fa2e5cdbdfc753c	0.036909512941046135
24	0x3fb9e72f772ad69e	0.10118385943754979
25	0x3fbcd9ad233cc4aa	0.11269647703444954
26	0x3f9cac8a4d760504	0.02800193879875669
27	0xbfa945ee3e8b3e57	-0.049361653456455094
28	0xbf97ce9e71e26914	-0.02324912614913284
29	0x3fa189de3d70cab8	0.034254975318977754
30	0xbf8c9b7efdbebc11	-0.013968460196194273
31	0xbfbe926d3582359f	-0.11942179256785444
32	0xbfa08a3ba43f43ba	-0.03230463390321554
33	0x3fc610bfcd530929	0.1723861458359093
34	0x3fb8afc233d97614	0.0964318634591666
35	0x3f9619d6cf515f67	0.02158294334762392
36	0x3fa5fb1dc25412fc	0.04293148991749793
37	0xbfbdcc3635c344c3	-0.11639727413718774
38	0xbfc2db36de50c297	-0.14731489043471832
39	0xbfb961442e2d8e80	-0.09914041640655036
40	0xbfa11275b254ba2a	-0.03334396173373862
41	0x3fbee7995c008af5	0.12072142120500103
42	0xbfc3c6f4bd1a16cd	-0.15450915559283943
43	0xbfc12f8a19a35492	-0.13426328899246137
44	0x3fa17bd1a4d021f9	0.034147788399483354
45	0x3f8e37864ec7d004	0.014754342345419509
46	0xbfa75b0198896656	-0.04561619746227723
47	0xbfa797542448c8d5	-0.04607642119334946
48	0xbf9a7518ce7de9e8	-0.025837314227354385
49	0x3fa20dee9a18404e	0.03526254302062225
50	0x3fa00ea9e93bcd84	0.03136187526788617
51	0x3fb8625fe476ef36	0.09525107696293564
52	0xbfb080e3b073c73a	-0.06446669633785698
53	0x3fb939ac664ffa94	0.09853627679692983
54	0x3fa3cd323d2d97f6	0.038674898117093834
55	0x3fbd8443653bc2b2	0.11529942723769684
56	0xbfb9e3b06032d572	-0.1011305079326428
57	0x3fc49c6b2ecac3eb	0.1610235193707291
58	0x3fc4274362eb634d	0.15744821863224914
59	0x3fb1c79bade407b5	0.06945202823047121
60	0x3fc03b714420e18b	0.12681403948387202
61	0x3f9b4368b9aca5eb	0.02662433274523394
62	0x3faa8a4fa4310a40	0.051836479943194735
63	0xbfc1022ce6ccd173	-0.13287888783964838
64	0x3fb0b915082b39e8	0.06532412957606193
65	0x3fbb48dd6a6309cd	0.10658058020911838
66	0xbf9bf8e74ab6e2c8	-0.027316678939061118
67	0xbfc198b0bea0ec54	-0.13747224147832304
68	0x3fac8248e9fb5f3d	0.05568149429535516
69	0xbfb8cc1fa54d2e85	-0.0968646791999906
70	0xbfb89ee94d1ad716	-0.09617479450647823
71	0x3fbf539937efe2e4	0.12236936202669885
72	0xbfc86a5cc7b46e68	-0.19074592353068742
73	0xbfc10b9c72a9536a	-0.13316684340193358
74	0x3fc1f7b9554ca6b6	0.14037243523607906
75	0x3fb59fe26f694fb7	0.08447089405063833
76	0xbfb707f563530053	-0.0899651877871304
77	0x3f710c715fd2386d	0.004162257068982195
78	0x3fb0fcc66a28de9c	0.06635704128063441
79	0x3fa2759f26debc5f	0.03605363225448665
80	0x3faf06722b0dc07a	0.06059605384405216
81	0xbfa66e739e0920e0	-0.04381142906328406
82	0xbf9c6dcc007772d8	-0.02776259186599614
83	0x3fc0c9ee39b95635	0.13116243189385704
84	0x3fc19bb7c9bd0e24	0.13756463385117101
85	0x3fcdaac3c8faa2ca	0.2317738276808739
86	0xbfb80c6c3bef6ca6	-0.09393955672514895
87	0xbfc30cc869d67782	-0.1488276020799582
88	0x3fa539e673888f68	0.04145736847229281
89	0x3f852656c8c3e2da	0.010327032091013977
90	0x3f789eb22dbe6ff7	0.00601071930932661
91	0x3fa71601e991037a	0.045089778672724415
92	0xbfad634e25f64d74	-0.05739826405911233
93	0x3faa0ea79664eb5f	0.05089305601946736
94	0xbfb24a5670592657	-0.07144680254818901
95	0x3fb058a32d21d368	0.06385249950274174
96	0xbfb000dfd6b379f4	-0.06251334182477547
97	0x3fbc3329d55a3fd7	0.11015569170763172
98	0x3fc44b4cfb78d668	0.15854799536616615
99	0xbfc74035af1f082b	-0.18164702463951818
100	0x3fa7a115fbeaf88e	0.04615086269539957
101	0x3f9d26ec197a5270	0.02846878915313983
102	0xbf9f2f15e2651de5	-0.030453054373792105
103	0xbfc540e884d72b37	-0.1660433434138555
104	0xbfb41dbb7152ca9f	-0.07857867733654665
105	0xbfc57047a22bc997	-0.16748900812633558
106	0x3fb3aee32e101119	0.07688732027606128
107	0x3fc57f15c8cc0e1a	0.16794082932038706
108	0x3fc6f1d998d37584	0.17925567590911495
109	0xbfacb5f88e6a2b9b	-0.056075827965364776
110	0x3fbf7bb9b413e7f8	0.12298164984159132
111	0x3fcf27821ab6ff31	0.2433931951945794
112	0xbfa2ff40b2b01b2e	-0.03710367375611266
113	0x3fb9f8a893de3c6c	0.10145047769604937
114	0x3fbdf5b7d122bb1e	0.11703060966349851
115	0x3fb9136f06046e5f	0.09795278450877153
116	0x3fc68984005de529	0.17607164400014
117	0x3fcd20c175ca2849	0.22756212474297602
118	0x3fc45931b32cddad	0.15897198914329405
119	0x3fc333662b925228	0.15000607612150074
120	0xbfbbea49887c4a64	-0.10904368955770277
121	0x3fc37d45a99fbf93	0.1522605016939421
122	0x3f90198817e69413	0.01572239538076665
123	0xbf98bc3d90992f57	-0.024155580473503715
124	0x3fc1954e99e558c4	0.1373689891285662
125	0x3fc11a84c9c6f624	0.1336217866172983
126	0x3fc42560c76d1200	0.1573906873474158
127	0x3fbb3dc85243da68	0.10641147621559244
128	0xbfbecfc5539b86ac	-0.1203578309173518
129	0xbfaf0ddc9105cb1f	-0.06065263052268776
130	0xbfc0456fa649731c	-0.12711902255514296
131	0xbfaf509cf8388965	-0.06116190462150221
132	0x3fb4f10c5ab92591	0.08180310454294772
133	0x3fb3ce9bfc1ab501	0.0773713579644273
134	0xbf902b58bd196765	-0.01579035429163102
135	0x3f70716e49c29036	0.004014426053036193
136	0xbf7701f913063a5a	-0.00561711592344113
137	0x3fb73b7a070d3f36	0.0907512919632126
138	0x3fc387e3e53e56b1	0.15258454030543114
139	0x3fb2d4151223fe0e	0.07354861920247677
140	0x3fc3aaa7eee58aa2	0.15364550747752498
141	0xbfa977cd3f85aeb0	-0.04974213982026521
142	0x3fb65e1aa707f138	0.0873734147825801
143	0xbfbd6ee4374bfc6c	-0.11497331953067808
144	0x3face3060411bcf6	0.05641955184625573
145	0x3fbe81b0b28f1b8e	0.11916641578055318
146	0x3fbb8ab51da66437	0.10758525823475017
147	0x3fbfe246c4b330dd	0.12454645445103858
148	0xbfb2f6eaeadbd369	-0.07408016427855348
149	0x3f9cb0f85859f82b	0.02801883734945691
150	0xbfbf5de424e98d6f	-0.1225264158361392
151	0x3fa56bc2b76be347	0.04183777321845255
152	0xbfc3d0d0ce751edd	-0.1548100479214928
153	0xbfb130cbb210971f	-0.06715081307683278
154	0x3f9f93cf80d12e76	0.030837290036556962
155	0x3fc34cd69afe2ea2	0.15078241889965677
156	0xbfb41698c2b9db58	-0.07846979860356151
157	0xbfc607a929ddb15c	-0.17210878891217873
158	0xbfac3bc9d27fe480	-0.05514364904952007
159	0x3fac233eaad9f410	0.054956396442300215
160	0x3f93f53da0e874be	0.019490206666991076
161	0x3f7282d3ea1c12c9	0.004519298354129738
162	0xbfc27579d149eb23	-0.14421007842232667
163	0x3fb1544c72c5f6f8	0.06769254495699417
164	0xbfbc2d549528f23c	-0.11006668702697991
165	0xbfa98677f46a34e2	-0.04985403879718732
166	0xbf9cf0763c76e355	-0.028261039200262534
167	0xbfa352feeb5f96bf	-0.03774258254251838
168	0xbfc40bd6a67c4010	-0.15661128167312244
169	0xbfb20dfa7d3e176d	-0.0705257945793087
170	0xbf9e46b8d9a55790	-0.029566658290910264
171	0xbfa77204c88085ee	-0.045791768527361984
172	0xbfc2f9e18041567b	-0.1482507587667675
173	0xbfb2f7267f746d5c	-0.07408371555032062
174	0x3fba84eac2df0f81	0.10359065301514471
175	0x3fc154f85df94311	0.1354055842262132
176	0xbfc3ff5cf486c1d6	-0.15623056354298964
177	0x3f6a22d4372c252f	0.0031904358705828954
178	0x3fc013a66fdb8a43	0.1255996748141844
179	0xbfb844b7b91d3574	-0.09479854840647822
180	0x3fb3c27d9344233e	0.07718643994679739
181	0xbfc46ae286e5a748	-0.15951186739703815
182	0x3fc2a80b2fe55647	0.14575328673042717
183	0xbfc1efa0e5d46a11	-0.14012538168101732
184	0xbf99d5bf00f07413	-0.025229439194038927
185	0x3fc487bcc3793433	0.1603923754177302
186	0xbfb6d4ffdc02f19d	-0.0891876136910867
187	0x3f9c7a2b207aa6a4	0.02780978570687033
188	0xbfa82465238772b2	-0.04715267237381705
189	0xbf8b83856d0cb030	-0.013434450521877833
190	0xbf95292b11b8cbeb	-0.020664856869370068
191	0x3fbbf96db4afac3e	0.10927472745213238
192	0xbfb30d7f076d13ee	-0.07442468577671921
193	0x3f6ad8e4379d4b7c	0.0032772500389141573
194	0x3fb96f379efa0a6c	0.09935329085605255
195	0x3fbadd427fa34e2f	0.10493865600738482
196	0xbf957e2a0c34f2f5	-0.020989090914770043
197	0xbfbe05e9a92a332f	-0.11727772121430456
198	0xbfb7203ba8b38eb2	-0.09033558720289639
199	0x3fb2b1395f9d0869	0.07301672539054639
200	0xbfbc4b42f83f55ff	-0.11052340088584599
201	0x3f935dc00b6b5be3	0.01891231603334721
202	0xbfb1ca975e6635df	-0.06949754767102644
203	0xbfba2229d4f257f7	-0.10208379219906748
204	0xbfc34875974a5f95	-0.1506487835620162
205	0xbfc65269061c60fc	-0.17438996122724137
206	0x3f910082ef1b8d32	0.016603513568850654
207	0x3fad47834d356fe0	0.05718622510423166
208	0x3fc3b6ad2436569f	0.15401233928848954
209	0xbfb8bec079e3c9a7	-0.09666064239335147
210	0x3f6cf0dc21ff47ad	0.0035328196972636756
211	0x3fb528b7eb95713f	0.0826525640636122
212	0xbfc2d0739d7e6429	-0.1469864386570248
213	0xbf9b231b5334bd0b	-0.0265011090788763
214	0x3fc23e492f825494	0.1425258142450373
215	0xbfb17efcabaf8c45	-0.06834391776605837
216	0x3f6b87730830fb27	0.00336048571764937
217	0x3fc1ce5497a195d2	0.13910920528284848
218	0xbfbb2fb2c93572ef	-0.10619656956027844
219	0xbfc4915d850099d3	-0.16068619722609742
220	0x3fbdd8a3b2f097f3	0.11658690565727152
221	0x3fb25c34afee8401	0.07171944899756967
222	0xbf7dc847526d3259	-0.007271078683356602
223	0x3fb18be789e4d4c7	0.06854102245854952
224	0xbfc34c586506e256	-0.15076737339929264
225	0xbfb64758ea7cd316	-0.08702617382807562
226	0xbfb21303e3b41196	-0.07060264882244946
227	0x3fbcd88153676de8	0.11267860685568787
228	0x3fc31b7e7f6626ef	0.14927655430465545
229	0x3f9af189e2c1513c	0.02631202169898582
230	0xbf910d537c071bc8	-0.016652397580198458
231	0xbfbb208bd46bfd56	-0.1059653657539362
232	0xbfc01b077a25af91	-0.125824865953629
233	0x3f833079a693c139	0.009369802852660857
234	0x3fbc048c83869de9	0.10944441042976617
235	0xbfabfd9f4b56dda2	-0.054669359156317
236	0xbfbde383de53acd9	-0.1167528550901581
237	0x3f9d5a9d97782c78	0.02866598355289482
238	0x3fb32e4c32b7846b	0.07492519605831809
239	0x3fc096760dc9ba94	0.12959170983545631
240	0xbfc449f920d38f2a	-0.15850748160220834
241	0xbfbf807573906cc5	-0.1230538756503164
242	0xbfbe2d164f69426c	-0.11787547529935133
243	0x3fac8e4ebd2add53	0.055773220626572105
244	0xbfc04b4db92b78c4	-0.1272980837010832
245	0xbfc44f4220b08be0	-0.15866877170728255
246	0x3fa06ea6b5f7d88b	0.03209420176783436
247	0x3fb75380994de35e	0.09111789458064609
248	0xbf42251b7c70de2a	-0.0005537399491747964
249	0x3fb93f3eb3c6dfdf	0.09862129105647409
250	0xbfb2c81013664ba4	-0.07336521600363582
251	0xbfc0a3b558d1e374	-0.1299959834757619
252	0x3fb6c1ec90ef59be	0.08889654673053024
253	0x3f9ad61ee95f83ae	0.026207430833782012
254	0xbfb6bba2859b8dec	-0.0888005806150926
255	0xbfa72e9eb92d92c6	-0.04527755747293365

hidden2.bias f8 [32]
0	0x3fa8e60a389b8eb7	0.04863006535540875
1	0xbf9b8fcc2d7a9605	-0.026915731693085494
2	0x3fc10aacd698dd1c	0.13313827970862568
3	0xbfc12ab4e6e4abae	-0.13411580347141466
4	0xbfb544c6bc896468	-0.08308069327303402
5	0x3fb08380bacd144d	0.064506574254737
6	0x3fb6520442d22a18	0.08718897467967002
7	0x3fb90582355e9d48	0.09774030497520869
8	0xbfb5115fa1f73867	-0.08229634956589536
9	0xbfb59b335b66d88d	-0.08439942342269742
10	0x3fc63befb339bf78	0.17370411158799093
11	0xbfa934df9651725b	-0.0492315169328534
12	0xbfb912a6aae96118	-0.09794084236762435
13	0x3f7306b31794e981	0.004645061091020587
14	0xbfb6027f3bb35f0f	-0.08597560126815672
15	0x3fad3b192fd96719	0.05709150990578688
16	0x3f816df13cfedea8	0.008510479616105585
17	0xbfc50361d952c735	-0.16416571723453335
18	0x3fb79307b4622754	0.09208725122348699
19	0xbfbca2a0fb598b9b	-0.11185651909322163
20	0x3fb4bf8a3609f2e7	0.08104766673381968
21	0x3fae89ff483d0caa	0.05964658505265537
22	0xbfc31a69d99efd37	-0.1492435753443517
23	0xbfc6171c5032582c	-0.17258027950146138
24	0xbfc5cb237d4c1f47	-0.17026179903063562
25	0xbfc0131d685de19e	-0.12558333965331497
26	0x3fc6396a86307e82	0.17362720062464027
27	0xbfa219a1b5340c80	-0.035351804132027986
28	0xbf837ab0b90ef836	-0.009511356971298662
29	0x3fbfa12115b8e0ec	0.12355238704992971
30	0xbfb7260fd552499f	-0.09042452772181385
31	0xbf9d5a3202cb03cf	-0.028664380474541503

predict.weight f8 [9, 32]
0	0x3fb9bccd988196df	0.10053715680404761
1	0xbfa7083fc756a453	-0.04498481090860964
2	0x3fbc6cb3f9c1e562	0.11103367660134247
3	0x3fc087c0bfbb61ca	0.12914285051262048
4	0x3fb0708def0a111c	0.0642174442855929
5	0x3fac7cc834b0a365	0.055639511520275055
6	0xbfb6105591371736	-0.08618674083035391
7	0x3fb0999f5faa77f1	0.06484409413903315
8	0x3fa4d8c3fd095aa5	0.040716290128945766
9	0x3f9b0ade1e1c1432	0.02640864428305551
10	0x3fb2d18295456474	0.07350937027276122
11	0x3f82ec3a5c152961	0.009239631590976573
12	0x3fb2249d3b64af40	0.0708711881640598
13	0xbf9830bb31862472	-0.023623394868569077
14	0x3f9f25aa536266c2	0.030417119349840822
15	0x3fc0b2d66696c3cf	0.1304576874659049
16	0xbfa19de2477dffc0	-0.03440768358905144
17	0xbfc0379ccd38b6aa	-0.12669715900977013
18	0x3fad0a3d4b961cc5	0.056718745686390494
19	0x3f8d292e3459bb9e	0.014238701794253402
20	0x3fc23c3c9a0e895b	0.1424632789831531
21	0xbfa0ff7d611b6119	-0.03319923220050409
22	0xbfb5a75d4d45cf0a	-0.08458502899685186
23	0xbfb78a7aa32e0040	-0.09195677265052016
24	0xbfc281b19b94d2ea	-0.1445829400705841
25	0xbf54807cd32611b0	-0.001251336955278775
26	0x3f97b51acbc7e324	0.023151796996873433
27	0xbfc264e1b581bf15	-0.14370366442334928
28	0x3f95564c8c1e185b	0.020837017109009853
29	0x3fac91740c6277a8	0.05579722071818988
30	0x3f9cb4a2a45a9bf2	0.02803281906258443
31	0x3fb4f78d69e36b58	0.08190234980740507
32	0x3fb0bc0cfcf731d4	0.06536942649763172
33	0xbfc2e0602dee42ee	-0.14747240297994985
34	0xbfaa58d9cc3d1be3	-0.05145912759922291
35	0x3fb756528bcd65b9	0.09116092599051386
36	0xbf6857f2b1336ee3	-0.0029716243821961016
37	0xbfb9fa34c467904a	-0.10147409243615005
38	0xbfc29ec54cc10c6e	-0.1454702973152026
39	0xbfb2fbe474e9dd25	-0.07415607313474888
40	0xbf9a364ad67673f7	-0.02559773382164462
41	0xbfba5f0bcd919b75	-0.103012788474741
42	0xbfbaad7a5fd2cfdd	-0.10420956458511861
43	0xbfb00dd4b94b99f9	-0.06271104358493308
44	0xbfc5d9e1a6a9a6b1	-0.17071171415164124
45	0xbfb95bfd943fe697	-0.09905991429686832
46	0x3f83fbc75aacca9e	0.009757573561363583
47	0xbfa8567620277736	-0.047534648346966454
48	0xbf96d0f7b0995dd1	-0.0222815228974847
49	0x3f686d5585ccd249	0.002981822048605563
50	0xbfb3d1442c6c4158	-0.07741190037291312
51	0x3fc0fdc2c76ba2a1	0.13274416673018144
52	0xbfc02289728b5131	-0.12605398266772164
53	0x3fb67cad39bba30c	0.0878399148892976
54	0xbfc6e27cc27af7f5	-0.17878684517012258
55	0xbfc12026cbfe39e9	-0.13379368744467904
56	0xbf838eb0c1303816	-0.009549504180565587
57	0x3fa7d79d9418715f	0.04656689102941657
58	0xbf65247f4e3b90d4	-0.0025808798253469187
59	0xbfbacef48d2d31da	-0.10472038695042532
60	0x3fbd7552eaec5c99	0.11507147059852442
61	0x3fc1e22624bfa170	0.13971401972163333
62	0xbfc0a48eccf54b78	-0.13002190597270746
63	0x3fb29fbf69a933ae	0.07275005654919539
64	0xbfc3267414a8170c	-0.14961100586531761
65	0x3fa19b80a0e8db2f	0.0343895145819516
66	0x3fbe7cb8a72a4fa1	0.11909059601958784
67	0x3fc5b710b5e9f322	0.1696492088557529
68	0x3fc52bac03ab3b1a	0.16539526156562873
69	0xbfb2f4e514bd06f9	-0.07404929882343571
70	0xbfb687e4ed74f33c	-0.08801108166967436
71	0xbfa4b03ec0522656	-0.04040714357058721
72	0x3fa755ec7d584b20	0.04557742147530619
73	0xbfab59081f7679bf	-0.05341363319461178
74	0x3fa773790932bb7d	0.04580286252291097
75	0x3fa6c6e325e546c0	0.044486139655999235
76	0x3fbb84fb185d3b57	0.1074978765948179
77	0x3fc26df86786ceeb	0.143981028127761
78	0xbfa7977e8bbbfe0b	-0.04607768493405836
79	0x3fb07ef8414e724a	0.06443740457911776
80	0xbf9033c8deb3e142	-0.015822542755786324
81	0xbfbfa6b0170112d4	-0.12363720475793666
82	0x3f9a45e8c81c4bfb	0.025657307828691227
83	0x3f9e9c92d77f425a	0.029894155886554287
84	0x3fc55f10f58ecdb3	0.16696369161728128
85	0xbfc35eb350ea46c9	-0.15132752848562905
86	0xbfb5b1072a7ed973	-0.08473248279083183
87	0xbfadae62c17af0ad	-0.05797108280009531
88	0xbf9445a2d108eb53	-0.01979689026687066
89	0x3f9a40d87509eb0f	0.025637991088369335
90	0x3fc0c31d93dfd8d1	0.13095445366315642
91	0x3fc2472838892bac	0.14279654274500098
92	0x3fab425302bea17d	0.05324038895134018
93	0x3fbd3e2cbd198362	0.1142299615544409
94	0x3fbddaab40794c4c	0.1166178734213627
95	0xbfc268aed8db87fc	-0.1438196715235448
96	0x3fc046e93ad4708d	0.12716403362799547
97	0x3fc2448080b877fc	0.14271551404175387
98	0x3fc3d449bcb7db0e	0.15491601671939076
99	0x3f9fcfbf60e2d2a1	0.031065931595281374
100	0x3fc46e4e099698b1	0.1596162363832199
101	0x3fa671a895e75b92	0.043835895823284635
102	0x3fb76fc8f5f2ff45	0.09154945377940489
103	0xbfa8edd44c432e62	-0.048689493474367365
104	0x3fc73765d6c6142d	0.18137810694693837
105	0xbfb2633d70902bb3	-0.07182678220867338
106	0x3fb02a0bf8c9e9c4	0.06314158271735609
107	0xbfb3afe238f491d4	-0.07690252199660758
108	0xbfa1a3915344909d	-0.03445104733899138
109	0xbfb7f52cb18fa239	-0.09358481726634062
110	0xbfc369d2eecb1510	-0.15166699085072155
111	0xbfb5cafc61fc0a47	-0.08512856857491001
112	0x3fbe793212ee8629	0.11903679811668923
113	0x3fc30a8b078fe085	0.14875924939383736
114	0xbfab6c4ad79daa22	-0.05356058008222343
115	0x3f9c6cc5b40ed824	0.027758683314196855
116	0xbfc0e1ecb84036e2	-0.13189467426894114
117	0x3fa3f1b87f901b42	0.038953557559628496
118	0x3fbe752a57540300	0.11897530204806728
119	0xbfabb510bb38145c	-0.05411579404248165
120	0x3fc5a2e064aa7d43	0.16903309741335634
121	0x3fb86936b026c54c	0.09535543251583539
122	0x3fa3c35833447dd0	0.03859973550629159
123	0x3fbeaca9efeff791	0.11982214076848964
124	0xbfb98fda522d2297	-0.09985126978166146
125	0xbfad5823613d8443	-0.05731306612029432
126	0x3f953345f121d5cd	0.020703404276408755
127	0x3fbce4b99e25d5f6	0.11286506758718659
128	0xbfba17a07618b85b	-0.10192301638810035
129	0xbf9db2ec657707e2	-0.02900285119336122
130	0x3fc60d4e3da6ca50	0.17228105554893824
131	0x3fcbc4a5d1f5f352	0.21693871261586622
132	0x3fb306131ff7622e	0.07431144266536968
133	0x3fbfb0b881d22c8b	0.12379029435594384
134	0xbf8325ff7378ba33	-0.00934981890813189
135	0xbfc06f215f74f78b	-0.12839142952901414
136	0x3fbd386fe163344a	0.11414241078019063
137	0x3fc04ac3d2352a75	0.12728164447829085
138	0x3f9997586a3fe8bc	0.02499139927383774
139	0x3fc3f2784175e5d1	0.15583708950343447
140	0x3fc09742aaf3d0bf	0.12961610171590185
141	0xbfc0ee39b6f82d96	-0.13227006372504196
142	0x3fc21c8dfccd3293	0.14149641841722324
143	0xbfb8f2cd6fe75eb5	-0.09745487195993514
144	0x3fc2267707f65ecb	0.1417988575819805
145	0xbfa85d983824a029	-0.04758907018032261
146	0xbfc3f4ede918b322	-0.15591215020813204
147	0xbfad5ea8a31c055d	-0.057362813864538544
148	0xbfb51ea227e4b844	-0.08249867891274315
149	0xbfa4fb363e5c3c0a	-0.040979094612446046
150	0xbfc4ffb2721257bf	-0.16405325479416707
151	0x3f86189719f4f604	0.010789089660302238
152	0xbfa821debc42d720	-0.047133408051577286
153	0x3fa81bd072efa0fa	0.04708720591571765
154	0x3f308e6a1e826eb0	0.0002526291923545627
155	0x3fc016b9cd1522ba	0.12569353593632632
156	0x3fc49d739d9510c5	0.16105504221389402
157	0xbfa8e584cdf1190e	-0.04862608922899102
158	0x3fb0defddf0a42bf	0.06590258307756879
159	0xbfc6118c1f0be547	-0.1724105025858
160	0x3f85ac0f8dd7d390	0.010582086101729421
161	0xbfc620aca38f6352	-0.17287214266141376
162	0x3f6da6fa8b0c39eb	0.0036196607037546256
163	0x3f811120138c59d8	0.008333445164265749
164	0xbfb34b42fc928c71	-0.07536715189285005
165	0x3faf7d6b0a78b02c	0.06150373938393758
166	0xbfbf00bdd2465e7b	-0.12110506423629801
167	0xbfc04565ae9dc121	-0.12711783434088722
168	0x3fba78a0ceac9604	0.1034031395507427
169	0xbfb43462ba234da2	-0.07892434162504583
170	0xbfc2feca07eaf857	-0.14840054880727635
171	0xbfa7ec38d6298d9e	-0.046724105971203786
172	0x3fc696a4c9a852bf	0.17647228094633324
173	0x3fc0dbe65eef653f	0.13171081195359055
174	0x3f8f6cab4bc5e2fc	0.015343988656910217
175	0xbfbcabf916510367	-0.11199909968219189
176	0x3fcc71934ceae79d	0.22221604591123603
177	0xbfb60364d302ec48	-0.08598928596158928
178	0xbfba13e4f99f358e	-0.10186606497082648
179	0xbfc0858af5f2e8fc	-0.1290754033014493
180	0x3f83ac8f9e6662b8	0.00960647775791422
181	0xbf97341a7e3aa8d0	-0.022659696535506424
182	0x3fc11e3155258d83	0.13373390824845552
183	0xbfb3f48d0223e98f	-0.0779502992844867
184	0x3fbb0a0a12f6d180	0.10562193835250433
185	0x3fb899dba9eade9c	0.09609768770575972
186	0xbfbb377064b0a403	-0.10631468256237046
187	0xbfaaa0915c2490f9	-0.05200628518858425
188	0x3fb3e6d1a5ead39a	0.07774076748576278
189	0x3fc2ddad82cc5c98	0.1473900688804164
190	0x3fb630c9189dc85a	0.08668190814003776
191	0x3fc0bb932292bdb8	0.13072432697434322
192	0xbfa238829f68e69d	-0.03558738895339995
193	0xbfbf99a8165d841c	-0.12343836351421128
194	0xbfa92289b8f04516	-0.049091628861910916
195	0x3fc712849b116e1d	0.18025262424167546
196	0xbfc024f3d716d3a1	-0.1261277008285591
197	0x3fb9aa50b493c76d	0.10025505455612711
198	0x3f9fac9300e88867	0.030931755953254838
199	0xbfb078796a0138d5	-0.06433829153067745
200	0x3fb1b2c95fc7e26f	0.0691343172874299
201	0xbfc4af39410b2f6b	-0.16159740138970888
202	0x3fbaf74a95bc15fd	0.1053358665049799
203	0x3f52d13ec4446f6c	0.0011485207515482222
204	0xbfb7bf0eb4bf6d65	-0.09275905525958235
205	0xbfc36a3383751fb1	-0.15167850416969267
206	0x3fb504b41acb0a9e	0.08210302023057145
207	0x3fbc533238aa2093	0.11064447291767214
208	0x3fb3db92d4b4663d	0.07756917660699343
209	0x3fa53793ee499614	0.041439650380919485
210	0x3fad951b17d630e7	0.05777821222281592
211	0xbfc26b72cb42c8ef	-0.14390406536910613
212	0x3f95ebead1eb6316	0.021407765448063186
213	0x3fbfe1a0bd1dad56	0.12453655831420937
214	0xbfa0b64bbcf567a8	-0.03264080697654431
215	0xbfba26b7ad77b6cb	-0.10215328202294953
216	0x3fb51786bbb6bc15	0.082390232876364
217	0xbfc182a66d661e7d	-0.1367996248411493
218	0xbfc140737569d6b1	-0.13477938874318832
219	0x3f996deb73d75f88	0.024833373017684873
220	0xbfbe83075d8275da	-0.11918684037160379
221	0x3fc1711ac26e7f98	0.1362641763089385
222	0xbfbd1134da94e2a0	-0.11354379974808149
223	0x3fa142fdfb77b3e7	0.03371423430130687
224	0x3fa045962afe665d	0.03178090357614558
225	0xbfbcf589c5dd2155	-0.11312161522540028
226	0xbfb1e77caabb4be5	-0.06993846100094421
227	0x3fa9aa8d64fc4c5f	0.05012933595403334
228	0x3f9dedc5de9ad17b	0.029227344238010638
229	0xbfadf3a777e0e38a	-0.05849955881462339
230	0x3fc64e4294bd29bc	0.1742633081688164
231	0x3fc0a0d8405b52c5	0.1299085916749815
232	0x3fafa3b865e806af	0.06179596179937385
233	0xbf792b74010a8790	-0.006144955769430541
234	0xbf90bd1bd5bccb3a	-0.016346392555713886
235	0x3fc3a4e9bad31d7a	0.15347024557398098
236	0x3f953fb8a10fe62f	0.0207508896164425
237	0xbfbdbc1f6697ba6b	-0.11615177397445968
238	0x3f7012821915d19a	0.003923900790472246
239	0x3fc1c7f45204d51d	0.13891462330654117
240	0x3fc728403ef28198	0.18091586183164732
241	0xbfc50546839f02e1	-0.16422349383176196
242	0x3fb7bd972c0c29fb	0.09273667168978499
243	0x3fbd3ef7097e3b64	0.11424201947941764
244	0xbfc66c8c1c2196b5	-0.17518760083765064
245	0xbfa83349e4f9b34a	-0.047266301346872
246	0x3fc5670fb52fc25d	0.1672076830577848
247	0x3fb05ceb38912a42	0.06391782885581512
248	0x3fc4097366b9d79d	0.1565384151069197
249	0x3fb3e59d707e49ab	0.07772239681643238
250	0x3f71ac5500ef7c90	0.00431473927071048
251	0xbfa338eaf4b44a4d	-0.037543623324513754
252	0xbfc261567aa16b5d	-0.14359551418132357
253	0xbf72ba72ee49fd4a	-0.0045723428235072226
254	0x3f95c78b02d332f3	0.02126900868170174
255	0x3fc347a897a747ea	0.15062434582665613

predict.bias f8 [9]
0	0x3fa6cb02d492a903	0.04451760144123009
1	0x3fba2e02b0ce4e7e	0.1022645646719926
2	0x3fcd56747136bbd0	0.22920089271562327
3	0x3fc490fd7a6650ea	0.16067474819704525
4	0xbfb0924f82690ad8	-0.0647325223335814
5	0xbf94acbca14eb22e	-0.020190188737318752
6	0xbfbdc5c8c9bee44f	-0.11629919934684206
7	0xbfa59ad990d34229	-0.04219703572164619
8	0x3fc6836180b46367	0.1758844259682306
