task2morph/02_flip_box/model/flip_model_parameter_reference_2.pkl (torch, 14693 bytes, 6 tensors)

hidden1.weight f8 [32, 5]
000000 06 93 02 1a c7 eb cb bf ac 57 a8 dd ea 75 ce 3f
       -0.21813286561987172 0.23797355483173754
000010 b2 b4 b1 f6 12 2e cd 3f d8 51 8e 61 96 52 d2 bf
       0.22796856923688363 -0.28629073645541103
000020 d3 ee c9 9f 6b a8 d0 3f 55 06 71 23 02 a3 d9 bf
       0.26027956585288087 -0.4005742403133799
000030 96 27 6f b2 9e b7 95 bf 08 7f 09 09 fd 23 d9 bf
       -0.021208266869315283 -0.3928215587857129
000040 2c ef 7c 9e f6 30 c1 3f 8a 9e 60 d5 a3 f2 c4 bf
       0.134306743036967 -0.16365478438205044
000050 4e 47 c0 34 f3 0c dd 3f da 20 3c 4f a2 92 b9 bf
       0.4539154067180008 -0.09989370760388586
000060 7f 6c 1d 20 a4 f9 c5 bf b6 02 f5 26 7a 48 d8 3f
       -0.17168094223129413 0.37942365459825156
000070 94 88 a5 90 9d 10 c7 3f f2 31 ec b7 c5 b4 a5 bf
       0.18019456446478854 -0.042394808484548366
000080 43 e0 87 b8 94 ac db bf 4d 49 50 14 88 2a db bf
       -0.43240850468237485 -0.4244709204077893
000090 7a 21 8c ce 90 2e d4 3f bb 9e 53 0f e2 0a dc bf
       0.31534214182513376 -0.4381642484354235
0000a0 b0 c8 c8 c7 53 79 b8 bf 32 b4 6f 68 65 a9 c2 bf
       -0.09560130717798887 -0.1457945594733317
0000b0 9d ca 76 7c 7f 9d 81 3f d7 0a c0 bf 6e fe d5 bf
       0.008601184831467374 -0.3436543343124589
0000c0 03 70 bb 8e e5 e5 c3 bf b9 94 db 2d 97 fb cd 3f
       -0.15545339078278184 0.23424043406627051
0000d0 5f a6 eb f0 d8 1c dc bf da f6 18 d1 19 b8 d7 bf
       -0.43926070716279314 -0.3706116239517151
0000e0 90 3a 92 5b 87 0c a9 3f 81 42 df 94 45 5b b7 3f
       0.048923711708188766 0.09123644718716585
0000f0 5b 3d 09 a4 48 37 c4 3f d8 47 c3 fa 58 58 ca 3f
       0.15793712625098064 0.2058211540630157
000100 99 c5 60 d2 ac b8 d6 3f 7b 77 e1 30 57 72 b2 bf
       0.35502167267540014 -0.07205719893815214
000110 c5 b1 6a 63 73 d9 d3 3f b0 f7 79 4b 57 c3 8d bf
       0.3101471396319336 -0.014532739630563757
000120 72 1a e3 40 bd c5 d8 3f 4f aa 9c 7c 4a f1 d3 3f
       0.38706904732354197 0.3116022316850477
000130 22 bd 58 e7 d0 49 d7 bf 87 8b 5a 0b d7 c4 d7 3f
       -0.36388037292904774 0.37138916119345605
000140 17 00 92 6c a0 cb d5 bf a0 ff cf c2 9b 8c cb bf
       -0.3405533848053905 -0.21522852909401724
000150 48 b1 21 ef 09 f2 d2 bf 18 34 7c 11 ce 23 db 3f
       -0.29602287628837987 0.42406036098037836
000160 61 6a c6 9f 19 d2 c8 bf 28 d1 75 6f 71 43 d2 3f
       -0.19391174603954922 0.28536640057361007
000170 a5 6c 94 6b 11 e8 bf bf 37 43 10 01 0d 5c c5 3f
       -0.12463482738933125 0.16687166740350687
000180 82 8f c7 8f a7 68 8b 3f 36 98 3c 4e e2 1f cd bf
       0.013383206439307353 -0.22753552265311477
000190 e8 fd d8 5f 87 00 ce 3f 43 7c 2a c4 c0 1b d2 3f
       0.23439113788661747 0.2829439082797231
0001a0 f9 ac 51 9a f0 13 d2 bf 84 9b 5f 40 f6 c6 cb bf
       -0.28246703214854524 -0.21700933593021088
0001b0 29 ad 2b 1f 42 c2 b5 bf 08 0b 5f 68 52 80 d8 bf
       -0.08499539624215359 -0.38283214752679884
0001c0 1b 7f eb eb 3f be ca 3f 99 5c 3d 39 7b d2 ce bf
       0.20893095988775987 -0.24079838080317442
0001d0 fc 06 df 4a 43 be d4 3f 81 92 28 d4 14 46 c3 3f
       0.32411272346153885 0.15057621344853447
0001e0 32 9f 45 1a 62 6a ce bf 38 95 8d 73 e5 2b b8 bf
       -0.23762155802546087 -0.09441980429763397
0001f0 9e ae 2f dc 6c b1 be bf 99 26 61 36 ff b0 d4 3f
       -0.11989479423180646 0.3233030348825224
000200 e7 0b da 14 03 06 8b bf 18 75 74 cf b8 ff ce 3f
       -0.013195060800404291 0.2421790135348736
000210 8e 49 f1 61 66 85 db 3f 4c c1 d3 f8 f9 53 aa 3f
       0.43001708569240626 0.051421939491663154
000220 81 be 5d d9 02 5e d8 bf 93 53 89 fe 80 40 b8 bf
       -0.38073798396269615 -0.09473425115841243
000230 ff 9d 22 b2 45 92 bc bf 5a 69 17 d7 39 a6 db bf
       -0.11160693739895321 -0.432020626116033
000240 53 d5 7b cf 25 9e d8 3f b6 5d 2f cd 72 ea a3 3f
       0.3846525694092026 0.03889807467174526
000250 d2 a2 a7 90 d8 05 cf bf 95 79 33 f5 c0 65 9c 3f
       -0.24236590445732148 0.02773190971935831
000260 00 ec 2f 07 71 05 c3 bf e1 f1 2d b1 31 87 cc 3f
       -0.14860356188714263 0.22287579680768402
000270 94 fd 02 c4 ba 67 d4 bf 2d eb b9 a0 ef 4e ca 3f
       -0.31883114949956703 0.20553393695794267
000280 a5 e3 4f 8a f2 10 c3 3f 0a 3e 44 63 d9 70 b9 3f
       0.1489546943046466 0.09937819169521603
000290 70 2a 5b c8 74 59 c1 3f ac d7 ed 13 4b 6a db 3f
       0.13554248602879992 0.4283626265163274
0002a0 35 d6 ec 52 af 90 d4 bf 08 da 2b 50 f3 3b ce bf
       -0.32133086298140096 -0.23620454229940457
0002b0 68 36 7a 07 3e 53 c0 bf de 30 29 00 f9 ca d2 bf
       -0.12754035344225945 -0.29363846793854786
0002c0 55 62 1b b2 60 89 ba bf c6 f6 a0 65 a1 fd da bf
       -0.10365871761622121 -0.42173037457164886
0002d0 a1 38 b8 fb 65 00 d4 bf f9 f4 78 14 2d 41 d8 bf
       -0.31252431470864833 -0.3789780330587998
0002e0 78 9e f0 e7 86 56 81 3f 12 d8 44 4f fd 97 d1 bf
       0.008465818360561914 -0.2749017023191992
0002f0 59 43 60 b9 ce 46 c9 bf 21 f6 cd 80 b8 d8 ce 3f
       -0.19747337390483713 0.2409887913635638
000300 03 fb 1a 9b 33 62 c6 3f 62 1d 13 8c ca 42 d6 3f
       0.1748718745565939 0.3478266113201781
000310 fa e5 14 4a b6 92 da 3f 66 71 fe 5a 5b 7b d9 bf
       0.41520459398779475 -0.39815410505413806
000320 60 cd 30 12 99 26 6e bf 06 d8 82 41 c0 47 c9 bf
       -0.0036805143040738314 -0.197502166736456
000330 fb d8 26 34 e1 35 cf 3f 29 2d 36 62 d4 4a 90 bf
       0.2438317780158242 -0.015910452360498404
000340 6f bf c8 d3 a9 ce d3 bf 80 1e b1 27 74 2d c4 bf
       -0.3094887321667476 -0.15763713777618094
000350 8e 4e dc e7 33 d2 ce bf 85 d5 29 82 9b 51 a3 bf
       -0.2407898790485103 -0.03773199047001711
000360 07 09 c4 3f 71 88 d7 3f ed a3 db 78 b9 49 d2 3f
       0.3677027819359328 0.2857497864011396
000370 1b d5 68 f6 63 9e d9 bf bc 05 52 ff cf 97 ca bf
       -0.4002923876135626 -0.20775794951263815
000380 1c ed fc cc 9a ae c3 3f af c8 2a a7 bb 44 d5 bf
       0.15376601227931352 -0.33232013058580895
000390 ed 0e af 7b b9 36 d2 bf 81 a2 da 9e 07 0e a1 bf
       -0.28459012106416887 -0.03331016363273865
0003a0 1f 1a b8 f7 11 62 d6 3f a7 d4 27 68 2b cd da 3f
       0.34973572913477996 0.41877255603260227
0003b0 31 93 d7 90 de b3 d8 3f a0 4d f1 e5 d1 e7 d7 bf
       0.38597835678801845 -0.3735241647275078
0003c0 f5 96 db a7 e7 4f b2 bf 67 de 57 d5 ff 4f d4 bf
       -0.07153175209131375 -0.317382772772794
0003d0 e1 92 4b 44 6f dd aa bf ed 2e 88 07 7d 25 de 3f
       -0.05247066219980013 0.4710381101183277
0003e0 3e 59 28 b2 85 89 d5 bf 04 d4 a9 b3 7f a8 d8 bf
       -0.33651869199947615 -0.3852843527341181
0003f0 ac 80 d4 34 e7 ae d2 3f de ab 68 a5 4f 0c d4 3f
       0.2919252410811264 0.313251410991766
000400 4a 69 0c b3 ec 85 d7 bf 94 df e2 20 d9 1d 92 bf
       -0.3675491093178108 -0.017691986686912367
000410 d3 08 a0 22 cb 65 d3 3f 89 4e 82 34 ba 18 db bf
       0.30308798199997716 -0.42338423850854007
000420 16 29 04 2c 7d ad b8 bf 61 85 62 e6 b1 97 98 3f
       -0.09639723133674169 0.02401617020280378
000430 4b 81 df e9 0c ad d1 bf 5d ce e6 89 2f 6d d9 3f
       -0.27618716086546574 0.3972891661353282
000440 7b ef a9 3e 50 f2 a3 3f 71 3a a9 a4 29 52 b9 3f
       0.038958079957381174 0.09890995283169858
000450 e1 1d 60 f6 a9 5c d5 3f 6b a6 80 b3 2c 48 cf 3f
       0.3337807565698921 0.24439009442112378
000460 18 a8 a5 f2 20 7a db 3f 37 e2 06 79 d7 3c d5 bf
       0.42932914443974957 -0.33183848208458094
000470 f7 e3 e6 b8 57 46 be 3f 53 99 67 4e 23 d5 d8 3f
       0.11826084388930257 0.38800890595157006
000480 dc df f0 15 c8 98 ba bf 27 87 c8 0b 72 7a ab 3f
       -0.10389376197497263 0.053668559969322786
000490 d7 17 9e a2 b1 bd d2 3f 7d 7d 34 d3 fc d7 d5 3f
       0.2928279960691475 0.34130783677570503
0004a0 78 a5 97 dd 67 b9 c9 3f c2 6f e8 00 9d 4f d8 3f
       0.20097063369693635 0.3798592099062682
0004b0 b7 cd 10 d7 af 9b d5 bf 61 ad 31 b8 22 92 db bf
       -0.33762737276557736 -0.430794410588268
0004c0 40 cb 3b 84 1d fb 90 bf e2 7c 04 84 4f 6c ca bf
       -0.016582928844353306 -0.20643037744682774
0004d0 24 4d 90 1e 4d 93 87 3f 26 9b ff eb b0 f0 d2 3f
       0.011511423583249476 0.2959406189606163
0004e0 63 c1 31 45 ac 80 bc 3f ab 43 00 d0 41 44 d6 bf
       0.11133839310946807 -0.34791608154869874
0004f0 17 9e 1c f5 df db c0 3f e2 d6 4d b1 71 a5 ae 3f
       0.1317100474200152 0.05985598840099528

hidden1.bias f8 [32]
000000 70 69 9f ec 79 c2 d1 3f f7 49 f0 b9 71 c1 d2 3f
       0.2774948893326359 0.2930568996245308
000010 97 f7 fd 7e 14 59 b7 3f 9f 2d 7d 62 a3 0d c3 3f
       0.09120300388710088 0.14885370549232577
000020 ba 55 03 0d 1f e7 d8 bf 65 e6 06 b8 59 75 b0 bf
       -0.3891065241890278 -0.06429062598081144
000030 f5 2c 87 65 85 83 d5 3f 7a a9 a3 7c 5e c7 d1 bf
       0.33615240969511656 -0.27779352351958375
000040 c5 00 36 06 dc 09 d1 3f d4 3a bb b4 5e 18 b1 bf
       0.2662267742780496 -0.06677810585390925
000050 09 45 39 48 57 b6 d5 bf 2d 3e 86 35 7e a2 d2 bf
       -0.33925420811745305 -0.291167785901936
000060 e6 16 8b ef 68 fa 85 3f 43 1a 63 37 ca b6 d6 3f
       0.010731525240213324 0.3549066105737532
000070 ab e3 18 0d 42 63 d8 3f 5a 64 07 f3 22 8f b9 bf
       0.381058228292711 -0.09984033997842925
000080 7e 40 8b a0 9f a9 cc bf 45 1a 9d 1d 9e 82 c1 3f
       -0.22392649973926732 0.13679863401394435
000090 de a2 3f 41 b7 a1 c2 bf 2b 5f a9 cd 67 cf d1 bf
       -0.14556017576185004 -0.2782840259946961
0000a0 7f f9 33 67 9b cb c6 bf 22 1f 53 15 a6 4e c4 3f
       -0.1780885938569092 0.1586501697658998
0000b0 aa fc 9a 51 e8 b4 d7 bf ff 23 cb 35 2f d4 91 bf
       -0.3704167172363194 -0.017410981806083466
0000c0 52 63 6a 75 b7 f8 d7 3f 3e 30 44 77 3b f4 d1 3f
       0.374555458701754 0.2805317558966215
0000d0 3c f1 ca 46 f7 20 cd bf 2f bf 7b e9 d5 9a bf 3f
       -0.2275685401599591 0.1234563536670492
0000e0 ef 9c b9 14 ec ed 84 3f ac 72 51 7a 8b e5 da 3f
       0.010219425566175803 0.4202603048814051
0000f0 9c 2f 74 e3 f1 2d ad 3f 1f 48 17 3f 58 5f da 3f
       0.056991156592715 0.41206937943673155

hidden2.weight f8 [32, 32]
000000 6c a0 cb f2 7d 68 c2 3f 92 9d be 98 ba bd b0 bf
       0.1438138423466201 -0.06539503316036235
000010 c2 f6 3b f7 bd 57 c1 bf 18 85 dd 1b 9a 3d b0 3f
       -0.13549017498001176 0.06343997173600646
000020 c8 88 15 67 8d 23 92 3f 3a 79 f7 6a 3f 39 aa bf
       0.017713746468310615 -0.051218015487153726
000030 0d 86 20 70 70 c9 b4 bf 66 ba 0b 77 f3 83 a8 3f
       -0.08119871842838951 0.04788170650669059
000040 db a4 3a 5c 94 fb ba bf 12 f9 5d b3 ae 1c c3 bf
       -0.10540129901586985 -0.14931281812818803
000050 2f 6b 36 c6 84 26 c3 bf 3a 2e 85 52 38 48 97 3f
       -0.1496129958948926 0.022736434971461807
000060 12 c1 74 04 23 96 bb bf 47 db 9e 33 2f 44 af 3f
       -0.10775965555945202 0.06106708054669823
000070 35 9e e6 b0 ea 95 b0 3f 70 95 8a 97 22 68 c5 bf
       0.06478754824512907 -0.16724045180778147
000080 43 5a c3 5c 27 c7 c1 bf 1c 3f c6 f3 83 c8 c0 3f
       -0.1388901904053502 0.1311192455582323
000090 50 64 e7 7e ac 50 86 bf 4c 8b a4 3a f0 6a 93 bf
       -0.010896060583876516 -0.01896262510230011
0000a0 b1 68 3f 2f ee e3 a3 bf 80 f4 64 23 60 17 aa bf
       -0.0388483460116772 -0.05095959121761329
0000b0 1e f5 8b 16 df 30 c0 bf d7 21 33 45 89 8f c2 3f
       -0.12649143792069933 0.1450053775681812
0000c0 f2 16 17 c2 64 f1 bc bf fe 11 3e 3d 6c d1 ba bf
       -0.1130583738186848 -0.1047580384748201
0000d0 50 f6 9c 4a 91 4b b7 bf af 53 55 33 da 26 c1 3f
       -0.09099681922540381 0.13399817949780643
0000e0 ba e3 48 a3 d7 21 a5 3f bf fc c3 1d c2 a9 b1 bf
       0.041273821527688395 -0.068996555582987
0000f0 ab 61 cc 22 99 b6 b5 bf b1 3f 03 cb 7a 9d 9e bf
       -0.08481747722215142 -0.02989761222926263
000100 89 87 89 bf 9a d2 b5 3f 58 a3 7a bb a0 d6 ae 3f
       0.08524481941415564 0.060231230626704046
000110 9e f9 ef cc a4 42 ba 3f 08 82 0f 85 97 1f be bf
       0.10257940295557552 -0.11766955374287857
000120 d1 f8 f4 60 70 49 b4 3f 90 5b 8e 56 32 82 c1 3f
       0.07924558989631982 0.13678578592654533
000130 91 4a 0f 3c 4d 17 c7 3f 60 e3 cc 27 4c a4 b4 3f
       0.18039861137966232 0.08063198062599275
000140 b5 6a b2 44 2d 66 bd 3f 4e 6e 55 3a e0 fc a2 3f
       0.11484034468814282 0.037085539933027975
000150 65 e8 92 21 53 53 a2 3f f6 64 39 4e 35 58 9f bf
       0.03579196724736348 -0.030609925174165796
000160 bd 7d ba 8d cd 71 a8 3f 3a 53 0b b7 ff 2a c1 bf
       0.04774324755748747 -0.13412472188670127
000170 b5 be fa 53 44 36 96 bf 7e 11 ba 47 12 b6 bd bf
       -0.021691386819553588 -0.11605943919318482
000180 53 d6 89 35 90 0c b5 bf c3 35 c6 79 99 0b b5 bf
       -0.08222295100298398 -0.08220824454311697
000190 73 9a d0 63 12 31 b8 3f ea d7 b7 7d 75 7f b5 3f
       0.09449877678762579 0.08397611922541129
0001a0 0d a1 19 3d ed aa ad 3f d3 e6 92 65 30 14 ae bf
       0.05794469233370778 -0.05874778022685025
0001b0 25 71 1d 16 87 2f 9b bf fb 0f d7 d1 de a5 bb 3f
       -0.026548491215508414 0.1079997312836553
0001c0 57 25 5a 09 99 97 c1 bf 90 c1 4d fc b0 90 c4 bf
       -0.13743889767310222 -0.16066562957304287
0001d0 2a 30 2c 1f fe 90 b0 3f 37 8b 69 4e 23 e5 c2 3f
       0.06471241246271178 0.14761773422932276
0001e0 a1 e9 e6 24 ee d8 c5 bf 32 ea ee 6b d9 de b9 bf
       -0.17068268586974703 -0.1010566605099619
0001f0 7f 42 04 fd 79 17 c3 bf f8 e5 51 84 29 ae ac bf
       -0.14915394644096477 -0.05601625194772092
000200 cf ad 9a 58 55 75 c0 bf 0a 84 1e 6a 85 5e 60 bf
       -0.12858073068978945 -0.001998196196794759
000210 de 0a 5b 43 97 0c a8 bf d7 d2 8e 71 26 da c4 bf
       -0.04697106072628342 -0.162907414863773
000220 45 50 2c ae 0e a3 aa 3f 64 50 30 3d 88 e6 bb 3f
       0.052025278817524646 0.10898639196267507
000230 00 9e 6a 27 31 79 c4 3f b9 d3 57 9e cd ff ba 3f
       0.15994848656303873 0.10546574703023638
000240 7b 45 b9 85 4f 5e 6e 3f f9 fd dc 4d b7 87 c7 3f
       0.003707080189805976 0.18382922460476417
000250 2a e4 2c 11 81 55 ab bf b2 59 5a 67 4a bd b4 3f
       -0.05338672003421892 0.08101334594025536
000260 5e 06 a5 d2 6d 83 a9 bf 6f 42 ce 3f a2 1d a8 3f
       -0.049830848658996216 0.047101087845594296
000270 c0 e7 f2 ca c3 bf aa 3f 9e 25 a4 fb 0f df c1 bf
       0.05224429943468989 -0.13961982524078292
000280 56 d4 05 53 eb ba b8 bf 41 8f ab a0 46 67 b9 3f
       -0.09660216118739248 0.0992321150075073
000290 52 fb 8b 8a 49 37 7d 3f c0 dd 0b 18 ec 9d a8 3f
       0.0071328041747154725 0.0480798510888536
0002a0 0a e9 a5 4f 93 51 91 3f 44 72 d5 da ab 43 b5 3f
       0.01691274808533997 0.08306383221265273
0002b0 df 2e fb ca 06 4d 75 3f 3d 34 62 01 fd 6a c6 3f
       0.005200411352870054 0.17514002387579977
0002c0 72 af 3e 1d 92 61 c0 bf 60 c0 35 c2 9d 37 c2 3f
       -0.1279776232526007 0.14232227309139756
0002d0 8e 7b 05 54 05 98 c3 bf 83 c4 60 cc 8f c1 c3 3f
       -0.15307680704696874 0.15434453467745265
0002e0 43 54 64 ba 5d 1b a5 bf 38 74 80 9d bb 8a b8 bf
       -0.04122441196720008 -0.09586689563043727
0002f0 94 58 4f 3f 47 af c4 3f 2d b6 a3 7b 73 eb b5 3f
       0.16159906951242375 0.0856239487509007
000300 80 56 3e 7c 20 76 b6 bf 8e 41 7e 9a 4e 75 c0 3f
       -0.0877399733857036 0.12857992690670667
000310 d1 c8 2e 00 dc 17 af bf c7 7d fc 4b d6 4c c5 bf
       -0.06072890760641914 -0.16640738210933945
000320 01 df 49 53 50 1c b9 bf e7 96 eb c3 d0 fe aa bf
       -0.09808828385746084 -0.05272533790211558
000330 b5 fe 1c 1b aa 68 b1 bf fa 24 a0 b0 c3 e6 a6 bf
       -0.06800330316490995 -0.044729342756975
000340 51 7d 49 5a b4 11 c2 3f 08 d5 3c 34 12 a3 c0 bf
       0.14116529854343665 -0.1299765353266269
000350 d6 5d 80 be a2 25 c5 3f 8c aa cd c9 f3 84 b2 bf
       0.1652110510046742 -0.07234119107094211
000360 4a 26 53 f8 10 cd 92 3f 11 bd 0a d7 c8 f8 c4 3f
       0.018360390812438156 0.16384230136962022
000370 b4 d3 11 30 dd 87 c0 3f 11 51 7a 51 d9 36 c3 3f
       0.12914624068403457 0.1501113555756395
000380 9b 4b 37 55 9a 29 be 3f d5 e8 3b 3d 3d 53 c3 3f
       0.11782230930775343 0.15097775926535087
000390 78 db ff 02 d2 39 c1 bf 24 b5 d9 7f 29 32 a1 3f
       -0.13457703730065496 0.03358583150552821
0003a0 04 b0 fb f1 b2 5a 98 bf 0c 83 e1 0b 45 9d be bf
       -0.02378348924587216 -0.11958724536954096
0003b0 5a 85 24 87 6f cb bd bf a5 4e 79 8a e5 0c c2 bf
       -0.11638543176061003 -0.1410185743467213
0003c0 9f 56 7f e9 72 70 c2 3f ce dd 21 9f 66 33 bc bf
       0.14405666733971587 -0.11015931496682826
0003d0 be 42 5e 1c 06 b5 c1 bf fd ff 32 28 58 e5 a0 3f
       -0.13833691010633759 0.032999758631831334
0003e0 47 19 91 52 30 48 c5 3f e7 9d 69 dd 55 4a b8 3f
       0.16626552611905707 0.09488426833706108
0003f0 a8 72 6d 60 b0 90 b9 bf 4d 95 2f 79 7c 1e 97 bf
       -0.09986402849376452 -0.022577233215902926
000400 97 b9 48 f2 5a 1c 80 3f a4 6b ff 71 ca 66 c4 3f
       0.007866583365367314 0.15938692632957185
000410 d6 6a b4 d8 7d 9f c5 3f 0d 5d 6f 20 b2 09 b2 3f
       0.1689297969940841 0.07046044628019761
000420 d4 4f 27 b4 e2 40 b6 3f 54 ac c8 07 d6 cc 72 3f
       0.086927575094989 0.004589878135941101
000430 91 8c b8 fb e4 66 9c bf 2b ae d4 9f f2 30 a0 3f
       -0.02773626123793044 0.031623441706269816
000440 68 57 3f a8 b5 59 70 3f a0 54 72 f4 ac 2c bc bf
       0.00399180374002648 -0.11005669563231146
000450 a2 cb 95 03 03 2d c0 bf b2 ce 45 94 db 2a c4 bf
       -0.12637365031295383 -0.15755791416051107
000460 b2 2d f2 ef a4 5b bd bf 2c 1d 2c 9b 96 bf b4 3f
       -0.11467963083321456 0.08104840553652498
000470 06 90 12 9a 8c 60 c0 3f 68 52 ae 78 39 5b 85 bf
       0.1279464485461405 -0.010427903170957722
000480 90 c1 52 5d 8b dd c5 bf 1d ed f5 35 76 50 a4 3f
       -0.17082349831390475 0.039676374518388104
000490 93 d0 e4 bc 55 c3 b3 3f a7 c9 66 82 09 bc a0 3f
       0.07719932424226021 0.03268460957351076
0004a0 48 c9 b2 34 77 ea b6 3f da 2e a1 30 5c ed c2 3f
       0.08951516186315189 0.14786865591519566
0004b0 d4 4b 13 96 c8 ed af 3f 58 50 65 0d 5c 41 c0 bf
       0.06236101943945696 -0.1269946160706492
0004c0 c1 58 35 f1 9d b2 9e bf 01 30 19 37 46 b1 79 3f
       -0.0299782446357646 0.006272577551111881
0004d0 39 78 88 f4 f2 16 c4 bf df 8d 37 f9 c7 b3 b5 bf
       -0.15695034923641218 -0.08477449259185431
0004e0 76 8c 25 ee 45 42 bf bf cb 36 a5 a4 81 03 81 3f
       -0.12210499824645801 0.008307469212606297
0004f0 0a af 50 c8 5b 01 c5 bf 97 56 81 4e ee 16 b7 3f
       -0.16410395890249446 0.0901936475432542
000500 87 d6 60 f7 2d 14 a5 3f 2c 3b 8e c1 9d d1 a5 3f
       0.04116958279375376 0.042614869954482465
000510 5a 05 8d 1d 39 85 9a bf 99 69 af 97 1e 63 b9 3f
       -0.025898830822602782 0.09916869357349468
000520 29 7f b4 0f 97 23 bc bf 0c 46 60 26 01 1f 8d 3f
       -0.10991806157516905 0.014219292625088385
000530 a3 4c da e5 ff da bf 3f 90 00 a3 84 59 ad 86 3f
       0.12443541871680223 0.011072825775386513
000540 64 ef f8 22 84 2b a1 bf df 6c 37 2b 80 87 59 bf
       -0.033535126942722454 -0.001558184780938991
000550 de 78 8e 13 18 63 ad 3f c6 f8 ef c5 3f 30 c3 bf
       0.057396652591010996 -0.1499099461070214
000560 a7 30 22 6d 9a d1 ad bf 9b 17 71 85 cb e7 a8 3f
       -0.05823977071949687 0.04864345554282964
000570 db 7d 38 11 96 80 c1 3f 39 5d 4d 64 d5 f8 a5 bf
       0.13673663941243216 -0.042914074415131905
000580 5c 3d df 43 66 10 ba bf cf d0 4a 33 ab 79 c6 bf
       -0.10181273610145553 -0.17558803562645273
000590 35 4a ad 55 98 8f a0 3f 4f 16 41 ea 80 85 98 bf
       0.032345543345077145 -0.023946775720352694
0005a0 dd 08 77 4c 96 98 c2 bf 63 ff 80 31 76 bc c6 3f
       -0.14528158887521317 0.17762639443571535
0005b0 99 37 78 0a 6a e8 a1 bf f8 ba b5 c5 29 d3 9b bf
       -0.03497630479624476 -0.02717271107888572
0005c0 16 34 34 54 42 e6 b1 3f d6 aa 75 90 a5 5e be bf
       0.06991972499618301 -0.11863169457289344
0005d0 6d 6b 70 bf 13 bf c3 bf 49 52 d9 57 0f e4 bd 3f
       -0.15426871154417246 0.11676116842984031
0005e0 0b 91 73 40 39 f0 b1 bf b9 86 3e db 6e 5c ae bf
       -0.07007177184602058 -0.05929895807572678
0005f0 ab 60 24 9e fd 9a bb 3f 08 98 4c ae 6f 7a b7 3f
       0.10783372031108011 0.09171197896338878
000600 95 b7 cf 28 03 2d 95 bf aa 9b bd 8f eb c9 91 3f
       -0.020679520955972547 0.017371826790078572
000610 1c 78 2f 13 a3 04 95 3f dd 59 10 43 56 6d b2 bf
       0.020525501295075896 -0.07198084962178748
000620 3d a4 a9 8c 0b 48 95 3f ca 7a 37 23 d3 47 98 3f
       0.020782642803542684 0.02371148970075402
000630 39 7b c7 d3 b7 bb a0 3f 42 ba 45 df 5f b2 47 bf
       0.032682175256687214 -0.0007231681943674145
000640 e0 e9 9c 80 2a d4 83 bf 90 a0 74 d9 aa 73 b4 3f
       -0.009682018327670627 0.07988994416212081
000650 af c8 bd 98 2c b1 b0 bf 6d 2c 98 4f 6d 2d c5 bf
       -0.06520346383129792 -0.16544882189222979
000660 e3 12 80 58 a4 0f b0 bf 98 8a ec 5f 93 97 a7 3f
       -0.06273867760325973 0.04607830568263188
000670 f0 c5 bd 2e 68 7f c3 3f 0e e6 70 7e 45 86 b5 bf
       0.15232565195360293 -0.08408006989420633
000680 80 d6 04 35 14 a7 ab bf 08 fe 4f 43 af f1 b4 bf
       -0.05400908610537858 -0.0818128146493039
000690 f4 0a 50 11 54 93 a7 3f 4e 01 bd b0 29 94 a4 bf
       0.04604590140663403 -0.040192892860889104
0006a0 cf 74 a9 49 0b 87 b2 bf a9 23 6b 33 60 b4 b2 bf
       -0.07237310932528661 -0.07306481604895389
0006b0 9e 48 3d 41 24 af c4 3f 6f 2e b3 5a 54 33 ac bf
       0.16159489808575683 -0.05507911307503554
0006c0 9a 67 11 69 f0 0f a4 3f c4 23 d3 9b 83 e8 b0 3f
       0.03918410570686533 0.06604788355174579
0006d0 70 eb 9a f7 b1 11 c6 3f a5 b5 aa f8 2b 9a ac bf
       0.1724150141725107 -0.0558637372063047
0006e0 3f 06 b5 74 12 ec b5 3f f3 dc 0e 3b b8 29 b7 bf
       0.08563342427535135 -0.09048034135672704
0006f0 1c 3d ec 8f 3f 7b a8 3f d2 70 a1 11 07 1b bb bf
       0.04781530982847412 -0.10588115864215134
000700 c4 92 b1 8e 45 13 bc bf 91 88 86 e9 f0 5f 8d 3f
       -0.10966906293613038 0.01434314930594763
000710 f0 69 7b 99 8d 5b 99 3f 88 78 49 20 a8 39 99 bf
       0.02476330994873338 -0.024634005518571672
000720 f9 1e 33 ef 1f c3 a7 bf 2c 7c df b7 e2 32 b5 bf
       -0.04641055865209682 -0.08280770291411049
000730 c7 fa df 3f a8 19 bb 3f 4c f6 94 6e b6 2c b3 bf
       0.10586024817892357 -0.07490101051095016
000740 fa db 66 52 98 32 a4 bf 7c ab 13 a0 8c e3 b6 3f
       -0.039448509272396806 0.08940962703824867
000750 bf 7d 2e 82 e4 4a bc bf e8 74 22 62 10 28 a8 3f
       -0.11051777055990096 0.04718066404277882
000760 1b 77 e8 b1 6d c9 bf bf 40 28 13 d8 6a b4 c4 bf
       -0.12416730493029286 -0.16175590086487723
000770 cd 4e b8 a8 73 00 c4 bf 5c f6 0c cb 8a 8a a5 bf
       -0.15626378763464857 -0.04207261780400692
000780 41 c5 52 6b 6f 82 b7 3f 0a 83 54 1b eb 2f c2 bf
       0.09183403368185329 -0.1420873530815004
000790 74 6e ff b0 79 51 94 bf 23 ae 30 04 bc e1 c5 3f
       -0.01984205382164679 0.1709513683757545
0007a0 9d f6 2d c3 4c da c5 bf f6 bc 44 b4 3e 0d c0 bf
       -0.1707244828248137 -0.1254042034356428
0007b0 32 32 fb bb 73 33 bd bf 7c ca 8d 55 9a ef 91 3f
       -0.11406634654412853 0.017515574905198936
0007c0 a3 69 62 77 1e 5d 8a 3f b8 72 27 86 61 0c a9 3f
       0.012872922914813517 0.04892258417723866
0007d0 43 40 bd d5 ab 22 be bf 6a 67 b3 21 a0 f4 b7 3f
       -0.11771654098743149 0.09357643912099226
0007e0 09 6d 71 bc 32 2a c7 3f 16 22 c5 a6 45 54 99 bf
       0.1809752864963701 -0.024735534957729476
0007f0 4d f2 d0 a2 7b 92 c5 3f 00 46 13 47 60 4a bf 3f
       0.16853280496606474 0.12222863898502823

hidden2.bias f8 [32]
000000 7c da eb 0a 75 fe b0 3f 47 06 b3 ab cc 28 99 3f
       0.06638270870812762 0.024569700221724024
000010 ca 31 64 c7 3a c1 c0 bf 40 b1 f5 dd f9 56 b6 bf
       -0.13089689956576783 -0.08726464909495224
000020 72 b4 ee d6 bc e3 b6 3f e2 c7 5c 8c 41 c5 c4 3f
       0.08941250083326382 0.1622697768557933
000030 8e 84 f8 a2 4e 0f 88 bf c6 24 5c 61 b1 00 9a 3f
       -0.011747946117852483 0.02539326817262546
000040 a4 5e 53 ee 80 c7 80 3f 26 2e 98 c6 32 5e ad bf
       0.008193022988435779 -0.05735930132149418
000050 ec 33 f5 7f 52 d7 b2 3f 3e 3f f6 bd d6 e6 bb 3f
       0.07359805702181149 0.10899107110730896
000060 77 18 f3 e1 48 8d a5 bf 98 ee 22 c7 3b 70 80 bf
       -0.04209354170011264 -0.008026568426763789
000070 fe 3b 97 c1 bc 00 b2 3f 79 8d 0a 9d 0b 39 ba 3f
       0.07032375074707883 0.10243294319166364
000080 5e 48 ad 5f 46 37 a2 3f 42 81 8a ea 64 80 c1 3f
       0.035577964000041304 0.13673078014563528
000090 2a 07 b2 4b b3 57 b0 bf 31 43 a9 7d 70 32 b2 3f
       -0.06383820150406608 0.07108214443111362
0000a0 e4 eb 6f bb 97 e7 c4 bf e9 85 65 17 ab 03 bb bf
       -0.16331764843184182 -0.1055247242088836
0000b0 3c 1a 88 b8 f5 2a a2 bf 8f fe 77 b6 4f 54 ba 3f
       -0.03548400762160894 0.10284898953249864
0000c0 61 67 0d 86 dc ea a9 3f 66 aa cd 1b f4 cb b1 3f
       0.05061997543698627 0.06951833418649186
0000d0 55 99 ab 7a c8 b8 95 3f 92 f3 60 f0 26 8e c3 3f
       0.021212704169465486 0.15277563798181554
0000e0 73 2d bb 2c 96 6a be 3f 41 00 34 d5 78 2b c7 3f
       0.1188138827521266 0.18101416025456454
0000f0 29 5f ef f3 a4 6a ac 3f 0e 7c 9e 71 d8 13 62 bf
       0.05550113179896094 -0.0022067286890457066

predict.weight f8 [9, 32]
000000 48 56 dc fe cd ab b5 bf 25 74 66 76 9a ac bc 3f
       -0.08465278122124531 0.11200871840124245
000010 37 eb 18 62 93 79 b7 bf 40 1d 5c 14 26 ba c2 3f
       -0.09169884819941108 0.14630580896503353
000020 f3 76 9a 46 a8 d0 ab 3f 84 f4 c8 8d 1f be ac bf
       0.05432630407197605 -0.05613802533887571
000030 03 17 1d 67 c9 ad ba 3f 2c 52 22 03 80 cb a6 3f
       0.10421427504942575 0.04452133215196272
000040 4d 20 77 9b 06 b3 c4 bf fa 5d e6 c3 43 7c b6 bf
       -0.1617134341343011 -0.08783362896644312
000050 db 6c a9 05 fe 0b b7 3f 38 ef f6 88 06 48 ab 3f
       0.090026737577705 0.05328388616496088
000060 37 7e 55 ba 06 9b c6 3f ad 8a f6 24 0a 2f b2 bf
       0.17660602663362265 -0.0710302677385168
000070 05 d7 7d d4 2f 0a c6 3f ea 61 05 0f 25 48 c4 bf
       0.17218587756695328 -0.15845168336342336
000080 d0 dd ce 67 aa 95 8e 3f 90 0b ab 47 08 c4 7a 3f
       0.01493390206620307 0.006534607261246786
000090 56 b6 b8 b1 fe 5a c5 bf e0 f5 49 f6 4f fc 7f 3f
       -0.16683944394883338 0.0078089831846432645
0000a0 7b 51 d4 db cc a0 b7 3f 05 cd 15 80 a6 42 99 bf
       0.0922973667805475 -0.024668313567826967
0000b0 1d 4b a0 e4 03 77 c2 bf 98 32 73 f8 5d f5 c1 3f
       -0.14425705588708918 0.14030050879809575
0000c0 b8 55 6f 3e d1 fa a7 bf f8 a7 85 2c 3b 31 b5 bf
       -0.046835459586570705 -0.08278245770421211
0000d0 76 82 24 24 32 55 c5 3f 75 4d 26 b3 4b 2f ca 3f
       0.16666247143531948 0.2045683502916337
0000e0 7b 5f 03 b1 84 f4 c2 3f 52 75 fb 12 15 8d 93 3f
       0.14808710711690395 0.019092873843751086
0000f0 99 38 b4 0d a1 0a c0 bf 33 58 1a 51 87 b3 c0 3f
       -0.12532437485828465 0.13047877750494905
000100 f0 3b 48 1d 10 8f 68 bf 04 2f 50 cd b2 4e b2 bf
       -0.002997905229001223 -0.07151334297685358
000110 5e d2 65 26 ea 9c c6 3f ce 9d 1e 8f 4b 1d a5 3f
       0.17666365504159648 0.041239129276899086
000120 dc f8 02 c2 3e 78 bb bf 33 77 8b 6d 83 c8 c6 3f
       -0.10730354534732406 0.17799418305269796
000130 c9 88 36 83 ed 85 ac bf f6 a8 f1 3c d2 65 c7 bf
       -0.05570928789826863 -0.1827948377206849
000140 10 79 13 c2 18 9f c1 bf 7e 16 30 1a 1c 83 b4 3f
       -0.13766774631853496 0.0801255763945736
000150 72 53 6a dc 5d 6b bd bf 99 81 4f ad 90 a2 91 bf
       -0.11491953498109611 -0.01722169931224613
000160 76 d6 04 ca 83 84 c0 3f 56 d3 8a cf 11 79 bf bf
       0.12904403080181098 -0.122941125077728
000170 de 31 1b 97 6a 69 c1 bf a9 62 63 fc 1d ee b5 3f
       -0.1360295522521388 0.08566462909528617
000180 a6 1b 52 17 fa 95 b1 3f fc ad 92 f2 6e c3 c5 3f
       0.06869471616128794 0.1700266537130658
000190 4b 26 a5 f8 7b 3c 62 bf 05 d8 69 88 dd 65 b4 3f
       -0.0022261067689768647 0.0796793420830398
0001a0 5f b3 64 f5 b6 79 b9 bf 58 50 1d a5 d4 b5 a6 3f
       -0.09951346865700604 0.044356007724360935
0001b0 01 77 7d eb 9d 2c 83 3f 37 8f 2c a5 d7 c3 c4 3f
       0.009362443684661327 0.16222663464679396
0001c0 8a bc 1e cc ac e2 bc 3f 8e 10 4b 20 e3 0a a9 3f
       0.11283378585243234 0.048911187831920264
0001d0 e2 f8 14 97 ee cf bb 3f a2 1c cf 06 0e 63 b0 3f
       0.10864154041789534 0.06401145616756534
0001e0 ca 2b 3b f5 38 33 af 3f 92 f1 b8 b7 83 70 c3 3f
       0.06093767159980919 0.15187117071935724
0001f0 05 3b 9c c7 fc 9c ba bf c7 5d 0c 6a 5e 20 90 3f
       -0.10395793793962234 0.015748477194476054
000200 22 d2 7b 4b e3 08 bb bf f1 8b e0 a4 b5 38 a3 3f
       -0.10560436814177668 0.037542034508326945
000210 cf b5 42 54 99 f4 95 3f 36 a1 7c ed f0 8e b5 bf
       0.021440883415086816 -0.08421235845583372
000220 49 58 46 93 b7 c1 b7 3f da 49 12 b6 b6 6e a8 3f
       0.0927996382291393 0.04771967861701727
000230 5c cb f8 04 44 f8 a5 bf d7 a0 21 b7 ab 53 b1 bf
       -0.04290974198047223 -0.06768296452503662
000240 fa 0a f5 44 c2 72 88 3f 34 26 5e c7 e4 5f bb bf
       0.011937635163695049 -0.1069319712388726
000250 b2 49 57 a4 bd fb 92 3f e0 98 5a ee c3 6f c5 3f
       0.018538439899040866 0.16747330797551907
000260 50 8e cc d4 ed 58 b1 3f bd 15 84 f7 f4 30 be bf
       0.06776319928445074 -0.11793452303762471
000270 8b 75 f7 1d 31 c7 c4 3f 46 58 4a 19 f7 ed bf 3f
       0.1623288532563659 0.12472481124345433
000280 61 a4 30 2f c3 12 99 3f 9f 6c 4f 02 5e 47 b5 3f
       0.024485635524034047 0.08312022739794366
000290 e2 9d 75 b4 6f 61 c3 bf 55 17 5f ea b3 56 c1 bf
       -0.15141102134224044 -0.1354584593192906
0002a0 9b f6 66 70 79 d3 b7 3f 5f 13 a4 15 35 24 cb 3f
       0.09307059282488199 0.21204246098218513
0002b0 4f f4 00 6b 98 67 bc bf 85 b8 12 75 b7 6b b6 bf
       -0.11095574009319019 -0.08758112533789315
0002c0 a1 8c 2e 06 f1 b5 84 bf 46 49 5e 4f d2 ce c8 3f
       -0.01011265087237795 0.193811692003303
0002d0 fb d9 97 80 65 67 ab 3f d6 8c 4b 5d 8c 3d cd 3f
       0.05352322764149516 0.22844080501008673
0002e0 de 3e a4 54 e8 60 a0 bf 40 aa 5a 23 20 39 7e 3f
       -0.03198934586737122 0.007378697909795451
0002f0 fd 4a 41 06 86 68 b8 3f a6 be dc 23 ff 83 be 3f
       0.09534490254126733 0.1192016089014439
000300 13 1c 4b a9 7c 91 a4 bf 26 c7 45 b1 36 9b a2 3f
       -0.040172477403352634 0.036340436114995975
000310 d2 53 20 59 12 f9 a3 bf 93 65 a2 99 1e c8 b9 bf
       -0.03900964105574868 -0.10070983172263075
000320 e8 ae da 73 b4 b8 bf bf d5 ab 5e d3 af 77 a3 3f
       -0.12391212299797483 0.03802251296232099
000330 c0 77 fb 87 8e 3e c6 bf 9d 22 bf 34 ee de b0 3f
       -0.1737840808845572 0.06590164935836147
000340 af bc 9c 3e 26 30 bb bf 58 6f ab 1f 0a 46 ae bf
       -0.10620345142955288 -0.05912810932724594
000350 14 0f f0 64 3c a4 8b bf 26 bd 16 b0 2a 6c af 3f
       -0.013496848898291648 0.06137212180635236
000360 66 7b e8 da 16 f9 c1 3f 78 65 15 ea 37 0b c2 bf
       0.1404141014945381 -0.14096735887396128
000370 05 2a f5 e8 3a e8 7a bf 98 80 8e b0 f8 32 c3 3f
       -0.006569128148223862 0.14999302502565537
000380 f1 f9 dc 4a 7a 0f c5 bf 8e f0 cb 80 9f 97 a4 3f
       -0.16453484206608907 0.04021929213738061
000390 37 0c 07 5a b8 66 b8 3f 5d b1 e8 24 92 ee ae 3f
       0.09531738470018146 0.060413901334274135
0003a0 0b 46 8b 85 48 af b2 3f 27 5a d3 63 93 63 67 3f
       0.07298711071350554 0.0028550986013258397
0003b0 95 0d 26 e8 1e 38 b7 3f 53 25 4e 1d 1c 42 b0 3f
       0.09070008437816164 0.06350875583134057
0003c0 62 5e bd 8b 0d 99 9c bf f3 03 5e 49 fb 16 a8 bf
       -0.027927600530658465 -0.04705033560367857
0003d0 d6 c1 fd 4a f7 e4 8d bf c5 56 3c 49 ef 23 9c bf
       -0.014596874214220994 -0.02748083004470094
0003e0 84 0d 7a 2e b9 da c5 3f 80 56 7c 87 51 e5 b7 3f
       0.17073740739224885 0.09334287221676085
0003f0 d5 32 d3 26 89 b2 b8 3f af 2d 06 49 29 42 d0 3f
       0.09647423932910766 0.2540381634832682
000400 df 13 c4 48 e6 3b 93 3f 71 e9 da 33 74 9d ba 3f
       0.018783186141280935 0.10396505609506847
000410 c7 4e 31 f1 8a 4a c0 3f b2 c5 80 c8 20 ce b8 bf
       0.12727486397726848 -0.09689526457875422
000420 65 c2 e1 06 7c 01 b0 bf 30 bf 11 93 c9 dd 9c bf
       -0.06252265136732545 -0.028189801789664404
000430 85 a6 bf bf 0f 99 b3 bf c9 14 02 4a 52 f1 88 bf
       -0.07655428344119215 -0.012179034122036818
000440 f4 cb c3 67 2a 0d ad bf 78 5c 5c ed 6f a9 c5 bf
       -0.05674107090626271 -0.16923331346399428
000450 4d 10 75 8c 8a 92 c3 3f ae 76 93 27 29 2c b7 3f
       0.15290958269372582 0.09051758972369825
000460 6d c4 cf 64 0a 42 7a bf 6f 6c f4 2a 1d f4 b1 3f
       -0.006410637474787523 0.07013113306713746
000470 e4 c6 45 f6 58 8b b3 bf 47 c9 3b 1f e9 15 9d 3f
       -0.07634502422822781 0.028403894931167597
000480 69 d9 65 c5 53 04 af bf 7a 7d a2 88 ca c9 c2 bf
       -0.06057988915101726 -0.14678317710511718
000490 4e 6d e3 25 7d bc b8 3f 34 5d c5 51 c3 72 c1 bf
       0.09662611174592436 -0.13631478779527983
0004a0 08 94 ac 6a 67 02 c5 3f fd d8 9a 9b 4a ee 8f bf
       0.1641358633870882 -0.015591223596271403
0004b0 ad 67 b3 68 de f7 c6 3f 7d 6f 71 fb 94 e9 ba 3f
       0.17943935501426492 0.1051266778826498
0004c0 1b dd 6e 8d b0 5e c7 3f da b6 51 ba 53 95 c5 3f
       0.18257719903861233 0.16861960027329453
0004d0 b0 53 91 0a b3 d2 90 bf 8b c6 95 97 8c c2 bd 3f
       -0.01642875434875507 0.11624983502204082
0004e0 63 e3 fc 79 2a 75 a3 3f 7c 8b 54 21 d2 b7 c5 3f
       0.03800328005895073 0.16967226626828935
0004f0 25 ad 05 9f 87 2f c0 3f 3b ac 7b 60 02 48 c6 3f
       0.12645049347643425 0.17407254897202215
000500 64 7c 23 a1 64 52 a8 3f 08 c9 4d 99 91 7e 90 bf
       0.0475036093428052 -0.016107821447300302
000510 ae 93 58 97 38 91 bf 3f 72 f8 fb 65 6a c1 87 bf
       0.12330964751215731 -0.01159937976580869
000520 82 67 e7 cc 1b c3 c1 3f f7 9e aa 04 ea a1 c8 3f
       0.1387667418010175 0.19244122722488274
000530 5a 81 2e 56 f4 96 af bf 23 37 51 5d 54 15 c0 bf
       -0.06169856597921593 -0.1256509261751769
000540 6e c2 bc 7d 4a e0 bf bf fb 7d 35 d5 4c 84 b2 bf
       -0.12451615876921959 -0.07233123975083082
000550 56 30 62 2d 08 67 a2 bf 3f e7 d1 4e f4 09 8d 3f
       -0.035942321338638436 0.01417914262332298
000560 60 4f 47 c7 94 2d aa 3f 82 24 c2 ba dd 7b b6 bf
       0.05112900669669673 -0.08782754716425425
000570 77 2c a5 72 ca 56 c5 bf 6a 9d 38 89 29 d5 c0 3f
       -0.1667111453810752 0.13150519562007484
000580 e8 e6 13 19 82 25 b2 bf d2 b0 10 4c a1 fa c4 bf
       -0.07088482963800014 -0.16389862264748573
000590 eb d0 f8 a7 8d 0c af bf b5 f3 b6 1b 69 8e c2 3f
       -0.060642649416338866 0.1449710259747953
0005a0 81 b9 a3 89 50 a6 b3 bf 1f 96 38 34 12 98 ad bf
       -0.07675650940266189 -0.057800835489882234
0005b0 a5 50 36 00 eb cd b7 3f ba 26 fe c5 a6 55 c6 3f
       0.09298580889873394 0.1744888750802625
0005c0 4f c6 cb 9f ef 24 c0 bf f5 cb 71 77 29 18 b5 3f
       -0.12612719824351123 0.08239993253827989
0005d0 a7 b6 04 87 43 5a 9c bf 4c b9 3b 7a 91 6e b3 3f
       -0.027688078990812184 0.07590588793002445
0005e0 58 bd e0 97 5a 05 c8 3f d3 f2 32 ba da 67 ac 3f
       0.18766338745033795 0.05547984621941784
0005f0 c4 a7 cf e8 59 5a aa bf db ee 89 aa 62 38 c2 3f
       -0.05147057501729038 0.14234574629869354
000600 47 09 f1 ec a5 7c b7 3f ff 07 b4 d5 41 82 c1 bf
       0.09174572977739102 -0.1367876332733999
000610 bd 0d a0 a4 9b eb a2 3f 14 93 85 c4 1a f4 bd bf
       0.0369537962397106 -0.11700599000830564
000620 9f c8 c1 29 9a c6 96 bf 50 fc f7 33 32 25 a5 3f
       -0.022241982267993007 0.04129940876372784
000630 71 c6 52 82 34 84 ab 3f e3 90 70 40 82 c9 b8 3f
       0.05374301997052278 0.09682478020892264
000640 0b 1d 38 85 fc 47 c2 bf e1 da 18 02 32 c3 aa 3f
       -0.14282185082286278 0.05227047229384652
000650 e7 ba 4d 7e 93 11 c4 bf 96 95 20 e4 e9 d3 ba 3f
       -0.15678638140840137 0.10479604548944219
000660 bd 52 1f a6 3c cb af 3f c8 7c 54 f0 20 ec b2 3f
       0.062097449568374576 0.07391553752357816
000670 04 cd d1 82 47 48 a3 bf fc 28 a2 7c ab 36 bd bf
       -0.03766082260053774 -0.11411544602211515
000680 75 6b 0d a5 be b6 97 3f f9 ac 2e 6c 72 5f bc 3f
       0.02315805323028593 0.11083140507860269
000690 57 aa 08 c3 7c 76 86 bf 84 3d 74 ff 34 88 bf bf
       -0.010968184186897973 -0.12317210423156238
0006a0 8d ce 12 a1 39 73 95 bf b3 c0 f2 81 50 9b 8e 3f
       -0.02094736142744451 0.01494467636652561
0006b0 bc ea 57 77 35 40 a8 bf de fa de f3 92 17 a7 3f
       -0.04736487466648984 0.0451017306036101
0006c0 f5 b4 2d ed 39 cd b8 3f 60 1c de 72 ac 04 c6 3f
       0.0968815044449974 0.17201762779970675
0006d0 50 92 ab a9 85 e6 96 bf fa 87 fe 63 22 3e b0 3f
       -0.022363747101638076 0.06344809476152583
0006e0 d6 2d 0e 25 80 69 c9 3f 48 c0 41 62 96 3c c2 bf
       0.19853212174744667 -0.14247398183533933
0006f0 5a 1d c2 62 16 51 b5 3f 39 68 b3 40 35 c8 a4 bf
       0.08326854621019689 -0.04058996596150206
000700 e0 d9 cd d8 68 e9 c3 3f 9c ac f8 b0 c4 cb bf 3f
       0.15556059442651726 0.12420300789442468
000710 a6 4b f4 33 df 5f bb 3f c1 76 b7 67 cd 7d b3 3f
       0.1069316388932707 0.07613834173340718
000720 c5 86 aa 7c 3f d3 b3 3f d3 6c 56 47 21 9b b8 3f
       0.07744213861090106 0.09611709586754395
000730 56 40 6d 00 86 2e a0 bf 66 56 8d 19 86 9f c3 3f
       -0.031604945709319196 0.1533057808652984
000740 bd 75 62 0a 4a 8d c2 3f 98 e1 e9 28 af 2c bf 3f
       0.14493680483876217 0.12177557705752518
000750 e4 13 d7 ab d1 e5 78 3f fb 41 e1 75 ae a7 c3 3f
       0.0060785475047326655 0.1535547328553689
000760 5b 29 a3 7e 10 89 a6 3f 31 ed d4 c3 7e ec aa bf
       0.044014468630467284 -0.05258556499981138
000770 f1 22 5c b2 3d b2 bc bf be f4 97 d2 9f 92 97 3f
       -0.11209474186410852 0.023020264843570663
000780 18 6d 29 c7 e5 85 c5 3f 3c 92 e4 8d c2 0e b9 bf
       0.16814872955988203 -0.0978814693849665
000790 4c e1 69 95 45 02 90 bf 27 a2 ff dc 24 70 ae bf
       -0.01563366627166944 -0.059449340798725374
0007a0 c9 e9 e0 8a a5 19 bd bf 19 8b b2 db 3c 23 c1 3f
       -0.11367258682813665 0.13388787009633843
0007b0 54 fc 1d ba 7d d8 bb bf 0d dc bb c2 df 0c 91 bf
       -0.10877214235186844 -0.016650673161134267
0007c0 6d dd 2c 3c 98 0d 9b 3f 90 20 97 9b cd 32 c1 bf
       0.026419047043615352 -0.1343628892630062
0007d0 7f 65 47 1d 54 ab b1 bf ea ad c0 44 8b 68 be bf
       -0.06902051653687201 -0.1187827151158484
0007e0 ba 9c 62 5b 9a 2b b9 3f ce 31 62 51 44 93 c6 3f
       0.09832157832225877 0.17636922811324357
0007f0 51 29 20 f9 e8 5b a2 3f a0 23 ba 8e fd 2f 91 3f
       0.03585746804317814 0.016784631573077413

predict.bias f8 [9]
000000 e4 21 6a 17 30 ca ae 3f 55 e2 a1 50 56 25 92 3f
       0.06013632093260293 0.017720554992111854
000010 20 ed 33 5d d7 9f ac bf 33 ab ce 07 8d 2e 84 3f
       -0.05590699208002037 0.00985441379619587
000020 d7 4d 73 e7 89 c8 aa 3f f2 6b a9 a3 2c cc 96 bf
       0.05231123876879067 -0.022263238419650784
000030 58 a5 b6 bb 82 bc b6 bf 2c 8a 7e 83 44 40 c6 bf
       -0.08881394465301662 -0.17383629246349253
000040 e8 4f 00 1b 0a 63 38 bf
       -0.0003721141501966661
