task2morph/03_rotate_plank/results/tmp/params.npy (npy, 2120 bytes, 1 tensors)

array f8 [249]
0	0xbf742abdf1bf93f0	-0.0049235744190569836
1	0xbfb3bf9bcabaca97	-0.07714246463255346
2	0x3fbd2d93d8abac1e	0.11397670783814859
3	0xbfb88c2b58d24028	-0.0958888141487938
4	0xbfba502191b69ac6	-0.10278520400479882
5	0xbfba2fc99090db94	-0.10229167727889737
6	0xbf69b77fcfcf28d0	-0.0031392570803961753
7	0xbfb44cee8b419cb6	-0.07929888629733992
8	0x3fbcca44e314401d	0.1124613813774435
9	0xbfb881f808ffc3f9	-0.09573316783622933
10	0xbfba40e0fe034642	-0.10255247308239127
11	0xbfba228c471b95a6	-0.10208966003445727
12	0xbf5b5782d3f0a428	-0.0016688134780997819
13	0xbfb4756109234ebb	-0.07991606209844353
14	0x3fbcb9f21a28b597	0.1122123063912198
15	0xbfb883463b39b58f	-0.09575308748181598
16	0xbfba3fd5c92c9f5e	-0.10253654633981799
17	0xbfba20a1668dd18a	-0.10206040147551768
18	0xbf310dcb8b22eaa8	-0.00026022166560905413
19	0xbfb49ee782dc5d71	-0.0805496878132226
20	0x3fbcaaa2ca4c6391	0.11197869719434396
21	0xbfb88425f371ecbb	-0.09576642220956703
22	0xbfba3e8e31243879	-0.10251702022307708
23	0xbfba1ea05863bc3b	-0.10202982099484441
24	0x3f51d0279e423ebc	0.0010872256180255854
25	0xbfb4c8ff7f819499	-0.08119198668426221
26	0x3fbc9c548ac93f33	0.11176041019757292
27	0xbfb8849776f144bb	-0.09577318815105944
28	0xbfba3d0d850a000e	-0.10249409196876533
29	0xbfba1c8bc4e3ed73	-0.10199807698147882
30	0x3f6372a8c7a9f748	0.002374009750666515
31	0xbfb4f37ff768f279	-0.08184051313669184
32	0x3fbc8f1d7e7bdcc9	0.11155876481994932
33	0xbfb884a31d87c0eb	-0.09577388258890422
34	0xbfba3b5a1091a46c	-0.10246813683046846
35	0xbfba1a66f176c437	-0.10196536440959468
36	0x3f6d7f1bfb212d1e	0.0036006495002191127
37	0xbfb51e5cbda5359d	-0.08249454145444308
38	0x3fbc8317197da44e	0.11137527820905399
39	0xbfb88453985dc894	-0.0957691428173198
40	0xbfba397b47199386	-0.10243959890210705
41	0xbfba183589ad1363	-0.10193190203888274
42	0x3f73875bcf84cc88	0.004767759928927202
43	0xbfb5499548f4a016	-0.08315403967992582
44	0x3fbc785811574825	0.11121130393374352
45	0xbfb883b453947aa0	-0.09575964966323136
46	0xbfba37793864887c	-0.10240895869040573
47	0xbfba15fb8ad477fa	-0.10189792766001907
48	0x3f7811bff1063f36	0.005876302501192579
49	0xbfb5752f71082a68	-0.08381935605590629
50	0x3fbc6ef34bca8de6	0.11106796837207575
51	0xbfb882d0f82d4462	-0.09574609812740811
52	0xbfba355c5ca14715	-0.10237672101473223
53	0xbfba13bd3659ae3c	-0.10186369492446884
54	0x3f7c60e8dc4494d2	0.006928357707043991
55	0xbfb5a134f8e806be	-0.08449107243361717
56	0x3fbc66f922fed339	0.11094624618892802
57	0xbfb881b529b56377	-0.09572918194079515
58	0xbfba332d663493cf	-0.10234340424774689
59	0xbfba117efcaa3ee9	-0.101829468427464
60	0x3f803d3e874f345c	0.007929314140620196
61	0xbfb5cdb02e54121f	-0.08516980296196451
62	0x3fbc607c4c7990ea	0.11084725253164476
63	0xbfb8806c19a86df5	-0.09570956827558759
64	0xbfba30f4dd21bd74	-0.10230951689458384
65	0xbfba0f4549f81aa0	-0.10179551177871327
66	0x3f8236eb2ff67f63	0.008893811608515717
67	0xbfb5faa2f2f11fd2	-0.08585565978239565
68	0x3fbc5ba0d2aed916	0.11077313560131005
69	0xbfb87eff63e317b0	-0.0956878298630659
70	0xbfba2eba04c3b946	-0.10227549187013549
71	0xbfba0d13f7204379	-0.10176205428457576
72	0x3f843229d447790f	0.009861304083582682
73	0xbfb627ec7d1c54aa	-0.08654668859920159
74	0x3fbc58c81ae23c6a	0.11072970062581225
75	0xbfb87d739ae58ef6	-0.09566423923166298
76	0xbfba2c7f68d95bbb	-0.10224148092070966
77	0xbfba0aec8b2d9a70	-0.1017291869917274
78	0x3f86654e6d6ab611	0.010935414041649801
79	0xbfb655007c4bffaa	-0.08723452601043272
80	0x3fbc590da5c680fa	0.11073384568453895
81	0xbfb87bbb6557e0bd	-0.09563800071907998
82	0xbfba2a35122de9e3	-0.10220653241950788
83	0xbfba08c73b3752d4	-0.10169644542413475
84	0x3f895ae2b18bdd7b	0.012380381625446848
85	0xbfb6803fbf529749	-0.08789442463838983
86	0x3fbc5f99c3b9a6dc	0.11083375004241297
87	0xbfb87971b571fa47	-0.09560309104743069
88	0xbfba276602e29f95	-0.10216367311897863
89	0xbfba066920d31f1b	-0.1016603188646709
90	0x3f8e6dd54ebd08cb	0.0148579277662332
91	0xbfb6a6c7b4f174a3	-0.08848236243780376
92	0x3fbae4070f64643f	0.1050419247225287
93	0xbfb873a5cf3013a1	-0.09551464374824416
94	0xbfba20aa43c1d0d2	-0.1020609298155393
95	0xbfba021cf0828b55	-0.1015947425062625
96	0x3f945178b140ebab	0.0198420389353761
97	0xbfb6cd92da6fb5be	-0.08907430489462961
98	0x3fbb1c4ed3a73985	0.10590069453539826
99	0xbfb9e89cc17f71be	-0.1012056324393091
100	0xbfb9fc7701daa429	-0.10150855822816197
101	0xbfb9ee09fdc5c262	-0.10128843732469187
102	0x3f97b4ea800585ba	0.0231510773313681
103	0xbfb84e0b8e778f0e	-0.09494087436865703
104	0x3fbb4210d3cf869f	0.10647683306845089
105	0xbfb9e410b41ebbe8	-0.10113624951803468
106	0xbfb98e5103e26cd4	-0.09982782692752618
107	0xbfb94aadadb9a460	-0.09879575244271299
108	0x3f76bd05564aeca4	0.005551358077975941
109	0xbfb7676d966b1836	-0.09142193720171651
110	0x3fbbe535f961004a	0.10896622980453788
111	0xbfb8932a63fb972d	-0.09599556866632204
112	0xbfba1d3f7c42e568	-0.10200878890727483
113	0xbfb99c9632af4a69	-0.10004557359142442
114	0x3f280db4d38d2ddc	0.00018351394990144445
115	0xbfb76f23d0b9d448	-0.09153961034628921
116	0x3fbb9306940df7a9	0.10771218409169471
117	0xbfba12659a4f1e55	-0.10184321420012428
118	0xbfba64d086f5669c	-0.10310080809486027
119	0xbfba2ded21136d6d	-0.10226327950970467
120	0x3f4b0bc730b6f640	0.0008253786667677468
121	0xbfb793e64e1bd2df	-0.09210051924658157
122	0x3fbb91d7c76edf3a	0.10769413584682477
123	0xbfba056def9f1f31	-0.10164534664283732
124	0xbfba22d0d3f9f27c	-0.10209374594882975
125	0xbfb9ec1314aa4409	-0.10125846151846941
126	0x3f509dd70fcb9071	0.0010141945087349914
127	0xbfb7baf18a438f65	-0.09269628167709028
128	0x3fbb76333c453f4d	0.10727234097907719
129	0xbfb9d05c047d9623	-0.10083556279786214
130	0xbfb9e654c3661f46	-0.10117082376939121
131	0xbfb9dd3d7d548710	-0.10103210744685165
132	0x3f663aa81701b046	0.002713516521955869
133	0xbfb7c2e7fcfc452f	-0.09281778265382877
134	0x3fbb707df6631738	0.10718524232205773
135	0xbfb9ebdabef91f18	-0.10125510370664548
136	0xbfba0b3c018b5b7b	-0.10173392331794943
137	0xbfb9fb10fd922cc0	-0.10148721876810196
138	0x3f7257971b41d6d4	0.004478063831006646
139	0xbfb7bc7e47ab428f	-0.09271992921572746
140	0x3fbb6e25639ba47e	0.10714944536052148
141	0xbfba0aa5fc31651f	-0.10172498137525963
142	0xbfba397e449daea0	-0.10243977713769903
143	0xbfba0d66f017855e	-0.10176699983232626
144	0x3f77e9dd2792f6fb	0.00583826435575729
145	0xbfb7cd1c82a70749	-0.09297350110776138
146	0x3fbb66f7fe35fb48	0.10703992801971396
147	0xbfba0ce47504f174	-0.10175922257343989
148	0xbfba3fa891ae675e	-0.10253385121032241
149	0xbfba0dd67eeb27fc	-0.10177364920232884
150	0x3f80165908c529d6	0.00785512502684053
151	0xbfb7ca0bb82208d9	-0.09292672391351021
152	0x3fbb695d7c05320c	0.1070764949592517
153	0xbfba18f72f17d2fe	-0.10194344424946775
154	0xbfba50caa465ff1e	-0.10279528154023551
155	0xbfba18e76ee03089	-0.10194250542571316
156	0x3f845127b66c0a53	0.009920416121080999
157	0xbfb7acfb4da4c488	-0.09248324056240353
158	0x3fb9dd6263f02e32	0.10103430690667706
159	0xbfba2c2c8271a48f	-0.10223653969446132
160	0xbfba65cdfb1e118a	-0.10311591511533016
161	0xbfba03fac09f8633	-0.10162322237695136
162	0x3f837a4abc9ecefa	0.00951059711574186
163	0xbfb78c1bd1bfe200	-0.09198163863027986
164	0x3fb9c50d4b0b25d7	0.10066302377813173
165	0xbfba32135d2b88c4	-0.10232659363421975
166	0xbfba67caae40f0fa	-0.1031462359832779
167	0xbfb9e734ee17fda8	-0.10118418515047856
168	0x3f783172867e1343	0.005906531681721119
169	0xbfb79cbbfaa12b5f	-0.09223532551656664
170	0x3fb984107cfdf534	0.09967139293253952
171	0xbfba115fab570c65	-0.1018276017485263
172	0xbfba53facaedaa0e	-0.10284392790132577
173	0xbfba070ed30072ca	-0.10167019511613798
174	0x3f795e04ec73bb9d	0.006193179352734027
175	0xbfb7da72f43ae2ae	-0.09317701780936247
176	0x3fb97579a95d0666	0.09944877991531484
177	0xbfb9f240fbc4324f	-0.10135275026932188
178	0xbfba2da1c53bd3db	-0.10225878777767099
179	0xbfba0b019715d83e	-0.1017304414616271
180	0x3f783eb6162bee67	0.0059191811330908456
181	0xbfb8171691e6a1fb	-0.09410229742082514
182	0x3fb95a0de239a301	0.09903036854815285
183	0xbfb9e4bac71b9e2f	-0.10114638672859465
184	0xbfba0d5dfb6bc534	-0.10176646602828471
185	0xbfb9f3e68b2b7181	-0.10137787721345683
186	0x3f571fd6b4fd058f	0.0014113995311649562
187	0xbfb83a277e806e3d	-0.09463736380023931
188	0x3fb8eac5cd332a8f	0.09733234653246313
189	0xbfba448188f9269f	-0.10260781854699495
190	0xbfba978330a8be14	-0.10387439668624437
191	0xbfb8c48592d35954	-0.09674868425949984
192	0xbf731a5ec86ca015	-0.004663820501072298
193	0xbfb8a6b0d6f2097b	-0.09629349944774461
194	0x3fb8689bcea3eb8d	0.09534620089463726
195	0xbfba6c31abf508f6	-0.1032134098832421
196	0xbfbaeb3b4917abf4	-0.10515184912189551
197	0xbfba427b985cad12	-0.10257694692397859
198	0xbf756819091748c0	-0.005226228518454501
199	0xbfba01235c6e50c5	-0.10157986647238022
200	0x3fb88334895a0b51	0.09575203278840873
201	0xbfb93bb8b3a46360	-0.09856752763552157
202	0xbfb93b8a67396962	-0.0985647680294384
203	0xbfb916d27501e60a	-0.0980044875776899
204	0x3f71102d9cb7ff66	0.004165819332683762
205	0xbfbb30d6caa2dcf7	-0.10621397444889512
206	0x3fb8d3a750309d78	0.09697957713853167
207	0xbfb75d01d892dd39	-0.09126292741244847
208	0xbfb6264588300284	-0.08652147841349672
209	0xbfb78bc657feb59c	-0.09197654388727589
210	0xbf69c64a50156a90	-0.0031463099882505577
211	0xbfb9cf849c88f97d	-0.1008227235952059
212	0x3fb673bffbc2c54d	0.08770370384697408
213	0xbfb933ff073fbfce	-0.09844964911439932
214	0xbfb8b60f737b83f9	-0.09652802056690736
215	0xbfba910e48432543	-0.10377587570396422
216	0xbf94648477031844	-0.01991469360725541
217	0xbfb889d6991da78b	-0.09585324514560349
218	0x3fb38741cf8fbf60	0.07628260915202878
219	0xbfbced00200e377f	-0.11299134047132318
220	0xbfbea9616ba6e992	-0.11977204206679051
221	0xbfbd1834341b588a	-0.1136505725110927
222	0xbf944938b58f6ec9	-0.01981056793361694
223	0xbfb907e9bce600a8	-0.09777699338701729
224	0x3fb49195d589c83a	0.08034645522437325
225	0xbfbc91c259d7588f	-0.1115991086329322
226	0xbfbe08ca6bea5b3b	-0.11732163557676938
227	0xbfbb7d3cc6567c8b	-0.10737972109062548
228	0xbf86ac8a66a3b756	-0.011071282632169204
229	0x3f58c67cccb6c842	0.0015121668574065304
230	0x3fa895fac379b4eb	0.048019253122086734
231	0xbfbbc4763c5ed4c2	-0.10846652006042048
232	0xbfbcd0315c95122e	-0.11255177030859251
233	0xbfbad6c9b14fedee	-0.10483990267669416
234	0xbf73c6b2a3d9f9a5	-0.0048281648756742
235	0x3f90a87285b8afd0	0.01626757565661291
236	0x3f8429aa74cdb1e0	0.009845096292075917
237	0xbfa2bde42da1cb3f	-0.03660500580817549
238	0xbfb2ec907f555bf0	-0.07392218693472308
239	0xbfb78ac9e9a4a653	-0.09196149782351286
240	0x3feffa20d751a2ff	0.9992832379767548
241	0x3ff002ccdb2379e2	1.0006836471653675
242	0x3ff00a874a21f973	1.0025704284485897
243	0x3feff09e1ab96dc9	0.9981222650489424
244	0x3ff024f99e69be7c	1.0090271175394312
245	0x3ff025007d004246	1.0090336687900545
246	0x3feee392e4aab872	0.9652800050878467
247	0x3feeec460468b696	0.9663419805635438
248	0x3feea9f9955d520b	0.9582488934780157
