task2morph/01_finger_reach/model/reach_model_parameter_reference_3.pkl (torch, 16485 bytes, 6 tensors)

hidden1.weight f8 [32, 12]
00000000: 6c62 0324 8736 be3f 6a82 57af dcbe b43f
00000010: e229 4162 0c77 c5bf 9996 3f3f 3ba9 cc3f
00000020: 4047 401b 12e4 babf 175c 527d 6695 d0bf
00000030: c7be e0e2 01a9 d43f 860a df74 839b cabf
00000040: 56f5 05d5 1bba a23f 536c 7ede 3762 d03f
00000050: eced 0106 045f a83f 676b 0551 f828 cdbf
00000060: e6ed 2763 891d d1bf cfea 0215 6ac5 c73f
00000070: ec45 1c21 e6a9 c4bf 38e7 6ad7 83ba c53f
00000080: 26d8 dcf9 aa3d c8bf 17ef 1bd7 d4e3 8dbf
00000090: 9fe5 0e73 616f c8bf 070f aa18 7616 883f
000000a0: 825b 9962 de0e c83f bac7 12b1 c9f7 cbbf
000000b0: f0c1 a996 c02c b23f 1603 fa10 73de b93f
000000c0: 2412 76f9 454e ba3f df30 7091 c0ba c8bf
000000d0: a6a5 6334 d153 d73f a19d 0b54 65a6 c3bf
000000e0: 3b51 00a4 2f03 a6bf 26ba 7fd6 cbf2 abbf
000000f0: 56d5 a0b5 4170 d0bf 57ea a6c8 fd12 d73f
00000100: 0dbe 89a4 4dc2 bcbf 0e08 7806 a997 c23f
00000110: d5df 904b cc17 903f 4cf8 94c7 5ab1 943f
00000120: 6d53 7d2d bd31 c8bf 06bc 42dd a44f b0bf
00000130: 966a b8a1 ad03 b5bf 6768 6b50 5a46 c4bf
00000140: 70a4 a2dc fae5 973f 4877 4032 7bfc d23f
00000150: 70f8 593d b497 ba3f 9a9b cf4b cf2e a93f
00000160: 4ff6 ece4 d1e1 923f af53 92ef 96c4 c93f
00000170: 445e 83e6 cbe9 b9bf fa3a 9e92 8031 d73f
00000180: 298d ee83 7ebf 963f da7c b994 a8dc c23f
00000190: f6e0 9161 b375 873f 274a 0c85 c227 bebf
000001a0: b46e 0b75 cc71 ca3f 1a8c 76f5 272e 77bf
000001b0: a895 1ffd 89e8 cabf 3160 100f 46c1 cebf
000001c0: 905c 4607 e75f d63f 3c77 c017 6f0f b3bf
000001d0: 68f8 7588 f9c2 bb3f b918 2304 0e06 c5bf
000001e0: 7422 0c0d 5a71 b43f 1486 7504 1277 c0bf
000001f0: 9f51 eb2b da9a cabf e158 8c9b 3608 d2bf
00000200: acd4 ca20 3815 b0bf ff18 48cd f25a b8bf
00000210: a22f 505b 9cf1 c33f 7ce8 b7df dfbe d1bf
00000220: 910a fdec 86df d6bf 2485 9240 655e c8bf
00000230: fb71 062b de51 cb3f a491 dc97 95a4 ce3f
00000240: c5a2 4ab3 a5b9 d2bf 3f46 0f62 95bb ccbf
00000250: 9226 a0f9 3d49 933f bb3c 373e ef7d cb3f
00000260: 7985 d76b 31d4 a83f 91a8 f969 3227 ab3f
00000270: 4709 b2b2 87c5 c9bf ef73 ad89 ad05 d03f
00000280: d7f1 a150 6707 bb3f 1662 db9e b574 a13f
00000290: c5bf 4693 df27 c33f 175f 0085 f674 d53f
000002a0: c576 48fa f1f0 c0bf a3b9 4702 135f b93f
000002b0: 85a7 4095 259f d03f a4d0 8497 eb57 babf
000002c0: 5108 95a6 52b6 94bf 8221 fc99 845b 6dbf
000002d0: 6ebc 8e1f 6cbd b2bf 5fc1 5e0f 137f a3bf
000002e0: 7a60 369b eae6 ca3f f89e 7a92 1a77 a33f
000002f0: f96f f535 ae59 b03f 4bf9 efd7 0851 d4bf
00000300: 22f1 340f 1a72 80bf 861a 6f35 5efc d43f
00000310: 6c77 2d62 ccb8 a8bf 5bec 0349 a557 a33f
00000320: 5626 dac5 88cf c13f ea8f 8ae3 03a3 b43f
00000330: a467 8caf 6ef0 a43f 9662 a593 6a69 c1bf
00000340: 115a 74be d67f ce3f de05 4879 c439 cdbf
00000350: e060 0129 74ba b73f 4af5 c42a eb30 d73f
00000360: cc37 0700 4fce af3f 9c17 99cd 6b4b dabf
00000370: dd7c 8a6b 47a7 d4bf 44df 9ebe fdb4 d43f
00000380: 641a 4dfe f205 c0bf 5fa4 c03b 5c19 cf3f
00000390: 02ca a645 89bb c33f 2bab 0b92 b860 cf3f
000003a0: 5179 237a 3ff9 a73f 1b98 238a f930 bb3f
000003b0: 0dfe ec04 345d d5bf 7b7d 7bdc 9425 d73f
000003c0: e6ac 45ad 81e2 c6bf 9349 4242 f537 d13f
000003d0: 71f4 4a22 b288 c23f 7019 1c31 f4bc 42bf
000003e0: 85f4 e58c 45e3 c5bf c517 fea5 951b d33f
000003f0: 72b7 e94c 9668 be3f 3f99 ebf5 00ce c9bf
00000400: ac53 e120 943b cd3f 32c7 f979 cc33 ab3f
00000410: 1943 7c31 ef70 d4bf d56c ae9a e89e d2bf
00000420: 3ae9 767b 7a18 b5bf 67bc df4d 4ac1 c1bf
00000430: 0ecc 0d96 cffb d13f 5eba 6cbf 3b42 c13f
00000440: b228 1eeb f7bb c63f c6ce 5bc6 872f ad3f
00000450: ef37 b8ba 3a35 b83f 9ddd 1dcb 5926 cbbf
00000460: 6f08 2604 091a c8bf 444f 9e18 3c22 c53f
00000470: 0c62 2c4f 6974 c03f 9590 47d9 cafd d23f
00000480: 3a8d 1f0b c206 98bf 7765 cfdc 091c a2bf
00000490: 0572 1ed6 3f0f cebf 477b 4ec2 1659 c03f
000004a0: 6be2 d44d 7a1d cf3f 810d 5478 09e7 cf3f
000004b0: 1f85 9d4e 6da3 ae3f 349d 98ac 84d7 d23f
000004c0: 1ba1 c2a7 7ebc b03f da1f 8a21 36cb 9cbf
000004d0: 9c7a 1023 c95b cebf 5675 1fa9 1552 c6bf
000004e0: 0239 7e33 2469 bdbf 1236 264c 97fb babf
000004f0: 842e ef59 548e 743f 593d 29b9 8584 d2bf
00000500: 55ca 2cf6 e711 b53f 3eb5 6fd3 570e bbbf
00000510: 8431 4884 a5bc aabf aef7 9fa5 d33d ce3f
00000520: 2c93 de2b 7bb6 ba3f debf af5f 3121 8cbf
00000530: 9771 9c00 3e64 b2bf dac8 54f9 e492 b5bf
00000540: 4ff5 8d2b 6082 b83f f850 c767 b9e9 c2bf
00000550: db74 6f27 a6d6 b73f edac 9929 a996 c4bf
00000560: 66d0 b3f3 ee66 c8bf 3686 f59d 95ce 97bf
00000570: 6731 4982 1943 a4bf 4f86 177f fc21 ccbf
00000580: 7163 aa12 d760 bb3f 81e7 6e6e 8b8c c3bf
00000590: 6a2c 17cb 4d14 d0bf b46c c870 2bde c13f
000005a0: 987d 3b86 ef31 b6bf f643 3662 da24 c73f
000005b0: 75ec 6e42 4225 6d3f 5284 2749 c666 c7bf
000005c0: 62c6 7cbb 1b26 c6bf 8157 9539 cdd9 c53f
000005d0: 4c83 db9c 8663 bdbf 0797 584e c07b d13f
000005e0: c7cc 32ff 35f4 bb3f deee 226e aada 9bbf
000005f0: 0d02 ffdd b41d d23f 43e0 19cd 98ba bd3f
00000600: 1b00 bbde 286d cfbf 379c 86e9 3b70 ab3f
00000610: 7568 f9d3 79ab b4bf 0491 f1ac 099a c33f
00000620: 4010 d558 88da 69bf 1deb 572a 1047 803f
00000630: d5b3 0cd8 b635 be3f a6c6 1e91 e883 d4bf
00000640: 2a57 a3c3 f774 b5bf 54b5 3139 08b1 5fbf
00000650: 76d8 f190 51d9 983f c5f6 b3cc 330e d03f
00000660: ed38 e92c 78de bb3f 4e89 9e47 0aa1 c33f
00000670: 239c 31a7 3b07 d2bf 071e 8ae3 1a07 883f
00000680: f1de a22e 00d2 b83f 09a6 ddcb 3440 b43f
00000690: 2f4e c8f4 268c d53f 8396 357a 1006 a93f
000006a0: 3484 d3e5 2d05 cbbf c19f 28e3 5eab a0bf
000006b0: 2905 4861 bd60 9c3f 6130 9b58 e7f1 a2bf
000006c0: e617 0c1d 94a9 b43f 84ab 09a4 b60e a5bf
000006d0: dc0e ae55 92a3 ca3f f887 040c 1566 a6bf
000006e0: aee3 4246 b81f d8bf 3739 89bb 5759 d3bf
000006f0: 8230 4e84 013c c7bf 3044 ed66 60a6 c23f
00000700: 1d31 fca6 a895 cc3f de5d d216 2afc d4bf
00000710: 7a82 25f1 b1af cb3f b62e bbd0 2dbe d03f
00000720: bd23 fa83 aabc b5bf a0b9 3dff 8a32 c5bf
00000730: 1120 8ff7 60eb b53f 5950 6a5e 0611 973f
00000740: b61b 053c 7b4f d73f 75a8 49a6 cba4 d4bf
00000750: b2cb 82ca a536 8cbf 7fda 4044 864b d1bf
00000760: 86b7 bc4c 3fe6 933f f2b0 b7be 755e a8bf
00000770: d9df 2875 8b78 b93f caad 7ead f21a a3bf
00000780: 0f4c ff36 a79c c53f ad16 4deb 9553 c2bf
00000790: 5a84 2d28 51e8 98bf a3aa 5ebe 0049 d3bf
000007a0: 6235 c90e 1ec8 bb3f ed16 b6b5 3557 823f
000007b0: 3292 2d8b 0f2c c73f 2972 0a2b f7ab bf3f
000007c0: 24b9 6abb e56e b1bf b39e 2435 8864 cabf
000007d0: 5d9d e8ee ea54 c1bf 7a04 db1d 2b1d d63f
000007e0: a794 1222 34df 8abf 5d9b 4914 7eb0 b33f
000007f0: 08a0 c460 4b08 b13f c0da 98be dea8 d0bf
0.118019529621401 0.08103732376867759 -0.16769556806168767 0.223914533503536 -0.10504258313474413 -0.2591186736912631 0.3228153911213493 -0.2078708954487249
0.03657614684469006 0.25599476554788686 0.04759991238912761 -0.22781280475723095 -0.2674277752227837 0.1857121088595108 -0.1614349042579727 0.1697544862598137
-0.18938195419622267 -0.014594710173234255 -0.19089906805110687 0.011761591556257679 0.187953756469792 -0.2184993853202835 0.07099536588953703 0.10105055965869911
0.1027568563495796 -0.19319922543980447 0.36449079624307 -0.15351549724367167 -0.042993057985003046 -0.05458676331896965 -0.2568516038621359 0.36053413958476227
-0.11233983294527423 0.14525330367911277 0.0157157822725081 0.02020780413771943 -0.18901791306657448 -0.06371527101394756 -0.08208737562419297 -0.15839699675308624
0.023338241306792573 0.29666023166088396 0.10387732026899399 0.049185255054729995 0.01843955955268078 0.20131193826514734 -0.10122370126497865 0.36239637678310965
0.02221486740348869 0.14735896360341522 0.01145496503362196 -0.11779418705217691 0.20659785952635945 -0.005659252251834191 -0.2102215276674262 -0.24027324424310018
0.3496034213107544 -0.07445425348165896 0.108443828406935 -0.16424727632528915 0.07985461061992699 -0.1286337396405065 -0.2078507151078499 -0.28175130071885063
-0.06282378006547401 -0.09513776313551502 0.15581087549832967 -0.2772750553846277 -0.357393008646036 -0.1903807225508355 0.21343590832556444 0.23939771571270996
-0.29258100995006614 -0.2244745949561082 0.018834083901345063 0.21478071725730338 0.04849390450886921 0.05303342383997845 -0.20134063935626953 0.25034655041764514
0.10558171957558869 0.03409354747936193 0.14965433779934592 0.3352638529627127 -0.1323530647359147 0.09910696798008316 0.2597135503334516 -0.10290405701818145
-0.02022675649391942 -0.0035836782334436887 -0.07320285578201588 -0.03807887613891369 0.21017201021891535 0.03801806486199938 0.06386841599800154 -0.31744595611225596
-0.008030131901812402 0.32790332048572457 -0.048284899696894396 0.03777805820751531 0.1391459432673396 0.08061241440969949 0.0408968533794927 -0.13602955064086036
0.2382763318971262 -0.22832542344990164 0.092688808451729 0.3623607556981666 0.062120884660188475 -0.41085333898478793 -0.3227098989681972 0.3235468255547753
-0.12518155495691297 0.24296143453219352 0.15416065121605987 0.2451391900170504 0.046823486003392596 0.1062160455945506 -0.33381367188482686 0.361668792071178
-0.17878743134074354 0.26904040785407196 0.14479662584736588 -0.0005718414633697887 -0.17099828128622022 0.29855862817964535 0.11878337266690922 -0.20159923560931678
0.22838069539525685 0.05312956799470071 -0.3193929656272743 -0.29094901185608296 -0.08240476145048073 -0.1387112503284442 0.28099431661320373 0.13483378264341445
0.1776113412891554 0.05700325294847412 0.09456221636375493 -0.2121078721790867 -0.18829453184668263 0.16510726167745748 0.12855259290587673 0.29674025744157834
-0.023463279656323645 -0.03537016697346023 -0.23484037356401202 0.12771877753854197 0.24308708954210387 0.2492381894627265 0.059840598913760916 0.294404190588881
0.06537620158872352 -0.02811894015988501 -0.23717607700469479 -0.17438002355531051 -0.1148855806079361 -0.1054014740859304 0.005018548486031119 -0.28933852274072575
0.08230447540408055 -0.10568760787983408 -0.05222050895472122 0.2362618025508118 0.10434694119483073 -0.013735185368176358 -0.0718420745365108 -0.08427268111407518
0.09573937476485138 -0.1477576977473587 0.09311903441217188 -0.16084780246033095 -0.19064127826243576 -0.02324899460416515 -0.03957442965892959 -0.21978718000086636
0.10694641309454568 -0.15272658245322293 -0.25123925049837814 0.13959258086183512 -0.08669945742757645 0.18081216617113655 0.0035578054552992074 -0.1828239304732358
-0.17303797392519288 0.17070927917182746 -0.11479989366081361 0.2731781735513867 0.10919511299543948 -0.027201331112094766 0.283063141625491 0.11612849242544691
-0.24551878810416458 0.0535906527105045 -0.08074151444580642 0.15313836044800422 -0.003155962279068475 0.007948042194575284 0.11800711416863348 -0.3205510537328372
-0.08381603742904234 -0.001934297590902763 0.02426650473758981 0.2508668421795444 0.10886336418591087 0.15335205552134784 -0.28169146850126675 0.01173230177779684
0.0969543565614648 0.07910470940773719 0.3366792097524209 0.04887439243138394 -0.2110955593298357 -0.03255745432789992 0.027712782919484234 -0.037001828733622906
0.08071256360207676 -0.04112787964262224 0.20811680968846857 -0.04374757549000202 -0.37693602429822703 -0.30232804597916946 -0.18151873550630532 0.14570240998958317
0.22331722405977752 -0.3278908942097284 0.21629928850872543 0.26160760291962093 -0.08491006586167678 -0.16560494864411357 0.08562284511492659 0.022525882256175887
0.36422615872691766 -0.3225583194640714 -0.013776107065813867 -0.27023464837422034 0.019433011110940444 -0.04759567216010109 0.09949561701148414 -0.037314971617287876
0.16884317574894722 -0.1431758307391439 -0.024323719098337505 -0.3013307437019341 0.10852229939447036 0.008955402000320823 0.1810321263866555 0.12371773529816522
-0.06809840989692312 -0.20619299502253838 -0.13540398278676494 0.345530299335287 -0.013121039666950841 0.07691181178379965 0.06653281319142945 -0.2603070126819311

hidden1.bias f8 [32]
00000000: ed6e a8b9 4cce 973f e03b 5a4a 71ef 813f
00000010: d051 1652 321f c63f ba5f 06ff 44c5 c5bf
00000020: aa4d 5850 f2de cf3f 7b2f 9550 ba57 c3bf
00000030: 3a39 363b 271f cbbf 9a3d ff70 bc5c b6bf
00000040: 7fc1 89b0 5a7f bfbf dc7a ab9d 01ba ccbf
00000050: 1251 b0d8 7c45 9f3f af22 7005 3193 ca3f
00000060: a4aa 7459 43d8 91bf 6fc3 78d2 79cf b03f
00000070: 636c 845e 4f29 c9bf 0523 66a9 cc4c bb3f
00000080: 92f7 6f39 e615 c83f 243a 06a2 ac2d bdbf
00000090: 9120 59fe 71a3 a8bf 949d 0371 c746 d0bf
000000a0: 58c6 be04 c741 bbbf 06f2 9eb2 d7bb b63f
000000b0: 9175 06ca 9661 c2bf 0621 fed7 7970 a0bf
000000c0: a374 7c52 e580 b93f ce6e 7bf4 4cca a2bf
000000d0: a692 a872 9351 b8bf 50db 0f5e 9fb2 cbbf
000000e0: bcf8 31a2 bb84 c2bf 637f d7d4 94ee a53f
000000f0: b246 2ac7 de70 cb3f 8908 c1b1 e954 cd3f
0.02324790843168405 0.008757481652791499 0.17282704361117718 -0.17008268787753683 0.24899128840534718 -0.15111473974900122 -0.21188822165681548 -0.08735254057613986
-0.12303702173244878 -0.22442646216128181 0.03053851196826069 0.20761692777184268 -0.017426540694183715 0.06566583050222417 -0.19657318225003725 0.10664061675755583
0.18816831402358197 -0.11397818523094166 -0.04812198858104567 -0.2543200114873454 -0.10647243371820403 0.08880375014172878 -0.14360318054688695 -0.03210812341336759
0.09962304366895806 -0.03669968113328324 -0.09499475049285397 -0.21638862698429273 -0.14467568797767238 0.04283585642019607 0.21438202595577632 0.2291538351001388

hidden2.weight f8 [32, 32]
00000000: f452 e5a6 8646 c6bf 8d9a 0cde 8b0e b2bf
00000010: 771b 769b 1889 953f 0566 36e6 78da bdbf
00000020: ae9a 8251 ec9e c5bf 91ce 9091 158e c1bf
00000030: f592 4264 71c8 c43f e45f d00b 17ea c5bf
00000040: 22c3 36b0 35c8 bf3f 099b 664e e0f9 a3bf
00000050: 2686 7290 18e3 a5bf 52b0 155d 7a93 ad3f
00000060: 1e79 6cfb 80c1 b23f 3d2b d5c6 507b bebf
00000070: 6d56 139a 917e c0bf 17f4 9c3d 8e1d c5bf
00000080: 735f 9080 ced4 a13f 21f8 c7fb 0574 bf3f
00000090: 0c4e 4c57 029d 973f ca2f 7bf5 e3ea b5bf
000000a0: a856 666b 8fe8 a33f 62a3 3997 3b13 c03f
000000b0: 98ab 723b 5600 a73f fa4f 4f86 5108 b03f
000000c0: dda2 dd4d 2f2b c8bf e1dd 3691 a74d b0bf
000000d0: e72b 2a65 379d b33f ca19 47a9 609c c2bf
000000e0: 2073 f2a1 49c5 973f def8 eae5 3c7a 7b3f
000000f0: a425 6296 2676 b3bf 778a 0c45 6655 a13f
00000100: ef26 40d7 29aa a83f 9224 6168 5709 c2bf
00000110: df89 206c 1d82 d03f f91d 55e0 d1d7 bcbf
00000120: bf58 b95c 1a23 9ebf 3755 eb1d 632a 9fbf
00000130: 6a5e f332 156a c5bf 7d9a 4d9b dc16 c53f
00000140: 8788 646b 4f28 b33f 44df f515 9b38 c43f
00000150: 1166 547a 77e6 babf 9f9d c0a5 dbc9 b2bf
00000160: fe63 f1e2 471c c13f ba8f 3dd7 f20f a3bf
00000170: 7080 d5b6 8639 9f3f 0117 d807 473d bebf
00000180: a49f 0d6f 94cb a5bf 0c2b 1726 53bf b93f
00000190: 91d0 caf0 4f65 9b3f 0bc5 dce5 374e b0bf
000001a0: e47e 85ec 972d b53f b929 0d36 1300 c5bf
000001b0: 1a07 1a09 612e ad3f f400 e735 274a ca3f
000001c0: 6349 78cb 1749 ba3f af12 faff 57c9 c33f
000001d0: 4fc4 4b9e e522 c23f 4bec 7aaf 36ad 7d3f
000001e0: 7045 762d 8caf c1bf b430 eb00 7193 b13f
000001f0: 7038 515e 1075 b43f c661 d248 2393 bd3f
00000200: 7552 78f6 163e babf 5311 a994 9493 c3bf
00000210: 9ea5 321f 471a 9abf f2d2 61c3 e830 afbf
00000220: d58b 54b5 0352 c6bf 08a8 7cac 0a2b be3f
00000230: d6e1 f565 48d5 ba3f a580 65e0 6ec2 ad3f
00000240: a97f e826 1e7d a3bf 0b03 032b 1e4b 80bf
00000250: bb24 6e06 42c6 b53f 0e9c d539 9b22 a4bf
00000260: 9b42 774b 0002 a93f 9f83 484e c747 aebf
00000270: bdb4 713e c1ae a2bf 88f0 c7e5 1dc7 ba3f
00000280: 17ac ad53 8ce4 c2bf 8e01 93af c842 b9bf
00000290: 22ad e756 bc68 8e3f 0b42 7ab4 feb6 a8bf
000002a0: b006 f2f1 5152 b5bf 52d3 826c f061 ab3f
000002b0: 2781 6a3b 4fb6 b53f 6403 ccb6 8e6a 73bf
000002c0: 7f0b f0f2 3a24 c1bf 696a 3380 46f5 b43f
000002d0: 0dba 5e89 f462 a83f 5df2 786b 6a57 cc3f
000002e0: 84b2 9f6f 793d b33f a27c 9824 9e73 613f
000002f0: eca4 d642 0841 95bf cb6e 6709 4763 c4bf
00000300: f5ed 0bfa 76b5 bcbf 16ea cdb4 85f9 b5bf
00000310: f198 4141 78ba b53f d640 8e12 52ce bbbf
00000320: 1fa9 1562 34ad b4bf 58d3 2a49 c420 a83f
00000330: 978d c7d0 b8d6 bd3f 2156 2915 643a c3bf
00000340: f7f4 9476 0615 a53f 603a 59f4 7e99 b23f
00000350: c6ff 01a3 80a0 87bf b09c 9733 7dcf c63f
00000360: f035 3950 1fb2 a3bf ca77 b865 3bc3 843f
00000370: 8aef b996 5b2a aa3f 4fe4 68ee 5648 bdbf
00000380: 5d6e 34ab e91f a9bf a8e9 0358 ef36 c9bf
00000390: f885 eb24 9ab9 b53f 19d9 cba8 6f1d c1bf
000003a0: 6b40 8043 9c57 bdbf 6970 c9f3 1420 c43f
000003b0: 54fb b167 2dbe c4bf 1e63 6cbe ad0f 8dbf
000003c0: 81d7 8eb2 10aa 7a3f 1dd0 7b9d 5659 703f
000003d0: 7011 2377 cc30 b3bf b126 1079 4ddb b7bf
000003e0: 08c9 2e81 771c 9d3f 3389 b270 c852 c4bf
000003f0: 14a7 453b 3558 c0bf 96dc c0fe d4ba c3bf
00000400: 6a70 677d 566f c13f 03c9 fda1 9736 b43f
00000410: 1217 c84a aece c2bf 026f 54bf 46ae bbbf
00000420: c37d c1ca 2e8d a8bf 1f84 3b45 59fd babf
00000430: b11b 64d5 eddd ac3f 7935 29b7 92cf 9c3f
00000440: ae22 3d1c a2d8 b63f 9608 fecb b0e8 4bbf
00000450: 5094 d9a7 c923 9e3f 897d 206d 7336 c83f
00000460: 0177 9581 318a a3bf 1fda cdea a6da c53f
00000470: b54f a7d5 1c27 883f 7496 6923 dc4e aabf
00000480: 4895 af7c 5aea ba3f fcd9 0c0a 4a0c 91bf
00000490: 4018 adbe a2be cb3f 16cf 2563 ea10 793f
000004a0: 818d b6e0 54b3 42bf 0edf 9c98 30e6 903f
000004b0: 933c 857b d618 74bf 7f65 e1a6 608e aabf
000004c0: 401c bfee 448e b33f 448a 944e 2d26 c03f
000004d0: e291 a891 dd8b b1bf fa47 a662 95a0 bf3f
000004e0: a547 e596 57fd bdbf 7b08 03d9 f450 b43f
000004f0: 0ee2 68ee 7f25 a1bf ed1d 2926 68fa a33f
00000500: 689d 9fb0 9ff5 c2bf 0956 813d 52e2 b5bf
00000510: 5c13 29bb 4eea b1bf 7c01 d9ef 9e8e bebf
00000520: 6766 ae88 4275 c3bf 5644 3fe3 b210 9d3f
00000530: 5714 372a bd7f aebf 200c 22b9 203c 92bf
00000540: c19e ddd3 4f6a bc3f c23d 7664 587e c6bf
00000550: c0c6 15b4 cf74 b9bf 1d49 5b6a 7008 75bf
00000560: 2932 7e9c 488c a53f eb5c 29d9 2b75 c2bf
00000570: 4ff0 1c90 22f6 ab3f bea9 3eac b17e b5bf
00000580: a097 6392 79bf 643f bb27 6c09 bbb3 bdbf
00000590: d1d2 a589 97a2 703f e8dd 44de 5162 b1bf
000005a0: da36 e910 f0e1 c2bf bda9 dcdd 034b c03f
000005b0: 6cb8 39e2 b686 abbf aae2 4e62 556a c5bf
000005c0: 70c1 0fe7 5926 b33f 90dd 4d97 7045 c1bf
000005d0: b24e adf9 f749 b23f 8087 57fd e48f b13f
000005e0: 0e83 c411 6c8c b43f f7b7 6273 0b2d 963f
000005f0: 2c64 5a48 eee5 aa3f f725 becc 81d1 ba3f
00000600: 3f3d ca89 f661 b4bf c8eb 151e 27ac c23f
00000610: 9a33 9375 759c c83f 704a 873c 4e66 c6bf
00000620: 4cc3 3d6f 74d3 b13f e0cf ad2f 4f9d b8bf
00000630: 3a5f a1d9 9ee6 a0bf a338 01db 9804 c93f
00000640: e827 b0f5 90c7 bf3f cc79 06d6 49f6 b53f
00000650: 408b 5879 902f a43f 8008 a4b6 f1dd b6bf
00000660: 1617 3bbb b010 913f b54d 8424 f997 a7bf
00000670: ac5f 8f4d 75f8 babf de76 c152 2c84 a4bf
00000680: ed96 78c4 69d1 bbbf eb4a 1b97 1368 b33f
00000690: 12ca 49e0 441e b43f 36b9 b1de f787 c3bf
000006a0: 20e9 2a7c a5a3 ba3f 2392 718a 8d57 96bf
000006b0: cb6f da0f 72bb c1bf 06c1 0fc3 e6e2 c13f
000006c0: e8b9 b20d 5c91 c2bf 4492 9be6 29ea b43f
000006d0: c535 dd98 f919 a93f 6a9d bdd6 d118 a4bf
000006e0: 468b a236 d79c c5bf 257d c85e 66c4 c3bf
000006f0: 7f0b 27c8 a1dd 983f cc85 f40f c0bb b83f
00000700: 4777 6426 ca26 80bf fa55 ea37 b1d4 b8bf
00000710: 3955 28f1 9924 ca3f e45f acb7 b00a bcbf
00000720: 6f9d 2649 01ff bbbf bb86 dd3f 2b4b b4bf
00000730: a84c 8675 8295 b93f a1c2 b645 98a7 c03f
00000740: 0836 9723 c25d bbbf d784 7e3c 5db8 b93f
00000750: 5b3f b6eb bcb4 bcbf 4f2b 1975 83a0 b4bf
00000760: 65e2 ec0d 714d b0bf 52ca 409e ba00 c3bf
00000770: 16ef fb93 9949 a9bf 93bd d139 7a37 b9bf
00000780: e3a5 677b 3065 c3bf da3d 344d c162 86bf
00000790: 49e8 5f0d 11c5 cb3f 9186 384d 1cb0 bd3f
000007a0: aa93 b037 8fe4 b43f 700e 3add 8502 a53f
000007b0: 8f96 fb9d 1de2 a0bf 602f 4a95 48e2 8fbf
000007c0: b073 07f4 8d8c b6bf d024 5548 d9ca 8a3f
000007d0: 17b5 e949 4493 8b3f e6e2 1ca7 d274 b9bf
000007e0: 7e99 9a12 73d8 b03f f1dc 919b aae6 c03f
000007f0: 8f07 cae2 e9fa b83f 11f8 7b8e f573 b0bf
-0.1740272822304615 -0.07053445979236468 0.021030792702301206 -0.11661487217352125 -0.16891244869221594 -0.13714856727311944 0.16236703296194546 -0.17120636059621497
0.12414870788667234 -0.039015779085550824 -0.04274822963021689 0.05776579271591288 0.07326513422274103 -0.11906914572061296 -0.128862571937748 -0.16496446617557645
0.03482671088585123 0.12286412617683641 0.02305987985444173 -0.08561539405053434 0.03888366876632904 0.12558693775215618 0.04492444492037534 0.06262692956016727
-0.18881789495505688 -0.0636849145438343 0.0766176816925249 -0.14539726510538592 0.023213530072655364 0.006708372004764677 -0.07602158709973722 0.03385467141039993
0.04817324402399758 -0.14091007801679162 0.2579415851525066 -0.11266814925067327 -0.02943078223173567 -0.030435131741645107 -0.1672998904020802 0.1647601850811106
0.07483383533375064 0.1579774720410062 -0.10507914291920196 -0.07339260861100748 0.13367556172559597 -0.03723105313727566 0.030492882642079555 -0.11812251988893864
-0.042568815761853146 0.10057563476508963 0.026753663131515785 -0.06369351732134391 0.08272695087861909 -0.1640647901461543 0.05699446903328305 0.20538797504378403
0.10267780988241308 0.1545820236098243 0.14168997029585959 0.007245267500986928 -0.13816978664230417 0.0686560275309514 0.07991125395457899 0.11552639510990223
-0.10250991360983071 -0.15294129618463134 -0.025490866927304283 -0.06092002282176691 -0.17437788347260033 0.11784426413638027 0.10481693734425987 0.05812403191771524
-0.038063947915588266 -0.007955775916685967 0.08505642563808895 -0.03932652550684433 0.04884339257444489 -0.05914137678724462 -0.036489523766115785 0.10460078105819737
-0.1475997360788319 -0.09867529188614396 0.014848204996232687 -0.048271140604928396 -0.0832873550116584 0.05348159145925159 0.08481307221018551 -0.004740293003806826
-0.13391816007796462 0.08186760549453144 0.04762996842270093 0.22141771552732595 0.07515677428427564 0.002130326149895349 -0.020755890922065243 -0.15927970847302783
-0.11214393238690674 -0.08583865799111154 0.0848765525166504 -0.10861695244807676 -0.08076789278644413 0.04712499039798129 0.11655764672428003 -0.15021945031428266
0.041176034903836305 0.07265466180363367 -0.011536602949718044 0.17820706385757523 -0.038468340437798676 0.010138000528112107 0.05110441412850182 -0.11438506432104244
-0.04907160010244802 -0.19698898122426312 0.08486331368796829 -0.13371082059865882 -0.11461807868931977 0.15722906020789942 -0.1620537525486393 -0.014190060971985437
0.0065098430867943655 0.003991449680814466 -0.07496335896127504 -0.09319004254953246 0.028428904781045566 -0.1587763357429793 -0.12769189256805957 -0.15413916052941506
0.13621026156659194 0.07895801262728601 -0.1469323983330289 -0.10812799616945415 -0.04795213913962073 -0.1054282945656415 0.05638068418379961 0.028135578564890438
0.08924306096481402 -0.0008517134919972132 0.029433394307848026 0.1891617091032283 -0.03816370684465476 0.17073523011249933 0.011793351431073388 -0.05138290340691479
0.10513845008934652 -0.016648442138114547 0.2167552405391593 0.0061196475747811365 -0.0005706943933784654 0.01650310451006392 -0.004906499693176819 -0.05186750447382859
0.07638960675022677 0.12616506897855306 -0.06854042821993958 0.12354406031070644 -0.11714694437003333 0.07936029718533348 -0.03348922524714136 0.03901982751682085
-0.1481208431643879 -0.08548463822929632 -0.0699814993796059 -0.11936372142463897 -0.1520159881009022 0.02838401329046677 -0.059568320658890776 -0.017807494449254446
0.1109971897363904 -0.17573075204243876 -0.09943864962203985 -0.0051350012997366775 0.04208590421976439 -0.14420078376381382 0.054612236110614824 -0.08396444754786267
0.0025327085924002485 -0.11602372150460287 0.004061309761131241 -0.0679064910553887 -0.14752007318241206 0.12728927929977188 -0.05376216422597299 -0.1673075418491597
0.07480394259596834 -0.13493163478754555 0.07144117208127446 0.06860190568070657 0.08026767190723325 0.021656207006053276 0.052535482723392896 0.1047593235836287
-0.07961979736341095 0.1458786866095052 0.19227474442450615 -0.17499711947910468 0.0696327945313559 -0.09615034975087111 -0.03300949484463307 0.19545279210655506
0.1241388892960057 0.08578931308009102 0.039425387203911644 -0.08932409962656784 0.01666523115888826 -0.04608133860360956 -0.10535367148929592 -0.04007090101434384
-0.10866414114624563 0.07580683173300044 0.07858686900889492 -0.15258692144147695 0.10405954629360226 -0.021818362784317934 -0.13853288435063713 0.13973698162545406
-0.14506102246146146 0.08169805412360015 0.04902629843727938 -0.03925185915323477 -0.1688488976261288 -0.15443114879688227 0.0242829588330653 0.09661484136133608
-0.007886485382694665 -0.09699542632218786 0.20424198413153663 -0.10953812107288702 -0.10935981784733938 -0.07927198704922038 0.09993758553746324 0.13011458782195454
-0.10689938897049711 0.100469424504371 -0.11213284258542215 -0.08057424172254211 -0.06368166532491555 -0.14845974662019273 -0.04938964778372516 -0.09850276862720468
-0.15152555490139638 -0.01093054787500496 0.21695149567659858 0.11596848378442305 0.08161254033673396 0.04103487325212718 -0.0329751258230263 -0.015568320327723206
-0.08808219154111785 0.01308221580497318 0.013464482789653105 -0.09943882541564228 0.06580275730320825 0.1320393809907965 0.09757863795132792 -0.06426939705485803

hidden2.bias f8 [32]
00000000: c0f8 5546 b5b6 c03f f222 344b ffbf aebf
00000010: 03df 8449 1139 c1bf af86 a178 d70c 8dbf
00000020: fa42 c43d 8a90 c33f 6cbb c8ad a942 bdbf
00000030: 8bde 08c3 914a b3bf 78e3 14a4 1107 b7bf
00000040: e856 35bd 9520 943f e44a 757a 6c49 993f
00000050: fa66 bcdb 5e77 883f 944e ca75 7a5f bb3f
00000060: b1e6 5b02 131d c53f 7166 46e5 695d c33f
00000070: bff3 2de2 8a51 a2bf 7364 b952 9c5e b83f
00000080: 4446 758d 8de9 a9bf 383f 6c41 f031 af3f
00000090: a401 41a5 fb44 b2bf 415c 5c61 5b44 b9bf
000000a0: b6b4 3965 5ed5 aa3f 81bd 74c2 5336 86bf
000000b0: 0b8c 3310 5581 b33f 0724 7625 863f b7bf
000000c0: 81b4 5dd6 458b a33f dec3 20bd e4d7 af3f
000000d0: 6660 c660 f55f b6bf 05d0 fb69 e081 bd3f
000000e0: 258b 8aab 26aa bc3f 7c35 c068 1ce2 c23f
000000f0: f0f4 631f 0144 62bf 29de 572b 8cb9 babf
0.13057580885283038 -0.06005857270253569 -0.13455406274601253 -0.014184649819245136 0.15284851089429435 -0.11429844372535819 -0.07535658847415953 -0.08995161300562227
0.01965555159889379 0.024694151853803428 0.011946431237038525 0.1069256341527825 0.16494977584061624 0.15128825850551977 -0.035778370008280096 0.09519364375718613
-0.05060999252112855 0.06092787550562523 -0.07136509689826781 -0.09869929434749826 0.052409124237649804 -0.010845808383776358 0.07619220395604047 -0.09081304945551959
0.038171942155579515 0.062194011771118815 -0.08740171063107169 0.11526300990573198 0.11197129905717114 0.1475253592947573 -0.0022296926427985905 -0.10439373071846404

predict.weight f8 [9, 32]
00000000: cdc7 d00c ea2c bbbf ce05 98b9 b5b3 783f
00000010: 890f 758f 2f7c 793f 033a 06a9 b2cd 9a3f
00000020: 5b78 9eee c474 9f3f 0bcb d5bd 5958 9dbf
00000030: c94b b9b3 c0d0 8d3f c461 3429 ac69 72bf
00000040: 4249 89ac d577 aa3f 8b6b 24d0 0aed 8b3f
00000050: c4ee 8e1a bfad 953f 2777 1bb7 619c 31bf
00000060: f7fd 969c 9c15 87bf 68d4 0ba3 6777 873f
00000070: cfcf abbf caa1 78bf 8d02 9338 8b2f a7bf
00000080: 5f44 1b04 66d7 b03f 7ed6 0c6c b49a b13f
00000090: b026 4bee 29d1 973f 1f3c 2fc4 c4e0 7abf
000000a0: d0c8 dcb9 2b7f 96bf cded 153a f188 873f
000000b0: 4aee d159 0b1a 76bf 7f23 2211 4eeb bdbf
000000c0: d4af fa44 546f 85bf 533d 085e 00f7 833f
000000d0: b6af 68a9 04ad 80bf 05f4 125e c471 71bf
000000e0: 6aa4 9d2c 8592 9f3f 3921 01b6 b4f2 b23f
000000f0: 40d0 182f 38e5 8a3f 79f6 7fb5 eeb8 813f
00000100: a4df 1138 f3c0 a6bf b417 cbdd 55df aa3f
00000110: e717 d9d2 d1da b1bf 12d2 3142 d046 733f
00000120: 781a 17a4 63a7 b63f 942b 1667 9afa bbbf
00000130: 94f0 4b72 ff7a 903f dc76 a11d 321d 91bf
00000140: fabc 700c eb6a b9bf 6b17 44e1 cc5c 8d3f
00000150: 98de 6992 1aca 813f 7422 0159 22b9 503f
00000160: 1cb1 e4b7 1a18 aebf 8ba2 b6bb 8c83 3fbf
00000170: 443f 86d4 a4ee 9bbf b725 3b46 c23d 863f
00000180: 8951 dcd9 b5df c03f c273 15f5 0c47 a43f
00000190: cd62 4bc2 413f b13f 0093 b302 e22d a5bf
000001a0: 3ce0 d95e 93db a63f 1aac 167f 2de8 9c3f
000001b0: 0579 bccb fcb1 41bf 1e7e dc7e 5605 b2bf
000001c0: 15b1 83ba df6b a53f 38bc 8d65 a4aa 53bf
000001d0: b219 cd28 838a 9e3f 65f9 3a1a db59 a03f
000001e0: e6aa 29e7 71aa a63f dbc6 04cf 0c7a c03f
000001f0: e058 9611 e487 a43f e460 d25d b402 a8bf
00000200: 364a 69cd 1432 bdbf 53c7 e3dd 1176 b4bf
00000210: 702b f420 5bda abbf 3a75 743d 059e ac3f
00000220: dfd0 d003 78b1 c83f 01ef 2e01 0d27 bdbf
00000230: 3569 c7b8 69d4 a1bf d85c 2758 021d abbf
00000240: 710b eb82 243f b53f 4cba e9fb 6116 c93f
00000250: a340 8020 790f cc3f 355a 3c74 af69 a2bf
00000260: 9c5e 6d61 33a8 c1bf b12c de68 6fd1 c8bf
00000270: 650d 7a01 e180 b13f dccc e486 e62f ca3f
00000280: 93c7 4272 c67d b2bf b7f8 a067 0ffd c6bf
00000290: 5a6d 23f7 6bcd af3f c375 4f39 6b44 a6bf
000002a0: 7d48 041b 3141 c83f dc6f e763 f23b a83f
000002b0: 6975 e876 488f bc3f 8a99 7dc9 fc1b c5bf
000002c0: abcc 9055 32f3 b7bf af33 9d61 1b97 a03f
000002d0: dd59 ee7a 237e bc3f 2775 1277 b66d a9bf
000002e0: 6c85 25ce c136 b13f 78c5 f51c 7ab0 c3bf
000002f0: 0cdf 6f7e f793 cf3f c73e 619d 4c05 d43f
00000300: d639 0beb 47e7 babf bc8c e78e 6985 a23f
00000310: aa97 1e96 537b a8bf 403a 30f3 edbf b23f
00000320: 31ab 6255 4345 8bbf 11c5 c74f 0e92 c33f
00000330: 69cc ef74 8723 aabf 4060 6656 a47b 7a3f
00000340: 14ff cdda 63f3 bebf 537b 0fed 3546 933f
00000350: 03bf df18 ccaf acbf a7f0 3d10 a727 9bbf
00000360: 5b67 8c7e 5922 ab3f e2d1 be45 2bb9 8f3f
00000370: f739 6971 8464 77bf f940 f896 d280 7cbf
00000380: caa6 189f d35a b7bf dc9f b5b6 3c80 aa3f
00000390: ff09 db86 df20 b03f 24b9 ed8c 2ee1 963f
000003a0: 9abc 6cb2 842c a9bf aa90 7efe 5f3c 81bf
000003b0: e38f 99ba 7a99 793f e8af 117a 6fd1 b1bf
000003c0: cdc3 85b2 7080 a33f 0aa8 41e6 7ef4 9d3f
000003d0: ff7f e9fa 2b7e 07bf 4183 befd 0ffa a7bf
000003e0: dfe7 c6b3 cd4c 953f 2172 0d0c 589c b13f
000003f0: 3c68 cc38 d35a 97bf 6aa6 5a12 c8cd 8f3f
00000400: 4c3c 4923 01d3 b83f aac9 b1a3 3694 aabf
00000410: ff95 2800 bc87 a63f d0df 65eb 6941 d1bf
00000420: c6e4 90f4 fb43 cb3f 179f cfb3 9d0e b1bf
00000430: 0aad a956 7ee8 af3f 25e5 c5a9 be50 73bf
00000440: e3cc 7081 1d84 b1bf c2ac 56f0 6fcd d53f
00000450: 0579 4628 0e4d df3f 158c 60d6 3891 d3bf
00000460: e89a b52e 5e84 b1bf 73fa 59da 63b0 6d3f
00000470: f08c 4a65 ecbb c1bf 7e88 c673 334b b2bf
00000480: 2b52 4131 15bc a73f 5100 fde8 7d9a d1bf
00000490: 61ef dd2e ffa6 98bf a5a1 a748 6c90 c53f
000004a0: 4461 0845 b8ed a13f 5a7c 0f79 2b7a 903f
000004b0: 6fb9 3229 8227 c63f 9b5f 1562 d0c7 7f3f
000004c0: 5df2 487e 24e1 dd3f b94c fe87 756b d03f
000004d0: fe53 f184 5abe b03f b566 e1d2 874c ccbf
000004e0: 9602 9ba3 573f c7bf 0d98 1feb 202f b4bf
000004f0: 4dfb 60d2 7d7c 983f 9aef bb86 00a3 df3f
00000500: bc38 3a30 2407 af3f ebb5 cbaa 8aab 8c3f
00000510: b367 1d91 ab1d 8c3f 424f bbbf 9946 b0bf
00000520: f832 46c9 b1ac af3f be37 0161 24ab c0bf
00000530: f2bc 7faa c333 a03f 193c abab 082d 423f
00000540: 5cd7 2018 7f69 b4bf 2455 2547 48ae 773f
00000550: 4143 c2f5 8559 acbf 21de 1081 b014 8f3f
00000560: 48a0 946c bb50 903f 570f 9b63 5c15 803f
00000570: 2c53 7b96 0910 963f cd7e 3462 ef7c 833f
00000580: d112 2e90 f2a3 8e3f 0161 0714 cf57 9dbf
00000590: 7324 65c6 66e2 903f e71a 0df5 682b 72bf
000005a0: 2c61 d555 5387 c03f 00d3 3cc4 8b1a 9b3f
000005b0: e367 b337 afc4 773f 524f 08df 151f bbbf
000005c0: b071 f8c9 4c5f 98bf 0caa ac27 3ed1 8f3f
000005d0: 730c ff8e 8cf0 a33f 81d0 383f 4ba9 a1bf
000005e0: 29b2 d208 16b5 923f 06a0 6247 ac0f bebf
000005f0: 5465 849b 107d 7abf 6711 8594 b30f 9ebf
00000600: 1ce8 5203 04b7 943f 73b2 1b3e 9ba9 b0bf
00000610: 040a 693f edb9 c63f d433 040e 770f c1bf
00000620: 44ba f1f7 7a70 c13f 2234 173a 7c0e c03f
00000630: d60c d137 ef9d b2bf dba3 d3ca 3b0a d03f
00000640: ff98 28f0 16b3 a53f 49dd ee48 dc8b dc3f
00000650: 64a6 346a 4ae7 b0bf 517a 638b 697f b7bf
00000660: c536 4664 1e00 cabf 1307 4eff f1b9 d43f
00000670: 994f 811a 89c2 8a3f 6066 8e21 d451 a5bf
00000680: b6d4 c1fc c5f0 c2bf d7bd ccb8 e414 d23f
00000690: 0707 fec5 9171 cdbf aaf1 1812 56e0 d63f
000006a0: 2eb3 b9cd 904d a5bf 9d29 cb3f d3c2 ba3f
000006b0: 602a 880d 6876 dc3f 0601 a373 5dfa babf
000006c0: e852 6c6b dc85 77bf 9e01 9166 d1db c63f
000006d0: 8884 252a 8422 b43f 6abd 6e2e bd8d b73f
000006e0: 5648 8ff9 774f c4bf bf7a c4d8 0291 9f3f
000006f0: 8982 334f fe28 c2bf 74ab 15a6 c061 d3bf
00000700: e687 4e5a 7b14 bf3f e4cc 8025 7abc b3bf
00000710: a872 65a5 5442 b73f f40e 258d 263a be3f
00000720: 6184 d6c7 6746 bb3f 9698 9cce f1a7 99bf
00000730: fb88 7ba1 b7c5 d03f c847 ab39 8fc2 bd3f
00000740: e925 9d07 099c b6bf 6c15 4aba c692 863f
00000750: d04e ec12 d1f3 b7bf 3bff c6b5 c5ee b63f
00000760: 31da 74c4 99e5 a0bf bfde cb8d 5556 b6bf
00000770: 0609 ed59 5e5a d63f b5e6 f9a0 9b80 cbbf
00000780: 9db5 1237 9021 c0bf e88a 6fb3 610c b13f
00000790: 2a1f 0040 29e6 c3bf 955f 1740 c501 c7bf
000007a0: 7c39 464d a430 c5bf 4029 c929 f602 d2bf
000007b0: 3b81 6353 09ec cc3f 07d7 30e7 b0a5 c0bf
000007c0: 0f9c e734 e73e b7bf acde b46e b4a2 b1bf
000007d0: 92db 6bc0 b48a d53f be40 0c4b c85a c5bf
000007e0: 2b68 94a9 20a3 c03f 399c ea04 a866 ccbf
000007f0: 18fe e840 af84 c33f c1aa c20f 1993 d13f
-0.1061540871894799 0.006030759680926546 0.00622194841645641 0.02617530018465609 0.03071887689986173 -0.028657343112580096 0.014558320507750981 -0.004495308402760082
0.0516955159297532 0.013635715939519752 0.021170602794639462 -0.00026872048975500263 -0.011271689919225543 0.011458215392375418 -0.006013671862763872 -0.045284605651891054
0.06578672027832642 0.06876685750907005 0.023258834046635257 -0.0065620123086338735 -0.021969493121283545 0.011491665444501553 -0.005395931567473486 -0.11687171858114985
-0.010466249804572593 0.009748461599001479 -0.00814250604624776 -0.004258887348609801 0.030832367752200808 0.07401589816538924 0.013132513940128487 0.008653511918960565
-0.0444408422417262 0.052485163998013645 -0.06974517247826349 0.004706204900788895 0.08849165683850824 -0.10929265038264041 0.016094199515450727 -0.016712935503497714
-0.09928769162864973 0.01433715879876348 0.008686263650118861 0.0010207019258975632 -0.05877765173713298 -0.00048086343641754657 -0.02727754161020292 0.01085998322322977
0.13182709825254005 0.03960457317109657 0.06737147325055588 -0.04136568339325741 0.04464397938585349 0.028229437715406737 -0.0005400165896139181 -0.07039394948196118
0.04183863784587253 -0.0012003522335495408 0.029825257649713506 0.03193554587550088 0.04426914164362987 0.1287246714433 0.04009926523865359 -0.04689563412938627
-0.11404542937206305 -0.07992660205107187 -0.05440029885547559 0.055893100501843 0.19291591821968887 -0.11387711790933609 -0.03482370739557653 -0.052955697308499416
0.08299472995990499 0.1959955673259678 0.21922220313036175 -0.03596256536382151 -0.13794557816685404 -0.19389145489217222 0.06837278638891105 0.20458680712326938
-0.07223167695590708 -0.17959778366088638 0.06211411849809663 -0.043490744348428055 0.18948949641395876 0.04733235806972377 0.11156132605579717 -0.16491660917672518
-0.09355463589672534 0.03240285460069658 0.11129972220655966 -0.049665166888397665 0.06724177630305456 -0.15382315076889674 0.2467030875557089 0.312823442164682
-0.10509156692862773 0.03617410535277929 -0.04781590659631203 0.07324111163345837 -0.01331570247960698 0.15289477248692454 -0.05105231573534114 0.006465570395811027
-0.12090133754645321 0.0188225198688728 -0.05602872661245153 -0.02651845013268486 0.05299644155293378 0.015489900651893988 -0.0057110951953078725 -0.006958792320361556
-0.09122965463816538 0.05175962190952507 0.06300160448430601 0.02234337554130507 -0.0491677730373052 -0.008415937379887179 0.0062498849962117934 -0.06960198145105745
0.03808929614286392 0.029252989581813472 -4.4809071700013796e-05 -0.04682970020735989 0.020800794694629473 0.06879186910868686 -0.02280740770502397 0.015529215870020614
0.09696967231251213 -0.0519120287725799 0.04400432111678398 -0.2696175383384771 0.21301221315096636 -0.06662927284162055 0.06232065971274821 -0.004715676095991915
-0.06842216882869283 0.3406638953262694 0.4890780824006387 -0.3057386487509473 -0.06842602386823737 0.0036241483929296213 -0.13854746766910564 -0.07145997597265993
0.04635683275470045 -0.27505443337213814 -0.024074542270212777 0.16846993968580395 0.03501678316769355 0.016091040862985607 0.17308070193889644 0.007758916851649557
0.4668666108371207 0.25655878334618937 0.06540456529303637 -0.22108552739046208 -0.18162055481481748 -0.0788441251785061 0.023912397351746596 0.494323855949682
0.06060135925973628 0.013999064767143706 0.013728466383032023 -0.06357727938603566 0.06186442930184016 -0.13022284256515876 0.03164493042265261 0.0005546848618339677
-0.07973474825925336 0.0057814429622642695 -0.055370508432253114 0.015176180781153072 0.01593296861861429 0.007853242673611467 0.021545553025890715 0.009515638527374826
0.01496114256384243 -0.028655276868307492 0.016488653048586998 -0.004435930241760678 0.12912980738725233 0.02646845231284356 0.005802807277371233 -0.10594307608726908
-0.023801040484714597 0.015535817704933862 0.038944618659592665 -0.03449473520996183 0.018268913544192387 -0.11742665045551356 -0.006466927407268248 -0.029356771411828044
0.02022939939772793 -0.06508798853219293 0.1775490340824747 -0.13328445610423378 0.1362451277413631 0.12544205509621614 -0.07272238838872921 0.2506246071557691
0.04238197023032519 0.4460364067303613 -0.06602921574508397 -0.09178790715257291 -0.20312862297253367 0.3238492005549329 0.013066359635707946 -0.04163992795583904
-0.14797282067926226 0.28252523466923435 -0.2300283638724567 0.3574423958523548 -0.0416074038629176 0.10453529651127842 0.44472695657228734 -0.1053827674213644
-0.00574289418616012 0.17858331211210737 0.07865167645424453 0.09200651534660201 -0.15867519078762155 0.03082661102336703 -0.14187601916548356 -0.30284134120181894
0.1214062781787387 -0.07709468284228965 0.09085587537760864 0.11807480760495165 0.10654305104118712 -0.025054720149591057 0.2620677067735781 0.11624999196945318
-0.08831840930829284 0.01102214103708362 -0.09356409751881789 0.08958087623522897 -0.033001713973522924 -0.08725485526872044 0.3492656591589739 -0.21486230240025397
-0.12602427186122336 0.06659517889742583 -0.1554614603521654 -0.1797415316530048 -0.16554693005714316 -0.2814307601990045 0.225953260151991 -0.13005648888218266
-0.09080357591265929 -0.06888892844005551 0.3365909461130566 -0.1668329588360446 0.12997825889834877 -0.22188282241879323 0.15248671216430476 0.2746031431112606

predict.bias f8 [9]
00000000: efba d422 f59e cd3f a976 9f11 8d23 943f
00000010: cedb 6066 a51d 9dbf f9e5 eed0 cb59 aabf
00000020: 364b 67b5 30e3 813f 900a e982 7547 b1bf
00000030: b946 a94f bc4d 94bf effe a71d 8f0c 9fbf
00000040: a6a1 f3d0 60ee c33f
0.2314134998391277 0.01966686649381325 -0.02843340337150462 -0.051466340307751275 0.008734112297053547 -0.06749662824680969 -0.019827787744651746 -0.030321346459458217
0.15571222498625764
