task2morph/01_finger_reach/model/reach_model_parameter_reference_2.pkl (torch, 16485 bytes, 6 tensors)

hidden1.weight f8 [32, 12]
-0.03304683372230696 -0.1389720073619046 -0.093308025431272 -0.08061909225456747 -0.14213796278991256 0.1009314340755733 -0.1808631448866308 0.3636192529305993
0.031138477275764832 0.26651599780778695 0.2335228429911994 -0.2179104464026923 -0.12742922738395573 0.06056281018879472 -0.16602060490358414 0.14744418759285718
-0.15429866151567118 0.11421791048640526 0.3108058886154128 -0.2380463779823338 0.16637646535309797 -0.031004798610911762 0.2853643754811763 -0.15713581748788474
0.2284842522046603 0.09695277132362999 -0.24636124667916445 -0.321798039334213 -0.009101461716509418 0.062136645176097516 -0.020342312349644752 0.20367507763433104
-0.23572400312716096 0.2326405219621097 0.3389343240788856 -0.07122432629940784 0.12724882296753945 -0.12200236196539026 -0.22542594729761514 0.004539780947440333
-0.20504193375999 -0.21006435789883027 0.11018059782951235 -0.020371740138381396 0.19036175742991043 0.09620086561060782 -0.07628597879782244 0.2614453681196376
0.003328494611022866 0.066855351655334 -0.2682522435563656 0.16288462326584188 0.04583005897101311 -0.048530165469084605 -0.16763298201476956 0.0891302426848135
0.1798677657996572 -0.09462634803524678 0.10479645094341394 0.21960542076399725 -0.1859833437408783 -0.002432986166048167 0.31496696368809846 0.07880692104570083
0.19172297996984647 0.2440454448599672 -0.04126162824001093 -0.16767847847225176 -0.11873028085810292 0.14919436314133233 0.24820742811871388 -0.03633532249202881
0.086620485765175 0.08874873614465864 0.08926644464370453 0.05073607225725552 -0.2126411689248793 -0.06346912373976182 -0.1422260903746483 -0.29124943907058803
0.13125413693284832 0.1102144415985658 0.13520267372798145 -0.29229678430622935 0.09533037619515654 0.28052425256636265 0.08882486696831855 -0.15131655834851415
0.18600861669182003 0.13836321803873325 -0.19511924447107024 -0.24887701587006014 -0.28187711652505837 -0.2488490249033843 -0.14343509841361637 0.10334210843420198
-0.16893281024655768 0.1544705318510937 -0.2015895063948438 -0.12742783452053513 0.23250636088351814 0.1689429425730789 0.23314272602266942 -0.0904394324197097
-0.09677182405782 -0.06789145937534447 0.23689466115597546 0.26905266089907043 0.2841348697481737 -0.22464353726733838 0.2270010854755918 -0.3192190895365558
0.0279780575164567 -0.32992285173499586 0.18291273417117027 0.09600530001908013 0.06063626315967796 0.07032643885376212 -0.20539004054488744 -0.2799047302721941
0.2742594858757255 0.00785012199651487 0.08042898639299628 0.09191444658056926 0.13736970509545135 -0.13231250202597192 0.14002208051898601 -0.13443506682347112
0.31904624564867584 -0.371534039331101 -0.09701024948025448 0.2844676487013337 -0.09793127549033695 0.1087786553322544 0.025133790495411416 0.18599983139772178
0.38847353342166285 -0.0869687925553937 0.0037474725437236737 0.0941803637752787 -0.17880361125072905 0.08107748200053419 -0.17504653909752285 -0.13630163845373575
-0.20866983177388254 0.052951438774762945 -0.15564431102366186 -0.15356878932273935 -0.30715712229526515 0.3012203537391616 0.1340892251128895 -0.19346173540492156
0.2176990712612374 0.02081042281876966 -0.20795255110359684 0.22002760690958606 -0.0733633480992084 0.09890985386343468 -0.11048176026694399 -0.05663933763041385
0.19514156484652623 0.23394389732900261 0.12764531836448165 -0.07163636184279024 0.20651289764514932 0.21903343477634613 0.24333268170069025 -0.013529234922324364
0.1583009966938609 0.2728329478726445 0.3895137587649195 -0.1704330392510496 -0.26030584897469156 -0.11489261216815158 0.10732295690611628 -0.04321071945178413
-0.01979158950266007 -0.21735884125341254 -0.03590510956196536 0.18027470059914108 -0.05249536408867762 0.13311965632227518 -0.13958398388789015 0.25621750329802045
-0.2057398398325073 0.10763492445462196 0.052172969787446725 0.20506172395597705 0.006719446652302023 0.06463121482629718 -0.019665214445142055 0.312517213511448
0.2578012125545298 -0.13186788986619355 -0.058698963099260426 0.3137753330657205 -0.13166154859223234 -0.27663581663709264 0.279985970208153 0.1491378075697285
0.12975818786594276 0.3305635264076951 0.01599612592342826 0.12150008127031496 0.15381147808260623 0.09787075783086642 -0.06688705614348864 0.17481517794796056
0.32733516724555706 0.2337182682463299 0.12905922737474831 -0.1288160155445521 0.1786703682271416 -0.034972556829441316 0.2559229612592271 0.06981235315339798
0.06552576220104449 -0.0916545818251947 0.17651537454144828 0.08414059819661679 -0.08577221023794875 0.0070635512428962165 -0.17667740139013746 0.02687673895354204
-0.40033645505674803 0.09162990616397114 0.20166056236088473 0.07829118934345616 0.05775104169707241 -0.170722124803409 0.3695873114956897 -0.20126155028805987
-0.04327163867830479 0.11148616052194193 -0.14468105168682519 -0.20935319510281308 0.07390708902583487 0.11689293194819873 -0.12039663021725168 -0.31105303615788366
-0.1189633411718968 -0.21356906629513225 -0.4500282495073676 0.014689386235808238 0.015271315742244978 0.1087629717156241 -0.09865397393222941 -0.09690829103866035
0.18341362961323004 0.09027521972759714 -0.2550735652233451 0.21159291115956383 0.07825189855120165 -0.14286232343723188 -0.08958710424030172 -0.2079738289779271
00000000: 8cb6 25bc 83eb a0bf 9be4 56b1 d5c9 c1bf
00000010: 9580 aee5 08e3 b7bf 9ba4 aaec 73a3 b4bf
00000020: 5df3 d9a6 9331 c2bf 1b33 7e78 a4d6 b93f
00000030: 347e 2b06 8626 c7bf a51a e2af 8945 d73f
00000040: cac4 2fd6 c3e2 9f3f 057f 9c1d 990e d13f
00000050: 0411 c296 13e4 cd3f 3ccf 6050 7de4 cbbf
00000060: ea95 15d6 994f c0bf bfbd 3ab2 1602 af3f
00000070: aff2 42c6 2940 c5bf 892a d97d 73df c23f
00000080: 7860 83fc 0ec0 c3bf b614 288e 623d bd3f
00000090: 8479 c061 3ee4 d33f b6c4 2ec0 4d78 cebf
000000a0: 4200 c2f2 d24b c53f df33 36d0 b8bf 9fbf
000000b0: c0a5 08f1 6843 d23f 2002 92c6 061d c4bf
000000c0: 345d 6fd3 f83e cd3f 4f70 1796 e5d1 b83f
000000d0: ff90 beec c388 cfbf 18df b6cd 5698 d4bf
000000e0: 537b 5883 c9a3 82bf b038 d4d5 5fd0 af3f
000000f0: 9624 1179 9dd4 94bf 3190 b962 0612 ca3f
00000100: 1e1c 2842 342c cebf d79b c624 2ac7 cd3f
00000110: 9048 5a97 19b1 d53f fcb5 22e8 c13b b2bf
00000120: 47cf 8c7e b049 c03f 3f15 adfa 8b3b bfbf
00000130: e512 a8e7 c1da ccbf f643 342b 4e98 723f
00000140: 8764 e767 d03e cabf 1488 9d8d 63e3 cabf
00000150: 25dc 54b0 cb34 bc3f c2b9 a056 54dc 94bf
00000160: cb07 4929 c65d c83f c9fa a4b3 9ea0 b83f
00000170: ab7a 1458 7a87 b3bf f8ed 705a 85bb d03f
00000180: 91e6 f9ef 5b44 6b3f db17 ecac 6e1d b13f
00000190: 4fce 4975 0b2b d1bf 695a f940 67d9 c43f
000001a0: d093 e898 0977 a73f be4d 1e23 f2d8 a8bf
000001b0: 8a00 be5f ff74 c5bf ff72 6a55 3dd1 b63f
000001c0: 1e68 db2d e805 c73f 84bb 26ae 6e39 b8bf
000001d0: d8f0 89b1 f0d3 ba3f f853 1aca 071c cc3f
000001e0: d3e0 7b5d 4dce c7bf 3138 7980 57ee 63bf
000001f0: 6317 1732 6b28 d43f 26f9 96bc b02c b43f
00000200: 0d5b 6eec 608a c83f 7aa6 3492 e13c cf3f
00000210: a5b9 bd7f 3e20 a5bf a603 a406 7d76 c5bf
00000220: 2a98 5491 1b65 bebf d643 3807 cd18 c33f
00000230: 6873 32d1 42c5 cf3f f8f3 951b 8b9a a2bf
00000240: 586a 8699 c22c b63f f279 4db7 3cb8 b63f
00000250: ccf9 5f6c 2ada b63f 5112 2516 14fa a93f
00000260: 8964 2869 d337 cbbf 349f c432 833f b0bf
00000270: e505 66eb 7634 c2bf 5956 f2af d4a3 d2bf
00000280: 5eaf cb80 efcc c03f 4476 367e 0337 bc3f
00000290: 0029 ff3a 524e c13f e38e 5492 fdb4 d2bf
000002a0: c3d5 1250 9267 b83f c778 a0fe 1bf4 d13f
000002b0: 9552 b3fa 39bd b63f 529e b94a 575e c3bf
000002c0: b197 bb5e 21cf c73f ee0b 39cc e2b5 c13f
000002d0: a567 e9da aaf9 c8bf 5fa9 f1b9 33db cfbf
000002e0: 6bd1 3d51 460a d2bf c7fe cceb 48da cfbf
000002f0: a97b 64d0 145c c2bf 174b 06e0 a074 ba3f
00000300: bf7b 9d1f 979f c5bf 9f82 3fbd b0c5 c33f
00000310: a660 9758 afcd c9bf 7ad2 ee26 8e4f c0bf
00000320: d3a7 0db8 c4c2 cd3f 8ae5 9e1e ec9f c53f
00000330: dda8 c8ef 9ed7 cd3f bcee 82e4 0927 b7bf
00000340: 96aa 80cb 09c6 b8bf 88df b1ad 5561 b1bf
00000350: 7886 2173 9052 ce3f 78a6 dda6 2838 d13f
00000360: 1e2f 4e05 442f d23f ba15 e992 1ec1 ccbf
00000370: eb17 231f 5f0e cd3f b760 74e7 156e d4bf
00000380: 2db8 27a8 47a6 9c3f 4be9 99bc 741d d5bf
00000390: 48c0 a439 af69 c73f 1f1a d3a7 cd93 b83f
000003a0: 20e7 715e b70b af3f 11ca ebda e900 b23f
000003b0: 713e 8889 384a cabf 12f2 a087 f5e9 d1bf
000003c0: 950e 9da8 778d d13f a706 f589 b913 803f
000003d0: 4c56 357a fe96 b43f 91ee 1786 b487 b73f
000003e0: ed4d 6c9b 5495 c13f 89d8 86b6 9def c0bf
000003f0: 9801 4658 3eec c13f 02a0 b813 2b35 c1bf
00000400: d13f bef1 406b d43f 67c8 11b5 36c7 d7bf
00000410: 8ffd e4e8 a9d5 b8bf be4d fccb b734 d23f
00000420: 6e8f 7c29 0612 b9bf c9a6 27ff ead8 bb3f
00000430: be29 cf20 acbc 993f d715 75ac d7ce c73f
00000440: 3316 5a18 c0dc d83f 514b cc37 9643 b6bf
00000450: 340e 9300 05b3 6e3f af17 574e 341c b83f
00000460: 1342 5d67 09e3 c6bf fe62 a26d 7ec1 b43f
00000470: 17d6 59cc ec67 c6bf c366 c603 5572 c1bf
00000480: 0cb9 906b b1b5 cabf 41a4 a073 731c ab3f
00000490: a9d9 d31c 27ec c3bf d9ea e95f 24a8 c3bf
000004a0: f876 bf58 76a8 d3bf 85c0 0cbc 3147 d33f
000004b0: 3e8c 4df2 d529 c13f b2b7 4ba9 5ac3 c8bf
000004c0: 1ee2 b72b 90dd cb3f 60b0 b0d5 534f 953f
000004d0: 360b 0e6f 309e cabf 8e68 f257 dd29 cc3f
000004e0: 6fa8 cfbc f0c7 b2bf aa78 98fb 2752 b93f
000004f0: 57aa 265b 8848 bcbf 7157 94cd d4ff acbf
00000500: 7894 8d17 66fa c83f 8e3c 10a6 dff1 cd3f
00000510: 5f75 ee89 ae56 c03f 82b7 51b7 c256 b2bf
00000520: 3f47 cbbe 036f ca3f 8227 8c9f 4909 cc3f
00000530: a1e9 f97a 8625 cf3f f411 402c 37b5 8bbf
00000540: 11b7 dc01 3543 c43f 0f98 1853 1876 d13f
00000550: f330 cf1d cbed d83f c1dd def4 bfd0 c5bf
00000560: b671 13dd d9a8 d0bf e670 d02b 9a69 bdbf
00000570: d193 056e 8479 bb3f 429b c325 b71f a6bf
00000580: 6e60 9916 3f44 94bf bc05 571d 6ad2 cbbf
00000590: 81e7 a78e 2762 a2bf dc4b afcb 3d13 c73f
000005a0: e1ab e71f ace0 aabf 78f1 2d9d 100a c13f
000005b0: 3b04 ec52 e3dd c1bf 2ffa 5419 de65 d03f
000005c0: 8b4e c8dd ae55 cabf efa5 7060 f68d bb3f
000005d0: a7ce f15d 6ab6 aa3f ceb1 066b 763f ca3f
000005e0: 51d3 e6b9 d985 7b3f 67cd fad9 ab8b b03f
000005f0: aa91 a433 1e23 94bf 7cff dd32 4800 d43f
00000600: 4a9d 32a8 d07f d03f 1715 2f09 0ce1 c0bf
00000610: f80f a45d ca0d aebf 00c3 7322 e514 d43f
00000620: c013 ac1e 49da c0bf bdf2 56b6 66b4 d1bf
00000630: 9380 5846 4aeb d13f d0f7 0d9b f216 c33f
00000640: 95df a292 ea9b c03f 93f9 caeb f327 d53f
00000650: c3b6 d0d6 4961 903f b770 841b a11a bf3f
00000660: 959e 0e32 18b0 c33f 6149 1ed8 0e0e b93f
00000670: ce78 a996 821f b1bf b1c1 1000 5860 c63f
00000680: 779f 8933 0ff3 d43f 4841 4cef 7aea cd3f
00000690: 4529 6944 0385 c03f 2781 fb0e 0b7d c0bf
000006a0: 8261 26ae abde c63f 2d0e ae47 ece7 a1bf
000006b0: c4d8 39b3 0a61 d03f ca90 a6ed 38df b13f
000006c0: fbee b2dd 4bc6 b03f 98bf 77b7 ac76 b7bf
000006d0: 70c7 7248 0e98 c63f 6035 85fd 3c8a b53f
000006e0: 1dac e0e5 2af5 b5bf ce4b 4f99 abee 7c3f
000006f0: 15da 7476 5d9d c6bf 827a 506b 9385 9b3f
00000700: 2f61 77cb 1c9f d9bf 5f4f 4fba 0e75 b73f
00000710: e9d1 1d68 03d0 c93f e28a cb31 e40a b43f
00000720: 2937 cc66 8b91 ad3f a1fc 5dfb 38da c5bf
00000730: cefe f889 51a7 d73f 16f9 3640 f0c2 c9bf
00000740: 866f ef41 b327 a6bf 10fa 6565 5b8a bc3f
00000750: 2b43 aca0 e884 c2bf decc 23e3 15cc cabf
00000760: 40fb 4e32 93eb b23f 89df d9f7 b1ec bd3f
00000770: 61ea 5445 50d2 bebf c9a7 67fe 4ae8 d3bf
00000780: 7a95 c1ab 6174 bebf 7361 962d 3b56 cbbf
00000790: e541 7a49 43cd dcbf a34f d90b 7815 8e3f
000007a0: d64b 704d 9146 8f3f 08cd 88de e3d7 bb3f
000007b0: f0cb a807 6341 b9bf 65e8 b854 fbce b8bf
000007c0: 682c 6a0a 197a c73f c286 5edc 461c b73f
000007d0: 4456 2d13 2053 d0bf 1175 bffc 7915 cb3f
000007e0: 1a98 2001 5108 b43f 862a 7f07 5049 c2bf
000007f0: 0afe da32 2eef b6bf fe29 f1ec e29e cabf

hidden1.bias f8 [32]
-0.21730931106297355 0.008625067231609836 0.18451134511223355 -0.026902095729536137 0.14971065971863187 0.2463282463687272 -0.11534529551386268 0.07172248586628101
-0.048563430013735 -0.1372589945660739 -0.11009327606069808 0.06810483379817366 0.24809440337388874 -0.1331377108096424 -0.058395572195121453 0.1573760401847255
0.04372533370669644 -0.23090254400977914 -0.04173967256284895 0.08519047703664276 0.09783996318173802 -0.2161748803104525 0.14559592214470635 0.014718205193642043
0.11808853911997787 0.16478948436807425 0.2326286174940119 0.09735313878792223 -0.09115942018995764 0.02863707856244397 0.14106123684008146 -0.2110777798689572
00000000: 97dd 10a0 cad0 cbbf c409 7ced 04aa 813f
00000010: e0be 7f58 119e c73f 17ac 6815 398c 9bbf
00000020: 6d53 ad09 b829 c33f 1c0b 1e19 af87 cf3f
00000030: 3bc0 faef 4487 bdbf cdf9 2ea3 675c b23f
00000040: 4393 614f 4edd a8bf db1e 5fe6 b391 c1bf
00000050: d0b0 30ac 122f bcbf 07d8 dc81 516f b13f
00000060: b7de 67b2 8ec1 cf3f 1357 e510 a80a c1bf
00000070: 7c56 9e41 06e6 adbf 7039 e2e8 e524 c43f
00000080: 16cc 8dbc 2a63 a63f e7e7 8aed 368e cdbf
00000090: a2d4 3401 e75e a5bf b292 cd08 0bcf b53f
000000a0: 267f 1b32 0a0c b93f bc36 9354 9eab cbbf
000000b0: da6f 051e e3a2 c23f 6738 b30f 9424 8e3f
000000c0: 297f 8ded 0c3b be3f 5bf4 0a63 d217 c53f
000000d0: 8d0f 2048 c6c6 cd3f accf 41a3 22ec b83f
000000e0: 3b2d 7048 3956 b7bf 92c4 83cf 0953 9d3f
000000f0: 2111 7b6b 4b0e c23f da87 b9c0 9804 cbbf

hidden2.weight f8 [32, 32]
0.16306064264152748 -0.20542723162035026 -0.007619336875430153 0.02882549730573062 0.15246170101239917 -0.12229362959463556 0.08119204417094811 -0.16896791229797525
-0.06113648185290715 -0.06319589216899815 -0.04322716603253034 -0.09530035845610495 -0.16259729946395507 -0.08427906228713289 -0.16195549905410636 -0.018490633897527572
0.05149008315757802 0.10530094306846546 0.24751001480752235 -0.1849869335673296 -0.1317086794170173 0.08758484977499709 0.028019433578187227 0.04570512742112973
-0.09238270907703414 -0.002302815478036796 0.12320670065078966 -0.1615873544894483 0.017707423948761736 0.015831292727249344 -0.06670386338113377 0.14746499575609096
0.04517310708799122 0.0842517311880839 -0.13539517015014246 0.15518208243758758 0.05184007495836543 -0.11680304398200103 -0.12659221088173866 0.07034816215192276
-0.06448834511767494 0.04777762667273857 -0.11552853548222732 0.03272429611006858 0.05033477445563382 -0.06207623410552203 0.13842743417251477 0.13165445742545412
-0.21446044138326917 0.0686989693631892 -0.12765268099585805 -0.051693433722943674 -0.10198043550747032 0.0016328960193351882 -0.01826081897931337 0.002341298972024314
-0.11676761482266716 0.026099550567457077 0.010966669550859409 -0.10993237043438568 -0.06618559317667591 -0.0035601057672498882 -0.1605515549305938 0.04775210194849072
0.06857992728879121 -0.08740248688094085 0.139609480124158 0.0192086083304493 -0.04236967120585172 -0.15088264618720512 -0.0469198372600025 0.014513867376961177
0.131080527935021 0.029694710176073644 0.0743565266589475 0.1753394337383523 0.09961410277659528 -0.03164106551932897 -0.060043059427060314 -0.15913609189820752
0.09568405097788658 0.10358057249435598 0.09685583907741588 -0.15604834580816904 0.05481924932522284 -0.06922466713488103 -0.03964491778185263 0.07705785327686002
0.18780653033569011 0.011220892741806794 -0.07144944577244598 -0.04891093054253698 -0.030475350379608954 0.170066181893189 -0.02981586090201649 0.1600013778332418
-0.05385875834978154 0.11209490423755931 0.17175743211154573 0.1757357453169666 -0.1104614388384952 0.08552116894710424 -0.017565866804175836 0.2585400777793342
-0.2778867794493796 0.12670471616371723 -0.1543946847023853 0.07505290832961418 -0.13253371515726745 -0.025473242002240354 0.022181337141268822 0.12428881470527989
0.08421925733007991 0.24052335470317132 0.03619210631830204 0.022813683133916286 -0.08831811083154503 -0.16067334932962712 -0.14437867375748994 -0.04727201847828748
0.021374296902981593 -0.18978613137827588 -0.09002842439463844 0.0312667318204561 0.16555984490705158 0.08984480784300464 0.01944378572896442 0.10373312328467381
-0.04627824550074227 0.10727919510884283 0.14777126984159572 -0.07513969877537162 0.05452408235483469 0.004177766636036754 0.06544311488191261 0.15881439212247667
0.08398765619738928 0.012437996634208165 0.16625158981363583 -0.13223897113715624 -0.07909968187378484 0.007073198390572808 -0.16275667215877376 -0.12162077033592399
-0.15848000199465864 -0.06989295640881465 -0.08884728443361314 -0.16040195941982355 0.1472597558947062 0.07494241433411912 0.16099511029373037 -0.15159890931057493
-0.06862606781731413 0.10352588123638559 0.049655795347894056 -0.15827226776208325 -0.11954375411016116 -0.17015067261635153 0.10788995993234189 -0.03018289461098408
0.2119138839149251 -0.18958992981884798 0.1596844518142754 0.18586236706490397 -0.1950811310604626 -0.1772766196364925 0.11954405837526295 0.048738314899427405
-0.07479197098197385 -0.06170982151414647 0.1499728863898093 -0.17481657685232024 -0.195604562344945 -0.007934668055679727 0.12289958295114353 -0.0845336958257902
-0.07485347915413186 -0.03488604226423766 0.1687957347524494 0.21250393812276153 -0.049831970114877416 0.037220843112440706 0.023309051327758543 0.08595196182100667
-0.006764285686806485 -0.20203775841445948 0.10119580479658993 0.16146917192462798 -0.13167568319971054 -0.05641018749752456 0.22527492470697835 -0.13356021247182348
0.07983064630048019 0.21620434229103191 0.11101529883405889 0.05065860055013405 -0.037288825334409824 0.1685439865812163 0.14153644499240914 -0.18154289469492302
-0.0692355802167815 -0.1192076469284019 -0.04686772672394729 0.10637394363785296 -0.0010884422093699305 -0.04997944967248127 -0.07840846364599352 0.12981339851547885
-0.08268333520061334 0.17128371490748895 -0.028779737497264292 -0.18069612535514154 0.061508126455852886 0.045897720980137925 -0.09481192178124019 0.15282762284144083
-0.0034592934401775984 -0.017698561007993222 -0.05077859099763884 0.00493277707448667 -0.1694910451415476 0.22666687485384412 0.11507104531443886 0.1475124126246729
0.06371904727635488 0.03738087577134072 0.020488968599229267 0.09145826543464776 -0.13259917199138074 -0.023144589392575368 -0.10199855623372626 -0.04359411098294273
-0.06561533213317132 -0.004616457955607771 -0.03648798718590212 -0.011505753376835374 -0.02196970224115627 -0.07675085557270293 -0.1342251606434184 -0.11910933666765666
-0.09262975525021334 -0.05446183136031932 0.12643377894314609 -0.16708465196756336 -0.0813513627754874 0.13498616934912924 0.09837255742893225 0.14344961816861004
0.0642218446656683 0.03784775272621195 -0.07639658347731124 -0.06730964041412578 0.11168786913170012 -0.02181288294817405 -0.1388813937297592 -0.0009749108342150758
00000000: 467e b4cf 2bdf c43f 5034 c284 704b cabf
00000010: 84a5 272b 7435 7fbf 6a4e e060 6e84 9d3f
00000020: 07d2 de71 dd83 c33f a33b 9ea3 a24e bfbf
00000030: 2cdc 6876 00c9 b43f 6054 b294 bda0 c5bf
00000040: f72c 4dec 474d afbf e27d 1b22 9b2d b0bf
00000050: 4624 d100 df21 a6bf 4fb5 ddb2 9a65 b8bf
00000060: 28cc ce01 fdcf c4bf a8c2 4208 5093 b5bf
00000070: a120 ec31 f5ba c4bf 5c1f 7d6f 35ef 92bf
00000080: 07d2 757e e85c aa3f 6e8e b7aa 00f5 ba3f
00000090: bdf0 837d 68ae cf3f e2f3 edde a6ad c7bf
000000a0: 1a04 597b d4db c0bf 9c9f 68f1 f56b b63f
000000b0: 17a8 7b5b 20b1 9c3f 1d08 1197 a966 a73f
000000c0: 7ea5 33aa 64a6 b7bf 0d2b 57a5 5add 62bf
000000d0: c975 f16d 798a bf3f fd5a 7df9 e4ae c4bf
000000e0: b07d 061b e521 923f 5958 1112 1436 903f
000000f0: 6823 bd1f 8113 b1bf 58e1 090b 22e0 c23f
00000100: 9908 34f3 ed20 a73f 5e8e 157e 8591 b53f
00000110: 5465 ea01 a154 c1bf 884f 7fa8 01dd c33f
00000120: 2401 2345 c88a aa3f 78d7 f9e5 cde6 bdbf
00000130: ec2b d56e 2c34 c0bf e9b5 c64f 5602 b23f
00000140: 4dea 40e5 4e82 b0bf 036f 1420 4f76 a83f
00000150: 21a4 a631 4793 bdbf 549c 272b 3dc1 a03f
00000160: 4ee7 46c4 7ac5 a93f 1622 afc6 74c8 afbf
00000170: 3bf0 517b fdb7 c13f e0e9 81a2 0dda c03f
00000180: 5970 0393 7073 cbbf c00d af72 4196 b13f
00000190: f9dc 0f4d ec56 c0bf d216 84ce 8f77 aabf
000001a0: c41f 56cb 631b babf e152 0dc0 dcc0 5a3f
000001b0: f2de 41d1 f6b2 92bf 40e7 7a50 0f2e 633f
000001c0: 1731 e57e 7be4 bdbf 4796 8230 d7b9 9a3f
000001d0: e62c 8978 b175 863f eb95 c91f 8724 bcbf
000001e0: ce01 29fe 89f1 b0bf 4d84 e63a 152a 6dbf
000001f0: 40da df0e f48c c4bf 9838 5ea8 f672 a83f
00000200: fd0e de40 748e b13f 3e22 be66 0260 b6bf
00000210: 1523 ac33 b9de c13f 51e5 52e2 6bab 933f
00000220: 88c2 5740 7ab1 a5bf db38 745f 1f50 c3bf
00000230: f275 217d e005 a8bf 94bd c74d 72b9 8d3f
00000240: 44c9 4f2a 3fc7 c03f 0920 4844 4a68 9e3f
00000250: 858c 3e82 0709 b33f 2a7d cdc6 8571 c63f
00000260: 0d57 a551 4f80 b93f ed72 3bfb 4133 a0bf
00000270: ac98 2ec1 f6bd aebf 6374 284b 925e c4bf
00000280: d9e5 b2fd bf7e b83f 443d 5da3 4184 ba3f
00000290: ae9e 4355 8bcb b83f 63a5 eb66 64f9 c3bf
000002a0: 7d11 16c6 4411 ac3f 8db9 6b31 b5b8 b1bf
000002b0: afbd a6b2 564c a4bf 525d b93f 10ba b33f
000002c0: be2d e25c 0b0a c83f b126 ddba fafa 863f
000002d0: 83f4 e8c8 824a b2bf 38ba 317e da0a a9bf
000002e0: 0cb6 db24 ee34 9fbf c883 b188 bac4 c53f
000002f0: 00ad e78d 0c88 9ebf 4eea 8dd6 ec7a c43f
00000300: 3753 6e0b 6093 abbf 39a2 bf6b 40b2 bc3f
00000310: b5cb e1c4 25fc c53f 79f1 6f47 827e c63f
00000320: fdca 476b 3347 bcbf 3e56 be1f b7e4 b53f
00000330: 849f cc5d c9fc 91bf 521f b1ae eb8b d03f
00000340: 5574 6ea1 e5c8 d1bf 4b08 1632 dc37 c03f
00000350: 7d8a bc7c 34c3 c3bf 27d1 beda aa36 b33f
00000360: 49e2 1b62 ddf6 c0bf 0876 4a55 a815 9abf
00000370: 67c7 6956 b4b6 963f b2f3 6a4a 64d1 bf3f
00000380: fd14 edab 648f b53f 00ea 2f23 78c9 ce3f
00000390: 4e5b 0592 c587 a23f 7d8d d85b 785c 973f
000003a0: 467e aa05 049c b6bf f2d1 5abe f190 c4bf
000003b0: 719e 0319 007b c2bf 56a3 c2ba 0934 a8bf
000003c0: 9075 b1c8 24e3 953f da84 c075 e94a c8bf
000003d0: e941 7c52 1a0c b7bf 6a4a 3e6d 3102 a03f
000003e0: 150c b4a3 1031 c53f 18af 66bf 1100 b73f
000003f0: fcec 435f 12e9 933f 2b05 0504 418e ba3f
00000400: e746 e23d c8b1 a7bf 759f 883a a676 bb3f
00000410: 9c07 a141 2bea c23f 6f1b dff4 5a3c b3bf
00000420: f8e9 1d9d 94ea ab3f 0450 27b1 b41c 713f
00000430: 238b 2a46 e1c0 b03f 8e6b 26ae 0754 c43f
00000440: bbae a20c 3780 b53f b067 2ca6 1779 893f
00000450: 572b 946a bb47 c53f 1538 25e4 34ed c0bf
00000460: e39b c572 e03f b4bf 4a05 403c c9f8 7c3f
00000470: 5c59 10ec 35d5 c4bf 3f6c 1bef 8922 bfbf
00000480: a18b d19c 1249 c4bf 0022 ff39 81e4 b1bf
00000490: 4a14 fb14 b2be b6bf 3613 f628 0d88 c4bf
000004a0: a8d7 ca5d 68d9 c23f 83f8 a512 6d2f b33f
000004b0: a084 c3de 7c9b c43f 7791 ccd2 9767 c3bf
000004c0: 65ae ed5c 7a91 b1bf c629 3312 ac80 ba3f
000004d0: 29f3 2602 7c6c a93f 8c71 f302 4442 c4bf
000004e0: 001e 5862 6b9a bebf 00cb 234b 7fc7 c5bf
000004f0: 8be5 7929 ad9e bb3f b7db 02c5 43e8 9ebf
00000500: 1ad1 7d80 fe1f cb3f 9287 1c9a 7b44 c8bf
00000510: 856a 1c45 8a70 c43f 9fea 0c8a 56ca c73f
00000520: 1256 fc22 6bf8 c8bf c692 d711 00b1 c6bf
00000530: 7122 277d 709a be3f e541 1c79 3af4 a83f
00000540: 26f7 5e0d 9125 b3bf 3c92 7d02 6e98 afbf
00000550: b75c 2ac1 4f32 c33f b98f 30bc 6360 c6bf
00000560: ba26 1cff 9109 c9bf e619 6e1e 0d40 80bf
00000570: 769a 77d9 5876 bf3f fa55 fb12 00a4 b5bf
00000580: d774 f5fc 9829 b3bf 833a 3955 95dc a1bf
00000590: e2a7 3b40 199b c53f 7e15 413c 5433 cb3f
000005a0: 7496 e073 9383 a9bf 7582 cb3f 9c0e a33f
000005b0: 4931 9df4 53de 973f 0c5b 0ca1 f200 b63f
000005c0: 44e1 e31c deb4 7bbf 903f 798e 5fdc c9bf
000005d0: 3e00 18e0 f7e7 b93f c93e 5d96 05ab c43f
000005e0: 1fb7 82b0 bfda c0bf ed1a edcc cbe1 acbf
000005f0: c2d7 1c09 cfd5 cc3f 6480 4e44 8018 c1bf
00000600: 4740 14ff c76f b43f 7453 b279 95ac cb3f
00000610: 3e13 d9a5 7f6b bc3f d076 3f91 ecef a93f
00000620: 7395 a25a 8517 a3bf 7de2 266f d992 c53f
00000630: b49d 37c1 dd1d c23f 4497 c42d cc3c c7bf
00000640: 542b c048 6cb9 b1bf 0798 fd70 6484 bebf
00000650: e8d0 08f3 0bff a7bf 4c35 12a1 523b bb3f
00000660: f452 57ec 41d5 51bf 237a a10b e896 a9bf
00000670: 58d2 16bb 9312 b4bf c271 9ab6 b99d c03f
00000680: 0160 9c2c bc2a b5bf 0cba eef0 9fec c53f
00000690: 0a55 5a7d 6f78 9dbf 1f06 75f6 0c21 c7bf
000006a0: 8dda 213f fe7d af3f 0529 24f5 e77f a73f
000006b0: 1f43 5217 9845 b8bf bdc3 0305 db8f c33f
000006c0: 11aa 2b06 aa56 6cbf 11c4 dc52 921f 92bf
000006d0: a3f8 57c7 a6ff a9bf e4ff 6943 6434 743f
000006e0: ee84 ecef e1b1 c5bf 7ab9 4a8f 6b03 cd3f
000006f0: 8590 57c8 4b75 bd3f 3e0f fdcd afe1 c23f
00000700: 2e29 2f38 e44f b03f 1c14 de0d 9623 a33f
00000710: aef5 3f68 0ffb 943f 799e fd12 cf69 b73f
00000720: 15ff 9679 02f9 c0bf 64f3 141a 37b3 97bf
00000730: a358 43cf 931c babf 1e9b f0a1 f751 a6bf
00000740: 5bce a099 2acc b0bf b846 15ff b4e8 72bf
00000750: 0715 52af 8dae a2bf 4f3a c113 5490 87bf
00000760: 08b6 83c2 397f 96bf 7bf1 9fae f1a5 b3bf
00000770: 21c5 a141 4a2e c1bf 58c6 a211 f37d bebf
00000780: 91a7 6f69 95b6 b7bf 1c4b 25d1 6be2 abbf
00000790: 23d3 d568 fb2e c03f fb9e eea5 0763 c5bf
000007a0: 7212 9b62 71d3 b4bf 6927 620f 3a47 c13f
000007b0: 602c fba4 f12e b93f 0135 549d 8e5c c23f
000007c0: 5a20 87c2 d770 b03f 5a52 5fd8 c760 a33f
000007d0: dea9 8ffb b98e b3bf afc0 4860 343b b1bf
000007e0: 16d4 4781 9397 bc3f 3956 93cb 1d56 96bf
000007f0: b5cd 0b92 ddc6 c1bf ccd3 2113 25f2 4fbf

hidden2.bias f8 [32]
-0.1428897924296623 -0.06510706514994431 0.07892291943516108 -0.07043697189214028 -0.03995333726860894 0.09386077733313845 -0.1245176958096298 -0.10055789960134656
-0.03918977074508327 -0.047492938419924025 0.044887939077773525 -0.05269502375795658 -0.03693117637817335 -0.094488497556023 0.09251136331308242 0.04015729018277292
0.024566489802248626 0.01993364657081894 0.1523505761359286 0.08078676428964784 0.09339263034167705 -0.004200533628085847 0.13280929100628258 -0.1579331575581212
0.12375347548245193 0.06992761224433275 0.05506901601999321 -0.09413410491934342 -0.10405515059020846 0.104717324853946 -0.11496519674957277 -0.1195425114086223
00000000: d574 b574 364a c2bf bdbb 8e4b dbaa b0bf
00000010: f2fc e0dd 4a34 b43f 51bd b44a 2808 b2bf
00000020: 5f95 de89 c374 a4bf 37e1 0589 4207 b83f
00000030: 1990 4647 64e0 bfbf 8269 249a 29be b9bf
00000040: 8630 607f ae10 a4bf 78e9 9b92 fe50 a8bf
00000050: 4cd3 a54c 8dfb a63f 969c 6797 d7fa aabf
00000060: f27e 7ea5 a4e8 a2bf 73ee d9ee 6530 b8bf
00000070: e924 f01f d3ae b73f 20de 0f10 7f8f a43f
00000080: 00da 1c39 f527 993f d65e 7260 7c69 943f
00000090: c3e9 0343 3980 c33f e2dd 92fe 70ae b43f
000000a0: 7442 0155 94e8 b73f a81c ef28 9434 71bf
000000b0: 100c bd14 e5ff c03f 4444 5559 2737 c4bf
000000c0: e5a5 f6c9 4eae bf3f 5841 ada7 c6e6 b13f
000000d0: a954 a88d 0132 ac3f a31a 1136 2c19 b8bf
000000e0: bbea c3bc 5ba3 babf a682 922d c1ce ba3f
000000f0: fbb5 37f0 5b6e bdbf 4b53 fb88 569a bebf

predict.weight f8 [9, 32]
-0.0014121531978423865 -0.02250579185978846 -0.016321973505169195 0.05907390874395402 -0.06967775031717914 0.017291696676924546 -0.015130923093079804 -0.08781228797440846
0.07613437943857818 -0.020552821049861197 0.15538913872231522 -0.009401225785522674 0.06525706037994014 0.14559391902191568 0.0009616802012735069 0.002974272964537001
-0.003236138627678548 -0.004913000973724865 -0.014561891658375077 0.003973728065961229 -0.014372761105267511 -0.14796416143068886 0.07690812635820186 -0.06918110315859219
0.03531532756569431 -0.04531643645115002 0.006491497935996865 -0.02950348374638302 -0.052955594387738135 -0.0013481364721588769 0.029708220148985498 -0.04431337114512626
-0.03987491983168279 -0.05203916725630322 0.04790132000264074 0.01568932005189971 0.0100875026797995 -0.019949853987775976 -0.01725657608453421 0.1546417135416757
-0.053055571762185325 0.009293922799767035 0.15492114591674086 0.01419318111486522 -0.012367982249700236 0.1286276213877915 0.014661483786901686 0.024097378185034685
0.024662839765147434 0.0029707861536382 -0.005155203540368065 -0.012167056525427902 0.019971167214944793 -0.11416794431219583 0.04136631477045832 0.10894941332053083
0.09507170674295119 0.018812455331416997 0.07759461660315449 -0.056049994138494756 -0.06664842272699596 0.005576606101524623 0.013438576723133247 0.03231661554293863
0.09187944870577228 0.08912362383848765 0.09916312133398397 -0.022458185757286565 0.09300777780474942 -0.20646869752068858 -0.19461456876091981 0.08397450576224906
0.04058890572662287 -0.11239447656527009 -0.09782057897732656 0.23653428423291897 -0.22422361607688504 -0.13575452915853406 0.22996606649403198 0.14561112620243724
0.038684404940247996 0.12103618425561503 -0.0829422008308853 0.38709324183250515 0.16634196501386 0.13658589782265032 0.2017906952533789 0.024683498640354767
0.10077826622941562 -0.014386794752393255 -0.005216463741473091 0.030768976022330936 -0.1405683572347703 0.1310593128473357 0.026905227373744196 -0.15921135276861315
-0.023811275499456934 -0.08919867354532687 0.02430648611657059 0.021575825663920578 -0.10388830544116187 -0.009772147384766732 -0.010199405370984255 -0.08016731488884067
0.06686604358079865 -0.09047447165824345 -0.06704959620458442 0.00589097516265822 0.0063205365899845645 0.1377678671562698 -0.0015786804037314051 0.014005630435050565
0.022616898341150535 0.00143602809074521 -0.017326978779161784 -0.012316592096918539 0.007470132169034913 0.03117233356442953 0.020360721299601033 -0.12301582938591038
0.10018487780201953 0.0017323765593870413 0.0008581039722765408 -0.02340614229491125 -0.0015456781509371595 0.021655154019499332 0.01441467397058226 0.02175168124523932
-0.05969730247351692 0.18757533107859684 0.05145109632263878 -0.01659048080138464 -0.010714969413125344 -0.4238541547888386 -0.34877017837199864 0.08706704966360175
-0.16611969017988126 -0.04680319195108068 0.10022717885517805 0.1837284051317695 -0.07144366392266085 0.017355160107822173 0.38995475064650514 0.32037489528352725
0.30903334177161 0.07234757353229593 -0.2568309557736774 0.28341189018530016 0.01379406088489919 0.0239518020225476 -0.049694662883328584 0.046314500932372
-0.05396178391190729 -0.2784345329983046 0.14919764975900984 -0.08714485323234561 0.08512068274271546 0.19479162083843635 0.15223227509446025 -0.09162085509262387
-0.0001386092217496209 0.10558620046256169 0.006807797455731456 0.017160351108272423 0.15587505407427077 -0.0002640708240528493 -0.010584920883477218 0.15547193761006062
-0.030049240059226604 -0.017437567298991763 0.07055300560278455 0.010264120050131737 -0.007458120104221653 -0.0006448894699556898 0.007321213304342169 0.017397181233854638
0.023044321059832767 -0.006239369007640946 0.011842404695619094 -0.0013673599154380525 0.0003149182073319376 0.07538334583205403 0.06364758469032192 -0.10396609355962722
0.09070602124080065 0.006202311256128108 0.03427890109628612 0.022363835637942326 0.05768989546111495 0.0054423970464548485 0.015225034036444632 0.007085576598360505
0.34550080621443396 -0.032626504792874315 0.11673930496203015 -0.21692921132273163 -0.034097720879457345 0.30055421037617547 0.2743638044301314 0.00104213336711074
0.15978630482089098 -0.07842299187619112 -0.11681300107034925 -0.5765247964764812 0.3128214638452273 -0.06108300110208318 0.012294527005833854 0.2640901323769525
0.21324335612130668 0.24127580597104725 -0.12501454861632244 0.061082659347166154 -0.0876725563010462 -0.16334321421995915 0.13312743954656595 -0.1417057078047665
0.0669596381689705 0.20516375766289083 0.1788236250439692 0.3443556913398687 0.10037176316302945 -0.1673215235435304 0.09843199605367609 -0.07241666254134074
-0.07799742252324743 -0.11370495083893593 0.10916792630956068 0.20263231315839306 -0.021603370193613455 -0.01366785302758212 0.030115014153934305 -0.06326790574683218
0.17996926205810032 -0.10955754074068615 -0.09091309340958303 0.2152496886170822 0.057261933243368764 -0.09050710060508237 0.22605714530674897 0.21538872815001536
0.018872704171443506 -0.15754061790491147 0.05741292384363535 -0.014435703589323924 -0.21697945476663588 0.1404160466062913 -0.04494175424686509 -0.07014777356048771
0.0024933812316049976 -0.1326405455647874 -0.1658346748778635 0.18643336547465883 -0.04431669062922956 0.2849391303266871 -0.19939554445212349 -0.2966751241227216
00000000: 1ba4 4ef3 ff22 57bf 5093 0820 c20b 97bf
00000010: c6bd a419 b5b6 90bf c04f 3474 ef3e ae3f
00000020: e702 dfaa 66d6 b1bf 4204 e11e eab4 913f
00000030: eb9a be1e f6fc 8ebf 0a7a 09b9 dd7a b6bf
00000040: 0a3a caed 8a7d b33f d8af ff78 cc0b 95bf
00000050: 49a4 7b92 cae3 c33f e83c 542a f340 83bf
00000060: 8639 2acc afb4 b03f 6d09 5950 d2a2 c23f
00000070: 9847 c081 2883 4f3f f505 96a3 805d 683f
00000080: c148 47b2 ac82 6abf 302a 1ea8 a71f 74bf
00000090: c461 8603 a0d2 8dbf ac4e 6281 c146 703f
000000a0: f6e7 3357 776f 8dbf 7295 2959 7df0 c2bf
000000b0: 0f4f 813f 40b0 b33f 3a3e 914f dab5 b1bf
000000c0: fd65 e2c1 d914 a23f c0d2 0e49 b733 a7bf
000000d0: d3ff 6435 d496 7a3f 8331 3c47 2936 9ebf
000000e0: 1337 12e4 fe1c abbf 2ced bd83 7e16 56bf
000000f0: f05a d9e7 d46b 9e3f 240a b0ff 3db0 a6bf
00000100: 6024 3749 7c6a a4bf c32b f4b2 e0a4 aabf
00000110: f771 b195 8586 a83f ffd9 1372 dc10 903f
00000120: f449 ddb0 c1a8 843f ecf8 bf09 bc6d 94bf
00000130: b82f b237 b5ab 91bf 8d23 21b7 4ccb c33f
00000140: 4ea7 2d93 192a abbf 7df8 cf33 b108 833f
00000150: 63eb 95c3 74d4 c33f 7c66 b785 5011 8d3f
00000160: 7261 3d7a 6254 89bf d885 9cb1 de76 c03f
00000170: 802e 010b d706 8e3f 0872 e5ac fbac 983f
00000180: 0f06 df28 3741 993f daf4 f1ab 3056 683f
00000190: aefc c269 9f1d 75bf 6e20 ecae 0aeb 88bf
000001a0: cf5c 3458 5273 943f cb8a 1243 1c3a bdbf
000001b0: d8b8 3032 f72d a53f 0d4c 21d7 1be4 bb3f
000001c0: 8162 3c8f 9e56 b83f 6ca3 9f81 9243 933f
000001d0: 31fd a7a4 3ddd b33f 6f1a 88b7 95b2 acbf
000001e0: 2543 f1fb de0f b1bf 5472 42cd 7ed7 763f
000001f0: 5bc2 3e3c af85 8b3f c0a7 bfad cd8b a03f
00000200: 2aa5 5d5b 6985 b73f 94f3 af49 ced0 b63f
00000210: 1847 191b c162 b93f 4a8f 6b55 47ff 96bf
00000220: b6ed f193 5bcf b73f a6e1 bff7 906d cabf
00000230: 229f 1354 21e9 c8bf e755 f26b 5a7f b53f
00000240: 5e40 5aad 11c8 a43f c54f 1969 e2c5 bcbf
00000250: e159 95fb c40a b9bf 47e2 9463 c146 ce3f
00000260: 2542 0505 5cb3 ccbf 3988 8287 6760 c1bf
00000270: 690c 642f 876f cd3f b591 7ca8 62a3 c23f
00000280: c8cb 2a3c 71ce a33f e9af 0235 3afc be3f
00000290: fee3 0638 b33b b5bf 2e16 8bbb 22c6 d83f
000002a0: 80ec d789 b14a c53f 451d 1f8e a57b c13f
000002b0: f40b 600a 47d4 c93f 780d a58d a146 993f
000002c0: 0d59 9abd 9acc b93f 0977 a5e7 d276 8dbf
000002d0: eaf1 b9d2 db5d 75bf 5541 fd06 e781 9f3f
000002e0: 1280 96d8 24fe c1bf 33fd 4133 8dc6 c03f
000002f0: 358e a53e 0b8d 9b3f b684 a5a0 0961 c4bf
00000300: 9e52 2fa6 fb61 98bf 4a48 b969 b9d5 b6bf
00000310: 5c2e ceab cce3 983f e064 7126 f917 963f
00000320: 8e80 4e8a 6c98 babf 8322 6f6b 6b03 84bf
00000330: aa62 0e04 6de3 84bf 41dc a75b d885 b4bf
00000340: 0277 640e 221e b13f fb20 e5c0 5529 b7bf
00000350: 4aa0 e88e 292a b1bf 6884 a49a 2221 783f
00000360: 128c 271f 90e3 793f e51b f0a1 60a2 c13f
00000370: 7177 1c2d 77dd 59bf 4d5f 6de5 fbae 8c3f
00000380: 7c4a d95a e228 973f c596 e56b 2387 573f
00000390: 60aa c7dc 29be 91bf 5d16 0902 7139 89bf
000003a0: fd09 ce55 0099 7e3f 6902 cce4 a3eb 9f3f
000003b0: 6f45 6be0 70d9 943f 2851 1a24 f77d bfbf
000003c0: 5da3 b655 b7a5 b93f 72e3 ae2a 1d62 5c3f
000003d0: 2cee ad3f 4c1e 4c3f c789 ba9e c7f7 97bf
000003e0: 3c4d f046 0b53 59bf f9e0 36c9 c42c 963f
000003f0: ba0a 4aca 7085 8d3f 6745 539e 1246 963f
00000400: 53fc 9013 a590 aebf d16c 42ec 7702 c83f
00000410: f020 1950 cc57 aa3f 4f11 de51 18fd 90bf
00000420: c8f6 a7d9 baf1 85bf c8df 452d 6d20 dbbf
00000430: 6a61 7b27 4052 d6bf d547 ddb2 064a b63f
00000440: bca9 45f6 6843 c5bf 987d 8e85 96f6 a7bf
00000450: ff73 5a07 7da8 b93f 658f b191 6984 c73f
00000460: e6e2 0dc8 214a b2bf cfdb 5114 8dc5 913f
00000470: ad94 3cc5 04f5 d83f 6cf0 6cb4 0581 d43f
00000480: 0817 12c8 33c7 d33f 7823 44de 5e85 b23f
00000490: d87e e91a eb6f d0bf 972d e99f 6b23 d23f
000004a0: f792 0983 0f40 8c3f 51eb 7739 d286 983f
000004b0: a141 bd2f 9471 a9bf 2192 abc5 88b6 a73f
000004c0: 1d5b 4502 e1a0 abbf 0b81 5313 dfd1 d1bf
000004d0: f470 2d99 e818 c33f 04cc a506 204f b6bf
000004e0: f9d8 9714 78ca b53f e798 848c eeee c83f
000004f0: b093 76e1 587c c33f b11e 41e0 7674 b7bf
00000500: a1b6 0f26 f42a 22bf 3546 e57d b207 bb3f
00000510: ffed e136 7ee2 7b3f a40e 31ab 7b92 913f
00000520: ce6f c1b9 b6f3 c33f 503d 9a8d 5f4e 31bf
00000530: 17c7 3308 8cad 85bf 3090 bd23 81e6 c33f
00000540: e1ce 4b5d 3ac5 9ebf d078 1555 27db 91bf
00000550: 90ce b203 c30f b23f aa11 80df 5a05 853f
00000560: 0b11 ffde 678c 7ebf cf5c 6c97 b921 45bf
00000570: 4fd7 583b d9fc 7d3f 2f99 c411 91d0 913f
00000580: 3bf5 3d35 ee98 973f c92e 5edd 738e 79bf
00000590: 624c fda6 d440 883f aa40 9887 1f67 56bf
000005a0: c884 c266 73a3 343f bc00 03ad 524c b33f
000005b0: dedd b646 354b b03f f441 bb9b 859d babf
000005c0: a28e c782 8238 b73f 612e 1340 9867 793f
000005d0: 0880 4d0e 018d a13f 055b b69a 8be6 963f
000005e0: 055b a1ac 8789 ad3f 58d0 3855 c44a 763f
000005f0: 95d9 227a 4d2e 8f3f 7a51 36fc c305 7d3f
00000600: 2bb0 db69 af1c d63f cfe8 22d6 6bb4 a0bf
00000610: 9b3d f888 a0e2 bd3f 6ecf 161e 56c4 cbbf
00000620: 693f 17a8 4175 a1bf e668 0fba 473c d33f
00000630: 8ef2 ce33 2d8f d13f 2839 b52e 0613 513f
00000640: 09f7 c6ac e073 c43f dcda 5c79 8713 b4bf
00000650: 6442 58f3 74e7 bdbf a862 4621 e472 e2bf
00000660: 2bef 2c51 4405 d43f ad63 2668 4546 afbf
00000670: ec5c 477b df2d 893f 3157 704c dae6 d03f
00000680: 76ad 50ec 8e4b cb3f a418 fb27 20e2 ce3f
00000690: 4468 ea0a 7a00 c0bf 0e61 7ff0 3946 af3f
000006a0: a8d8 116a b571 b6bf 5993 8c31 6ee8 c4bf
000006b0: 75bf 86e7 510a c13f d6c8 56a2 6923 c2bf
000006c0: ed74 1650 4424 b13f 6f48 be56 ce42 ca3f
000006d0: 2873 a84a b1e3 c63f d9c1 1f74 ec09 d63f
000006e0: 3221 3ac0 f6b1 b93f 59a7 c4ab ca6a c5bf
000006f0: dc37 eedb d632 b93f 52ef 4cfd e589 b2bf
00000700: 44de e89a a3f7 b3bf c71b 3f85 c41b bdbf
00000710: 348e 45e1 6df2 bb3f 8566 100b dbef c93f
00000720: 1c1c dca1 311f 96bf c57a 142e e4fd 8bbf
00000730: f08e a363 78d6 9e3f 91ad 1152 5332 b0bf
00000740: de92 6997 3b09 c73f 61ed 8286 f60b bcbf
00000750: 14ec f89a 1446 b7bf 96d2 8a42 4d8d cb3f
00000760: b908 2ca5 6f51 ad3f 8f94 272d 792b b7bf
00000770: 464f 0fc7 70ef cc3f b269 aa9b db91 cb3f
00000780: a550 d0bc 5d53 933f a8bb d87c 4a2a c4bf
00000790: da63 8d0c 3a65 ad3f 14b7 7c56 7790 8dbf
000007a0: d634 1097 fbc5 cbbf 1efa 002c 27f9 c13f
000007b0: c128 6e09 9b02 a7bf a65a 5459 34f5 b1bf
000007c0: b619 14db ff6c 643f 9f84 a98a 5dfa c0bf
000007d0: eb54 9214 123a c5bf 6866 cc6b 0cdd c73f
000007e0: 7ac7 d661 adb0 a6bf b5a4 8655 713c d23f
000007f0: 04eb 310f cb85 c9bf 8334 e9a8 b9fc d2bf

predict.bias f8 [9]
0.16099478413798438 0.05061219447495299 0.1506592891672837 0.19965067352137725 0.15476980012594496 0.16810238031003927 0.18146103001845773 -0.09058910421974953
0.09175942977962956
00000000: 1f80 5922 7a9b c43f 2cf1 1870 d7e9 a93f
00000010: 95f2 e7b7 cd48 c33f 3908 b33c 278e c93f
00000020: 9f85 f92e 7fcf c33f 12db e7f8 6084 c53f
00000030: 85c0 b672 1d3a c73f 306d fff7 d830 b7bf
00000040: 4ecc 00c6 8b7d b73f
